Project-Run/run_cudalstm_1801_104533/model_epoch025.pt (torch, 11206 bytes, 5 tensors)

lstm.weight_ih_l0 f4 [80, 7]
0.035563346 0.21215466 0.19321023 0.653166 0.2151044 0.8387183 0.15420258 0.059048243
-0.17533068 0.3487662 -0.09304336 0.63947934 0.47162464 -0.42012307 0.23217355 0.7665116
-0.28747025 -0.050929684 0.7133282 -0.35569787 -0.3215943 0.00025057417 -0.8586531 -0.10884303
-0.45563954 -0.05521606 -0.2563137 1.7614777 0.38676527 1.0153139 0.040933356 0.42285812
0.60342765 -0.6526497 -0.11065877 -1.1002879 -2.1287525 1.0036484 1.6231301 1.3493822
-2.6733212 -0.2106094 -1.0850494 0.9222313 0.39325848 -0.07924489 -3.8182983 -0.7447071
-0.26339608 -1.2492862 -0.106472686 -0.9832028 1.3557514 0.04269118 -1.732699 -0.6919981
0.12723385 0.18148306 0.07000727 -0.68101394 0.33601198 -0.15053098 0.38690704 0.20386347
-0.4021046 -0.42974314 0.39458933 1.119152 -0.6013698 -1.2512848 -0.24327144 -0.06916216
0.45459625 -0.93366134 4.037875 7.223703 3.647966 0.10516938 0.0025400093 0.33138704
0.46801856 -0.0031363023 0.39736876 -0.5758597 -1.9570215 -0.13304132 0.54550254 -1.4663665
0.44112238 1.6693834 -1.1827109 0.3186266 -0.08243848 -0.31111184 -0.1716979 2.4080155
2.0969377 0.6034987 0.40511686 0.49000788 -0.11045358 -0.8060428 0.8351144 1.4103265
-1.3486793 0.19247328 -0.0341028 0.3446917 -0.06187681 0.571127 -0.52400297 0.43440926
0.42166722 0.27102643 0.37644264 0.29983667 0.12358193 -0.16848633 0.652118 1.3388315
0.5567981 1.4833817 1.73327 -0.27158818 -0.22722885 -0.007742504 -0.18961614 -2.2970366
1.1561061 -2.353289 -2.2808607 -1.1170884 -1.3881929 -0.17118196 1.714128 0.63720644
-0.646404 0.75642747 0.16573827 1.8143988 0.4077027 0.6547516 -0.5191061 -0.5536455
0.10956713 0.43462855 -0.57032895 0.8783121 -0.18837248 -0.55473197 0.16197124 -0.9269738
-0.103769794 0.4732292 -2.1917949 -0.2361483 -1.7230419 -0.07086215 -0.70137054 -0.57003474
0.6449557 0.98925364 1.8780882 2.0560374 -0.91498834 0.6880792 -1.9717652 -0.9146345
1.5803995 0.16752526 -0.17691867 1.1053832 -0.94278836 -0.15648223 -1.6394314 0.24660575
-0.023331828 -0.82902807 -0.8329909 0.061106186 -1.0999131 0.18230845 -1.2516372 -0.5443969
1.7085125 1.8598177 -0.6917783 1.4297973 -0.69449294 -0.60389024 0.42992243 0.9634602
0.5008424 -1.6874188 2.08735 1.0296924 0.9026939 -0.22097233 1.1147695 -0.32457972
0.6762758 -0.42250738 -0.1982082 -0.23746282 -0.3327343 1.1088383 0.53773886 0.26437292
-0.55289406 0.05304775 0.9956463 -0.5589276 -1.0393107 -0.14876118 0.79577756 0.1549949
-1.0838028 0.034467973 0.7243588 0.6109686 -0.24374507 -1.1400944 0.23531736 0.5514527
-1.3810445 -0.21802467 1.275757 1.1051475 1.3096772 -0.07955994 -0.597943 1.6097169
-0.068445005 0.63575023 0.21354724 -2.0445051 -1.4536635 -0.27863163 0.43088543 0.9061603
0.60837924 0.47082832 1.8060215 -0.6790154 -2.122823 -0.34459493 0.22953129 -0.8996475
-0.14277014 0.25605613 -1.1276952 -0.4978879 -0.7941569 1.4653156 -0.765932 -0.1358332
00000000: dfaa 113d 123f 593e e7d8 453e e335 273f
00000010: 5444 5c3e 3eb6 563f 48e7 1d3e 92dc 713d
00000020: e389 33be 7c91 b23e 848d bebd ebb4 233f
00000030: c978 f13e 5f1a d7be e7be 6d3e 1b3a 443f
00000040: 4d2f 93be a59b 50bd ad9c 363f 081e b6be
00000050: 02a8 a4be 7f5f 8339 b1d0 5bbf 18e9 debd
00000060: 9649 e9be 3c2a 62bd 8d3b 83be 1a78 e13f
00000070: 1906 c63e cef5 813f bca9 273d dc80 d83e
00000080: 3c7a 1a3f 0d14 27bf 11a1 e2bd 3cd6 8cbf
00000090: 7b3d 08c0 8d77 803f bac2 cf3f 8eb8 ac3f
000000a0: b217 2bc0 fea9 57be e6e2 8abf 5a17 6c3f
000000b0: 2d59 c93e 254b a2bd 005f 74c0 20a5 3ebf
000000c0: dadb 86be 9ce8 9fbf 5a0e dabd 2eb3 7bbf
000000d0: 4389 ad3f f2dc 2e3d 15c9 ddbf ca26 31bf
000000e0: 9749 023e b2d6 393e f95f 8f3d ee56 2ebf
000000f0: c309 ac3e cb24 1abe ae18 c63e 96c1 503e
00000100: a7e0 cdbe 4b07 dcbe 9d07 ca3e 5f40 8f3f
00000110: 5ff3 19bf 1a2a a0bf 261c 79be e4a4 8dbd
00000120: d7c0 e83e 6e04 6fbf 4636 8140 9328 e740
00000130: 4678 6940 0b63 d73d 4976 263b 90ab a93e
00000140: 21a0 ef3e 6c8a 4dbb eb73 cb3e 8b6b 13bf
00000150: ae7f fabf fc3b 08be 0ea6 0b3f e6b1 bbbf
00000160: cbda e13e 5bae d53f 1263 97bf 0723 a33e
00000170: 81d5 a8bd 0d4a 9fbe 93d1 2fbe ed1c 1a40
00000180: 3a34 0640 e47e 1a3f 7a6b cf3e 50e2 fa3e
00000190: 7d35 e2bd d258 4ebf 0fca 553f 9485 b43f
000001a0: 86a1 acbf b717 453e 61af 0bbd 6e7b b03e
000001b0: 8a72 7dbd 6135 123f 0f25 06bf e46a de3e
000001c0: c4e4 d73e fac3 8a3e 17bd c03e 3184 993e
000001d0: 8618 fd3d ae87 2cbe 35f1 263f d55e ab3f
000001e0: 528a 0e3f 74df bd3f cbdb dd3f 9b0d 8bbe
000001f0: aeae 68be d5b4 fdbb bc2a 42be a602 13c0
00000200: 49fb 933f 499c 16c0 9ff9 11c0 c1fc 8ebf
00000210: 4eb0 b1bf 534a 2fbe 8c68 db3f f61f 233f
00000220: bc7a 25bf 3ba5 413f 4bb7 293e 383e e83f
00000230: 69be d03e cd9d 273f 23e4 04bf b6bb 0dbf
00000240: bb64 e03d a287 de3e 1401 12bf 10d9 603f
00000250: b7e4 40be ea02 0ebf cadb 253e 284e 6dbf
00000260: 4285 d4bd 194b f23e 5e46 0cc0 dcd0 71be
00000270: a38c dcbf 2d20 91bd 058d 33bf cced 11bf
00000280: d11b 253f ba3f 7d3f 3265 f03f 1e96 0340
00000290: ad3c 6abf f525 303f cd62 fcbf 7d25 6abf
000002a0: 884a ca3f be8b 2b3e 2b2a 35be 327d 8d3f
000002b0: 945a 71bf e13c 20be e3d8 d1bf 3886 7c3e
000002c0: 6422 bfbc 2f3b 54bf e43e 55bf 7b4a 7a3d
000002d0: f4c9 8cbf 11af 3a3e a635 a0bf 985d 0bbf
000002e0: 8ab0 da3f 820e ee3f 6218 31bf 9903 b73f
000002f0: 4aca 31bf 8d98 1abf cb1e dc3e 54a5 763f
00000300: 3537 003f 57fd d7bf 2497 0540 f6cc 833f
00000310: f316 673f 9246 62be c4b0 8e3f 502f a6be
00000320: 6920 2d3f e352 d8be 17f7 4abe 7429 73be
00000330: 265c aabe 6aee 8d3f 41a9 093f e35b 873e
00000340: 778a 0dbf 9948 593d ade2 7e3f e115 0fbf
00000350: 2208 85bf da54 18be 14b8 4b3f fcb6 1e3e
00000360: 0dba 8abf 4a2e 0d3d 946f 393f 7068 1c3f
00000370: 4f98 79be 9dee 91bf 09f7 703e 012c 0d3f
00000380: 11c6 b0bf dc41 5fbe 014c a33f 7975 8d3f
00000390: 81a3 a73f 52f0 a2bd cb12 19bf 340b ce3f
000003a0: e52c 8cbd 87c0 223f 21ac 5a3e 2cd9 02c0
000003b0: a511 babf cea8 8ebe 049d dc3e 1ffa 673f
000003c0: bebe 1b3f 6910 f13e b62b e73f f4d3 2dbf
000003d0: 55dc 07c0 bf6e b0be 400a 6b3e 4c4f 66bf
000003e0: 5632 12be ca19 833e 5158 90bf 2aeb febe
000003f0: de4d 4bbf 768f bb3f 1f14 44bf dc17 0bbe

lstm.weight_hh_l0 f4 [80, 20]
-3.1052475 -0.5181831 0.6417124 -2.3488896 -0.4937052 -0.027257793 -0.05582562 -2.1560588
0.8065487 -0.5559875 -0.34018943 0.09578933 3.1290755 -1.2014298 0.6329605 0.6264527
-0.7128614 0.55047864 1.0920103 0.41825676 1.0820462 5.419898 -0.5908261 -2.1213987
-0.42696357 -0.21409555 0.20980257 -1.0980837 1.2562723 -0.20848806 0.41724992 0.09981364
1.3793647 -1.5284239 0.02240298 1.149756 0.15231265 -1.3889945 -0.22320367 -0.36518994
-0.544485 -1.2091385 0.42835623 2.2275548 0.30464542 2.5804725 1.4154804 -0.59888226
1.3917105 3.0405636 1.0750761 -0.30177683 0.17484412 1.7107785 1.989171 -1.6221244
0.7996375 0.2015206 -0.11027455 0.80357724 1.2238168 1.4567957 0.14136936 1.4536799
2.9096112 -1.0977643 2.4325051 -0.14267923 1.3065995 -1.3444648 0.14718352 -1.0447755
0.4184951 0.117757805 0.33611694 -0.58960724 -0.274078 4.537046 -0.05269005 0.2637192
-0.5174533 0.62308633 -0.332662 1.5507323 3.4048774 1.118292 -1.4970304 0.7569233
-1.6387933 0.376479 0.26867938 -0.5552856 -0.55677575 1.6978647 0.7109759 -1.1924449
-0.13646719 0.3820153 1.9155813 -0.49270085 0.39785403 3.5230978 1.5661539 -0.84129375
-0.80020577 2.5643077 -0.83377945 -4.0814724 1.2150925 -0.9247063 -1.4832968 2.9864872
2.7530906 -0.4704437 -0.6435575 0.25065047 -1.6402892 -2.9217603 -0.421705 1.7048014
-3.7827594 -0.39060035 -0.21098848 0.7855206 -0.39048406 1.7601528 1.566625 -2.6269727
-1.2708405 0.27391723 -2.3727136 -3.0880792 0.46542484 1.8524684 -3.2673573 -0.6819924
-3.6201165 0.6024102 0.7371587 -1.5524284 -0.2225843 0.9034302 0.54794466 0.4988796
1.879585 -1.2347682 0.10021557 -1.5548128 1.6731185 1.602128 2.3138218 -2.13082
2.8543575 2.1867292 2.2785645 -0.71272427 1.3708453 0.86730355 -1.3746663 -1.3994805
3.0221274 -0.9491375 -1.6303551 1.9417828 1.374447 -0.167517 2.3179889 -0.4766916
2.9224699 0.86780787 -2.6551561 -4.212706 0.8338903 -0.6620762 0.43024465 -0.5893145
0.44726682 2.5084078 1.6551533 -2.0017557 -1.9853055 0.34237263 0.40445763 2.3713982
0.9047719 -2.3582497 1.412904 -1.4842405 0.67302847 -0.7399682 -3.665483 -2.3068674
-0.5934898 1.0738106 -0.35270995 0.080106966 0.36380118 -1.3918775 -4.2454863 -1.7453169
2.5561903 0.43783772 1.361397 -1.0868219 -0.20246229 -2.3604066 -1.1384498 2.9056716
-1.6595732 0.026914837 -2.9638753 -0.40728524 1.6978437 -1.229502 1.1635511 1.0103424
0.24293356 1.650639 0.40328044 -0.08643229 -0.065048315 0.8871411 -0.21365377 -2.5748992
0.528442 -0.4567783 -0.34345326 -2.4815135 1.4335656 -0.88403594 -1.2870919 -7.307877
1.8327453 -1.4177331 0.5347365 -0.96990156 0.34338397 1.5927193 0.67124504 -0.07128734
0.4015644 -1.3230106 -0.27201906 0.41677916 1.041504 -0.5129952 -0.040576793 -1.2986695
-1.6313251 -0.14309685 0.78823215 -3.8786285 3.2853508 -0.06268829 -0.20807649 -1.028592
00000000: 60bc 46c0 a6a7 04bf 4447 243f 3554 16c0
00000010: eec6 fcbe bc4b dfbc 68a9 64bd defc 09c0
00000020: fa79 4e3f 3255 0ebf 4f2d aebe 322d c43d
00000030: c642 4840 74c8 99bf b309 223f 345f 203f
00000040: 167e 36bf 2bec 0c3f fec6 8b3f c025 d63e
00000050: 7d80 8a3f ce6f ad40 6140 17bf ffc4 07c0
00000060: f89a dabe dd3b 5bbe 7cd6 563e 028e 8cbf
00000070: 88cd a03f e57d 55be c8a1 d53e 186b cc3d
00000080: 068f b03f 65a3 c3bf 7486 b73c 342b 933f
00000090: d9f7 1b3e 92ca b1bf 818f 64be 2dfa babe
000000a0: 5e63 0bbf 0dc5 9abf 8251 db3e 4290 0e40
000000b0: 7cfa 9b3e 7626 2540 762e b53f 5950 19bf
000000c0: 9223 b23f 9898 4240 189c 893f 7e82 9abe
000000d0: 560a 333e cafa da3f 289d fe3f c6a1 cfbf
000000e0: 0bb5 4c3f 6b5b 4e3e a0d7 e1bd 3db7 4d3f
000000f0: 07a6 9c3f 4878 ba3f 21c3 103e 2f12 ba3f
00000100: 1237 3a40 8a83 8cbf 2aae 1b40 811a 12be
00000110: a73e a73f 6c17 acbf 47b7 163e 34bb 85bf
00000120: fd44 d63e 012b f13d 8517 ac3e 80f0 16bf
00000130: f453 8cbe 7b2f 9140 86d1 57bd 3406 873e
00000140: d277 04bf 9682 1f3f ac52 aabe 657e c63f
00000150: 83e9 5940 3124 8f3f b19e bfbf bac5 413f
00000160: fbc3 d1bf dbc1 c03e 5890 893e 3227 0ebf
00000170: db88 0ebf a153 d93f 8402 363f 09a2 98bf
00000180: 0ebe 0bbe 8297 c33e c531 f53f 4943 fcbe
00000190: 86b3 cb3e 6f7a 6140 bb77 c83f 075f 57bf
000001a0: 49da 4cbf 9e1d 2440 9272 55bf 6c9b 82c0
000001b0: 2788 9b3f 8db9 6cbf abdc bdbf 9b22 3f40
000001c0: a332 3040 ffdd f0be 2fc0 24bf 4255 803e
000001d0: fff4 d1bf 1ffe 3ac0 b8e9 d7be ef36 da3f
000001e0: bb18 72c0 c5fc c7be 5d0d 58be e117 493f
000001f0: 87ed c7be b04c e13f 2b87 c83f 5220 28c0
00000200: e7aa a2bf e13e 8c3e 8ada 17c0 17a3 45c0
00000210: 2a4c ee3e af1d ed3f 621c 51c0 0e97 2ebf
00000220: fdaf 67c0 8e37 1a3f 6fb6 3c3f f9b5 c6bf
00000230: 24ed 63be 3447 673f 1a46 0c3f 266d ff3e
00000240: 3e96 f03f e20c 9ebf d23d cd3d 1b04 c7bf
00000250: bf28 d63f 8812 cd3f a815 1440 5b5f 08c0
00000260: cbad 3640 5ff3 0b40 00d4 1140 1975 36bf
00000270: dc77 af3f 9b07 5e3f 11f5 afbf 2d22 b3bf
00000280: 896a 4140 adfa 72bf 7aaf d0bf 578c f83f
00000290: e1ed af3f 9489 2bbe ee59 1440 ec10 f4be
000002a0: bf09 3b40 a828 5e3f 14ee 29c0 7dce 86c0
000002b0: d679 553f d37d 29bf 0749 dc3e 51dd 16bf
000002c0: 2800 e53e c189 2040 10dc d33f c41c 00c0
000002d0: 7e1e febf 774b af3e 1215 cf3e fdc4 1740
000002e0: 229f 673f 90ed 16c0 0ada b43f 98fb bdbf
000002f0: 984b 2c3f 8e6e 3dbf 4697 6ac0 b7a3 13c0
00000300: f3ee 17bf a072 893f 6696 b4be 1f0f a43d
00000310: 2644 ba3e 0b29 b2bf 06db 87c0 8b66 dfbf
00000320: 9f98 2340 442c e03e 4242 ae3f fb1c 8bbf
00000330: 4652 4fbe e710 17c0 b9b8 91bf 86f6 3940
00000340: e56c d4bf 817c dc3c 22b0 3dc0 b187 d0be
00000350: f152 d93f 5260 9dbf 3eef 943f e652 813f
00000360: 93c3 783e 2448 d33f c67a ce3e 6a03 b1bd
00000370: 0d38 85bd ae1b 633f 0ec8 5abe 26cb 24c0
00000380: fa47 073f d8de e9be 1bd9 afbe 1ed1 1ec0
00000390: 147f b73f 2e50 62bf 6dbf a4bf 21da e9c0
000003a0: 6697 ea3f 4778 b5bf 7ee4 083f 784b 78bf
000003b0: 06d0 af3e 3ade cb3f b7d6 2b3f 19ff 91bd
000003c0: d999 cd3e 6958 a9bf 1546 8bbe 1464 d53e
000003d0: 0150 853f a753 03bf da33 26bd cd3a a6bf
000003e0: 43cf d0bf fb87 12be 95c9 493f 733b 78c0
000003f0: 3043 5240 b862 80bd 0112 55be e7a8 83bf

lstm.bias_ih_l0 f4 [80]
-2.9892335 -2.0787742 -0.4717834 -1.7318505 -1.8561993 -2.5889022 -0.85247654 -2.8306127
-2.398486 -2.081798 1.013715 -2.4252353 -1.7457427 1.6768695 -0.9619085 -1.3551154
-0.99795234 -1.8885936 -0.34940714 -0.49478003 -0.28849503 -1.2625194 -1.0915127 0.14376369
-0.058607172 -0.07699199 1.1036842 2.4500487 0.8272255 1.5999293 -0.5787042 -0.93324304
0.89199626 0.67582023 0.35419944 -1.2949399 -0.7826772 -1.6190554 0.38750464 0.96284395
0.40284684 -0.13538732 0.2570096 -1.1662625 -0.6199699 0.41198415 -1.2177733 0.4339348
-0.38376847 -0.24740668 -0.02955173 -0.05106559 -0.7007236 0.31485793 -0.760501 -0.28616297
-0.41802233 -1.9661093 0.79608613 0.120902106 -0.5853288 1.0884979 -1.5026435 -1.128032
-1.5695208 -1.23236 -0.8991999 0.23858315 -0.5822149 -0.03665522 -1.289114 0.8262797
0.16926375 -2.6918354 -1.0640829 -1.3528757 -1.3081743 -1.2693377 -2.5843546 -1.8474276
00000000: 9a4f 3fc0 a30a 05c0 988d f1be 47ad ddbf
00000010: f097 edbf 93b0 25c0 e73b 5abf c228 35c0
00000020: cb80 19c0 2e3c 05c0 6ac1 813f 0e37 1bc0
00000030: 7f74 dfbf a9a3 d63f a33f 76bf 6c74 adbf
00000040: ce79 7fbf 6fbd f1bf 7ee5 b2be cf53 fdbe
00000050: 9fb5 93be 3c9a a1bf b0b6 8bbf ca36 133e
00000060: 130e 70bd faad 9dbd 8645 8d3f 99cd 1c40
00000070: 0dc5 533f 7cca cc3f f525 14bf 04e9 6ebf
00000080: de59 643f 8e02 2d3f a159 b53e 97c0 a5bf
00000090: 885d 48bf 353d cfbf 0267 c63e f17c 763f
000000a0: f141 ce3e f9a2 0abe c396 833e 1748 95bf
000000b0: 59b6 1ebf 96ef d23e ffdf 9bbf b42c de3e
000000c0: 4d7d c4be 2d58 7dbe 7816 f2bc 272a 51bd
000000d0: 9f62 33bf 0f35 a13e 32b0 42bf f483 92be
000000e0: 0607 d6be 78a9 fbbf 4dcc 4b3f 869b f73d
000000f0: 1cd8 15bf e653 8b3f 9f56 c0bf 5a63 90bf
00000100: 0fe6 c8bf f9bd 9dbf f731 66bf 244f 743e
00000110: 090c 15bf c923 16bd b001 a5bf 1187 533f
00000120: 7a53 2d3e 0847 2cc0 de33 88bf 082b adbf
00000130: 4172 a7bf a879 a2bf 1166 25c0 8278 ecbf

lstm.bias_hh_l0 f4 [80]
-3.0460386 -2.0643506 -0.3165398 -1.5247302 -1.6288012 -2.9268084 -1.0221426 -2.898945
-2.2890005 -2.2669606 1.1724942 -2.055206 -1.5418886 1.6616614 -1.0981994 -1.0526206
-0.9323273 -1.5555438 -0.06887829 -0.2236372 2.7430916 1.7931427 1.7610201 3.196821
2.7733414 2.7959926 4.2219014 5.3055735 3.9291964 4.6062655 2.531426 1.867271
4.047883 3.5829246 3.5485241 1.580483 2.060969 1.2464783 3.4624119 3.7426872
0.30879557 0.11190398 0.033971887 -1.3549222 -0.30647486 0.6431281 -1.0009793 0.6054478
-0.41689572 -0.35929754 -0.19831742 -0.086661704 -0.7541637 0.19206595 -0.7086938 -0.058399264
-0.069029845 -2.319853 0.50370014 0.05871745 -0.86034817 1.0556139 -1.5255985 -0.85868657
-1.7138629 -1.3237138 -0.57612514 0.21457845 -0.4334644 -0.08078038 -1.3376818 1.0163375
-0.11047151 -2.7177649 -0.9479762 -1.0557905 -1.3697356 -1.2644722 -2.5779564 -1.6689895
00000000: 4cf2 42c0 521e 04c0 8111 a2be 5c2a c3bf
00000010: 8f7c d0bf d450 3bc0 92d5 82bf 5188 39c0
00000020: fc7e 12c0 e215 11c0 4a14 963f 7f88 03c0
00000030: 9b5c c5bf 52b1 d43f cc91 8cbf 46bc 86bf
00000040: 00ad 6ebf 0f1c c7bf 1010 8dbd 2601 65be
00000050: d08e 2f40 b385 e53f 1b69 e13f b798 4c40
00000060: 6d7e 3140 8bf1 3240 d119 8740 42c7 a940
00000070: f477 7b40 8766 9340 e202 2240 bc02 ef3f
00000080: 4288 8140 a34e 6540 051b 6340 444d ca3f
00000090: ebe6 0340 9a8c 9f3f 2898 5d40 3088 6f40
000000a0: 741a 9e3e ea2d e53d 1b26 0b3d 176e adbf
000000b0: 46ea 9cbe 0ba4 243f 1720 80bf a1fe 1a3f
000000c0: 5b73 d5be d9f5 b7be b913 4bbe b17b b1bd
000000d0: df10 41bf f0ac 443e f56c 35bf 1134 6fbd
000000e0: 855f 8dbd 7978 14c0 7ef2 003f b581 703d
000000f0: c73f 5cbf 5b1e 873f d046 c3bf e2d2 5bbf
00000100: dc5f dbbf 746f a9bf f07c 13bf 74ba 5b3e
00000110: 0cef ddbe 2f70 a5bd 2839 abbf 5917 823f
00000120: e33e e2bd dcef 2dc0 91ae 72bf 2524 87bf
00000130: 7f53 afbf 3ada a1bf 3dfd 24c0 73a1 d5bf

head.net.0.weight f4 [1, 20]
3.3299682 -2.3574674 -1.7223625 -1.0917151 -2.4476557 0.315966 0.051270667 -0.033004344
0.46521965 -0.07580317 1.8167651 2.5423565 0.030883975 -1.9190918 0.5888102 -1.7214965
1.7977352 -1.9857593 -0.04363531 2.5524743
00000000: 331e 5540 bfe0 16c0 6076 dcbf 52bd 8bbf
00000010: 64a6 1cc0 4cc6 a13e 3101 523d 902f 07bd
00000020: 4531 ee3e b13e 9bbd c28b e83f f8b5 2240
00000030: 6400 fd3c cda4 f5bf 44bc 163f ff59 dcbf
00000040: 301c e63f 5c2d febf f0ba 32bd bd5b 2340
