Project-Run/run_cudalstm_1801_104533/model_epoch035.pt (torch, 11206 bytes, 5 tensors)

lstm.weight_ih_l0 f4 [80, 7]
0	0x3da35834	0.07975808
1	0x3e459452	0.19294861
2	0x3e030334	0.1279419
3	0x3f139a5c	0.5765741
4	0xbc5809ab	-0.013185899
5	0x3f5477ea	0.82995474
6	0x3e448723	0.19192176
7	0x3dc09e6c	0.094052166
8	0x3d8ab786	0.067732856
9	0x3e8482fb	0.2588118
10	0xbdf14988	-0.11781603
11	0x3f2dabd9	0.67840344
12	0x3f3b715e	0.7321986
13	0xbec49e98	-0.38402247
14	0x3ed89d8f	0.42307708
15	0x3f294567	0.66121525
16	0x3e837200	0.25672913
17	0xbec08134	-0.37598574
18	0x3f0ed9df	0.55801195
19	0xbeb66a5b	-0.35628018
20	0xbec5f9e6	-0.3866722
21	0x3c1c8557	0.009553275
22	0xbf3c9c26	-0.73675764
23	0xbdfc534c	-0.12320575
24	0xbed8c8a2	-0.4234057
25	0xbdbe3747	-0.09287887
26	0xbe28fbb8	-0.16502273
27	0x3fddad0b	1.7318434
28	0x3ef34961	0.4751692
29	0x3f69d0df	0.91334337
30	0x3e92f247	0.28700468
31	0x3e917a6f	0.28413722
32	0x3f4c4b98	0.79802847
33	0xbd503b52	-0.050837822
34	0x3deaf43a	0.11472364
35	0xbf5cab75	-0.8619912
36	0xc01a8f9a	-2.4150147
37	0x3f675973	0.90370864
38	0x3fda2ae7	1.7044343
39	0x3fda69bc	1.7063518
40	0xc03678cc	-2.8511229
41	0xbe8c61c1	-0.2741833
42	0xbf97139e	-1.1802862
43	0x3f85d8f8	1.0456839
44	0x3db68933	0.089128874
45	0x3ebc3424	0.3675853
46	0xc073d7ad	-3.8100388
47	0xbf152f5f	-0.5827541
48	0xbbe656a1	-0.00702937
49	0xbf9d2033	-1.2275451
50	0x3e8820d9	0.2658756
51	0xbf59cf0b	-0.8508155
52	0x3fdf63db	1.7452348
53	0x3ddc05be	0.10743283
54	0xbfe7826e	-1.8086679
55	0xbf58b3d2	-0.84649384
56	0x3df76060	0.12078929
57	0x3e6ddcea	0.23228803
58	0x3d770b9a	0.0603138
59	0xbf3621f0	-0.71145535
60	0x3efb6d87	0.49107
61	0xbe6a5d29	-0.228871
62	0x3eb0522c	0.34437692
63	0x3d76f9c7	0.0602968
64	0xbf1e40c2	-0.6181756
65	0x3e7392a8	0.23786414
66	0x3eeb3dab	0.45945486
67	0x3f9b4344	1.2129903
68	0xbf3f866a	-0.74814475
69	0xbf982fea	-1.1889622
70	0xbeb01b58	-0.34395862
71	0xbe244c64	-0.16044766
72	0x3efe2371	0.49636415
73	0xbf7c6b53	-0.98601264
74	0x408e99c6	4.456271
75	0x40e0d99f	7.026565
76	0x404e09db	3.2193515
77	0xbb823b54	-0.0039743576
78	0x3d0a0a0f	0.033701
79	0x3ec7a386	0.38991946
80	0x3edeb2a2	0.4349566
81	0x3cd38753	0.025821364
82	0x3eecd0c9	0.4625304
83	0xbf4081c1	-0.7519799
84	0xc015d362	-2.3410268
85	0xbdaf1fa0	-0.08550954
86	0x3ebbe17c	0.36695468
87	0xbfafbb54	-1.3729043
88	0xbc82f8f1	-0.015987845
89	0x3fd1f8c7	1.6404046
90	0xbf9fb771	-1.2477857
91	0x3e0e1cdb	0.13878195
92	0x3e310e60	0.1729064
93	0x3eb41dde	0.35179037
94	0xbe481798	-0.1954025
95	0x40371e2e	2.861217
96	0x403dbc35	2.9646122
97	0x3fb2396c	1.3923774
98	0x3ebaed73	0.36509284
99	0x3f16a741	0.5884896
100	0xbe2f0c97	-0.17094646
101	0xbf56547a	-0.8372265
102	0x3f823bc6	1.0174491
103	0x3fad810c	1.3555007
104	0xbfa790b5	-1.3091036
105	0x3ea300cb	0.31836542
106	0x3d084636	0.033270083
107	0x3db94ed8	0.090482414
108	0xbe3968a2	-0.1810632
109	0x3f2623e3	0.6489851
110	0xbf16a805	-0.5885013
111	0x3ee8ed2b	0.45493445
112	0x3f13211b	0.5747239
113	0x3e1d97e4	0.15389973
114	0x3f01ce5a	0.5070549
115	0x3ef1324e	0.47108692
116	0xbc9af8c8	-0.018917456
117	0xbead79b3	-0.33881912
118	0x3f45473f	0.7706184
119	0x3fca0f22	1.5785868
120	0xbdf4f5a8	-0.11960918
121	0x3fc86a52	1.5657446
122	0x3fdec641	1.7404252
123	0xbea447bb	-0.32085976
124	0xbccc01f9	-0.024903284
125	0x3edd52dd	0.43227282
126	0xbe7f6277	-0.24939905
127	0xc0307bc7	-2.7575548
128	0x3fb26516	1.3937099
129	0xc02b5ef6	-2.677671
130	0xc048b21b	-3.1358707
131	0xbf87db9a	-1.0613892
132	0xbfac00aa	-1.3437703
133	0xbf1cd884	-0.61267877
134	0x3ffa0477	1.9532613
135	0x3f2bab54	0.670583
136	0xbec8b2ac	-0.39198816
137	0x3f6c5f00	0.9233246
138	0xbe5b5c38	-0.21421897
139	0x3fe77225	1.8081709
140	0x3e9e66ef	0.30937907
141	0x3f191166	0.5979217
142	0xbebe602c	-0.37182748
143	0xbf2d5fb8	-0.6772418
144	0x3c27bfdf	0.010238617
145	0x3ec2bc96	0.38034505
146	0xbf1df143	-0.6169626
147	0x3f42b431	0.760562
148	0xbe7428ee	-0.23843738
149	0xbf3b9fbf	-0.7329063
150	0x3e9b60a8	0.3034718
151	0xbf77e679	-0.9683605
152	0xbf045bc4	-0.51702523
153	0x3e72ce9b	0.23711626
154	0xbfc23156	-1.5171306
155	0xbf1dd1b8	-0.6164813
156	0xbf9d5a72	-1.2293227
157	0xbd5954f8	-0.05305955
158	0xbf6fd0a0	-0.9367771
159	0x3e986aec	0.29769075
160	0x3f5a40ed	0.8525532
161	0x3f795556	0.9739584
162	0x3ff5f323	1.9214824
163	0x3ffeaf18	1.9897184
164	0xbf87e1c6	-1.0615776
165	0x3eb27325	0.34853473
166	0xbfe357cb	-1.7761167
167	0xbf8e44b0	-1.1114712
168	0x3fce7f12	1.6132529
169	0xbcb79b5b	-0.022412946
170	0x3e003623	0.12520652
171	0x3f8648ea	1.0491002
172	0xbf5b8bfd	-0.8576048
173	0x3dbf657d	0.09345529
174	0xbfd53166	-1.66557
175	0x3f1da217	0.61575454
176	0x3e679791	0.22616412
177	0xbf90a3f3	-1.1300033
178	0xbf6b90d7	-0.92017883
179	0xbd916ee1	-0.071012266
180	0xbf94cd70	-1.1625195
181	0x3ec7aadd	0.38997546
182	0xbfc65cf7	-1.5497121
183	0xbf5eb0d5	-0.86988574
184	0x3fe52a4e	1.7903535
185	0x400927db	2.1430576
186	0xbf707c18	-0.9393935
187	0x3fc6ac39	1.5521308
188	0xbf52dccd	-0.82368165
189	0xbf89d464	-1.0767941
190	0x3ed8e21e	0.42360014
191	0x3f8927b3	1.071524
192	0x3f7f4c8c	0.99726176
193	0xc021cc68	-2.528101
194	0x40253d40	2.5818634
195	0x3f0edf33	0.55809325
196	0x3f1d7c80	0.61518097
197	0xbebacc09	-0.3648379
198	0x3f8d3f37	1.1034917
199	0xbee4e247	-0.44703886
200	0x3f7e632d	0.9937008
201	0xbec42862	-0.3831206
202	0xbeac4d8d	-0.33652917
203	0xbe457f94	-0.19286948
204	0xbe937921	-0.28803352
205	0x3f83175f	1.0241507
206	0x3f428051	0.75977045
207	0x3ea36d55	0.3191935
208	0xbf242c49	-0.64130074
209	0x3e8846f6	0.2661664
210	0x3f7db9c7	0.991116
211	0xbec7c029	-0.39013794
212	0xbf7ded68	-0.9919038
213	0xbcca357b	-0.024683705
214	0x3f377109	0.7165685
215	0xbcb22f98	-0.02175121
216	0xbf925eeb	-1.1435217
217	0x3e3188c7	0.17337333
218	0x3eec2369	0.46120766
219	0x3f0a180f	0.5394296
220	0xbe8e0136	-0.277353
221	0xbf8bf609	-1.0934459
222	0xbd6c9735	-0.05776139
223	0x3f2ea23f	0.6821632
224	0xbf86dbd6	-1.0535839
225	0xbe7536b1	-0.23946644
226	0x3fc090a0	1.5044136
227	0x3fb53e16	1.4159572
228	0x3fba3648	1.4547815
229	0xbe0eb2dc	-0.13935417
230	0xbef52056	-0.47876233
231	0x401168e7	2.2720277
232	0x3e812b54	0.2522837
233	0x3f8e4399	1.1114379
234	0x3f95e208	1.1709604
235	0xbfc8f4b4	-1.5699677
236	0xbfc3a01d	-1.5283238
237	0xbe698f9c	-0.22808689
238	0x3f073c34	0.5282624
239	0x3f845b52	1.0340369
240	0x3eca9106	0.3956377
241	0x3ed22133	0.41040954
242	0x3fe2ff10	1.7734089
243	0xbf3fcaa2	-0.7491857
244	0xc003e196	-2.0606437
245	0xbece9578	-0.4034841
246	0x3e72fa4e	0.23728296
247	0xbf7f726f	-0.99783987
248	0xbd864e1d	-0.06557868
249	0x3e431961	0.1905265
250	0xbf728038	-0.94726896
251	0xbeb38656	-0.35063428
252	0xbf77d2bb	-0.96805924
253	0x3f775c6d	0.96625406
254	0xbf3ed11c	-0.74537826
255	0xbe818fbb	-0.2530497

lstm.weight_hh_l0 f4 [80, 20]
0	0xc0341275	-2.8136265
1	0xbf068322	-0.5254384
2	0x3f2b31da	0.6687294
3	0xc03c5436	-2.9426398
4	0xbf0b2d8f	-0.5436639
5	0x3ec39477	0.38199207
6	0xbd123bd6	-0.035701595
7	0xc00665bd	-2.0999596
8	0x3f481843	0.7816202
9	0xbe85e4ca	-0.26151115
10	0x3c556229	0.0130238915
11	0x3ee9bd09	0.45652035
12	0x40687a8c	3.6324797
13	0xbe04fa40	-0.12986088
14	0x3ecf2ebd	0.40465346
15	0x3f1499c5	0.58047134
16	0xbf089e6d	-0.5336674
17	0x3eaafbcd	0.33395234
18	0x3f8dd25c	1.1079822
19	0x3e68354b	0.2267658
20	0x3fa27f35	1.269507
21	0x40c49b54	6.143961
22	0x3e986b07	0.29769155
23	0xc01220b2	-2.2832456
24	0xbee18a39	-0.44050768
25	0x3cb470e3	0.022026485
26	0x3e83961e	0.25700468
27	0xbfb032fc	-1.3765559
28	0x3f982e04	1.1889043
29	0xbecc685e	-0.39923376
30	0x3e0b1adc	0.13584465
31	0x3e329f3c	0.17443556
32	0x3ff1fa7a	1.8904564
33	0xbf38d598	-0.7220092
34	0xbec99640	-0.39372444
35	0x3faeb4ac	1.3648887
36	0xbed6f6cd	-0.4198517
37	0xbface3d1	-1.3507024
38	0xbf3ce447	-0.73785824
39	0xbee1d6e7	-0.4410927
40	0xbf29dee9	-0.6635576
41	0xbf4a68ab	-0.7906596
42	0x3fabc7cc	1.3420348
43	0x40248e45	2.5711834
44	0xbd146ea6	-0.036238335
45	0x4081e91e	4.0597067
46	0x400a17ac	2.1576948
47	0xbe913a2d	-0.28364697
48	0x400212b7	2.0323923
49	0x405c1f36	3.439405
50	0x3f923401	1.142212
51	0x3dae1289	0.08499629
52	0x3f68841d	0.9082659
53	0x4023cbfe	2.5593257
54	0x3ff74f35	1.9321047
55	0xbf9034a9	-1.1266071
56	0x3f27f3d3	0.6560642
57	0x3f0930c4	0.53590035
58	0x3e3e430e	0.18580267
59	0x3f740afd	0.95329267
60	0x3fd6fc2c	1.6795707
61	0x3f8015d7	1.0006665
62	0x3e384516	0.17995104
63	0x3f91fdd6	1.140559
64	0x404ddb5b	3.2165134
65	0xbf9b5228	-1.2134447
66	0x40251578	2.5794353
67	0x3da51e46	0.08062415
68	0x3fd84ce1	1.6898462
69	0xbf8ae8a7	-1.085225
70	0x3f127d1c	0.5722215
71	0xbf9e285b	-1.2356066
72	0x3f688935	0.9083436
73	0x3f86eea0	1.0541573
74	0x3e0fe3ca	0.14051738
75	0xbeb6a283	-0.35670862
76	0xbf18d276	-0.5969614
77	0x40ad1d41	5.409821
78	0xbefd43d3	-0.49465808
79	0x3f2f6fe6	0.6853012
80	0xbf1218e9	-0.5706926
81	0x3e101080	0.14068794
82	0xbe2a20f8	-0.16614139
83	0x3fd09bb8	1.6297522
84	0x40934139	4.6017118
85	0x3fe012dc	1.7505755
86	0xbffff11d	-1.9995457
87	0x3f97901d	1.1840855
88	0xbff67bf0	-1.9256573
89	0x3f38d16b	0.72194546
90	0x3ef48e4f	0.47764823
91	0xbee9ae06	-0.45640582
92	0xbf191020	-0.5979023
93	0x3fc386d7	1.5275525
94	0x3f92dc43	1.1473469
95	0xbfbb407a	-1.4629052
96	0x3e9a88c2	0.30182463
97	0xbe87a20d	-0.26490822
98	0x404517af	3.0795705
99	0xbec6f8fb	-0.38861832
100	0x3f0711ba	0.52761424
101	0x4070653e	3.7561793
102	0x40207806	2.5073256
103	0xbf97419e	-1.18169
104	0xbfb7e318	-1.4366179
105	0x40390c50	2.8913765
106	0xbf948e7f	-1.1605986
107	0xc09dc02c	-4.9297085
108	0x3f13344e	0.57501686
109	0xbec9cc62	-0.39413744
110	0xc02338d9	-2.5503447
111	0x406adce5	3.6697323
112	0x4010d668	2.2630863
113	0x3fa8b5aa	1.318044
114	0xbf6f5c63	-0.93500346
115	0xbe17f3d8	-0.14839113
116	0xbf605ab5	-0.8763841
117	0xc075dd8e	-3.8416476
118	0xbf42c77c	-0.7608564
119	0x40095dd1	2.146351
120	0xc08523b9	-4.1606107
121	0xbf5a05c3	-0.8516504
122	0xbebfa2c9	-0.37428883
123	0x3f7487a8	0.95519495
124	0xbebdc4ab	-0.37064108
125	0x401f241d	2.4865792
126	0x3fdeeffc	1.7416987
127	0xc056adec	-3.3543653
128	0xbfd7d3f7	-1.6861562
129	0x3ebf6255	0.3737971
130	0xc050c60b	-3.2620876
131	0xc02564bf	-2.584274
132	0x3ecb31f4	0.3968655
133	0x40527713	3.2885177
134	0xc0828f90	-4.0800247
135	0xbfa6ada6	-1.3021743
136	0xc06bb414	-3.682866
137	0x3ebe35ca	0.37150413
138	0x3e6c6549	0.23085512
139	0xbfc8cf4e	-1.5688264
140	0x3e3314ed	0.17488451
141	0x3fc1455b	1.5099291
142	0x3f052504	0.52009606
143	0x3f413244	0.75467324
144	0x400f5b1f	2.2399366
145	0xbfc11174	-1.5083451
146	0x3a58b89a	0.0008267254
147	0xbfa3d1a0	-1.2798347
148	0x4021d5ce	2.5286746
149	0x3ff983ae	1.949331
150	0x40110554	2.2659502
151	0xc02c3526	-2.690744
152	0x4024667b	2.568755
153	0x403496aa	2.8216958
154	0x402d9bac	2.7126265
155	0xbedec0d1	-0.43506482
156	0x3fed02ff	1.8516539
157	0x3f09ee54	0.53879285
158	0xc018c503	-2.3870246
159	0xbfb0a733	-1.3801025
160	0x403cffc5	2.953111
161	0xbf3d88aa	-0.7403666
162	0xbfdf6e26	-1.745549
163	0x3fc8a74e	1.5676057
164	0x3f63de53	0.89011115
165	0xbdc8c529	-0.0980323
166	0x400d9559	2.2122405
167	0xbef0a0c1	-0.46997645
168	0x40518084	3.273469
169	0x3f40387f	0.75086206
170	0xc02952d0	-2.6456795
171	0xc097c05a	-4.7422304
172	0x3f48ec94	0.7848599
173	0x3e94e43c	0.2908038
174	0x3db778fc	0.08958623
175	0xbf2aac3f	-0.66669077
176	0x3f39e959	0.72621685
177	0x402f54fd	2.7395623
178	0x3fe4aaa2	1.7864573
179	0xbfc232ad	-1.5171715
180	0xbffadee0	-1.9599266
181	0x3e3cae05	0.18425758
182	0x3da0d783	0.078536056
183	0x4062ce26	3.5438323
184	0x3f430ee6	0.7619461
185	0xc019abb7	-2.4011056
186	0x3fc3119f	1.5239753
187	0xbfb38a5a	-1.4026597
188	0x3f93f0a4	1.1557813
189	0xbf90b2fb	-1.130462
190	0xc071dddc	-3.7791662
191	0xc05c1f22	-3.4394002
192	0xbea17dd2	-0.31541306
193	0x3f828210	1.0195942
194	0xbecc3366	-0.39882964
195	0xbd800d75	-0.06252567
196	0x3f4458fc	0.7669828
197	0xbfcf5f32	-1.6200926
198	0xc07e1e55	-3.9706013
199	0xbfd82a46	-1.6887901
200	0x4068cab9	3.6373732
201	0xbd43fa67	-0.047846224
202	0x3f6c17fa	0.92224085
203	0xbfcee9c1	-1.6165086
204	0xbf10076d	-0.5626133
205	0xc00c3513	-2.1907394
206	0xbf8f1351	-1.117777
207	0x402447db	2.5668857
208	0xbf982666	-1.1886718
209	0xbed161e2	-0.4089499
210	0xc052509c	-3.28617
211	0xbf201da9	-0.6254526
212	0x4014b905	2.3237927
213	0xbfe17ceb	-1.7616247
214	0x3fa83908	1.3142405
215	0x3f8d8b08	1.1058054
216	0x3ed9bafa	0.42525464
217	0x3f9d8a5d	1.230785
218	0xbe0a7bf0	-0.13523841
219	0x3ed99f17	0.42504188
220	0x3bfa2ce2	0.007634745
221	0x3f156ca6	0.5836891
222	0xbe5f9295	-0.2183326
223	0xc044c1a0	-3.074318
224	0x3edffc58	0.4374721
225	0x3c7e979d	0.015539077
226	0xbecfb3ff	-0.40567014
227	0xc03235bb	-2.7845294
228	0x3f91e320	1.1397438
229	0xbf4add9f	-0.79244417
230	0xbf34b79f	-0.70592684
231	0xc0fe5ba5	-7.948687
232	0x3fe53077	1.7905415
233	0x3ee0a814	0.43878233
234	0x3e7872a8	0.24262488
235	0xbf8ca3ac	-1.0987449
236	0x3f2d6d37	0.67744774
237	0x3fcf954c	1.6217437
238	0x3eb6f452	0.35733277
239	0xbe71709f	-0.23578118
240	0x3e54b9f5	0.20774062
241	0xbf70276b	-0.9381015
242	0xbf0769f5	-0.5289605
243	0xbf3cfffa	-0.7382809
244	0x3fa579dd	1.2927815
245	0xbcd2f1b5	-0.02575002
246	0x3df95f50	0.121763825
247	0xbf4edceb	-0.80805844
248	0xbfc4a64e	-1.5363252
249	0x3d813b0d	0.06310091
250	0x3f89f41e	1.0777624
251	0xc08db8ad	-4.4287934
252	0x40731192	3.7979474
253	0x3f6e379e	0.93053615
254	0xbe825c32	-0.25460964
255	0xbfc69e60	-1.5517082

lstm.bias_ih_l0 f4 [80]
0	0xc034ff84	-2.8280954
1	0xc0062375	-2.0959141
2	0xbea919ac	-0.330274
3	0xbfeba00a	-1.8408215
4	0xbfd91947	-1.6960839
5	0xc0177f97	-2.3671625
6	0xbf5dc598	-0.8662963
7	0xc035270c	-2.8305082
8	0xc01b37d8	-2.4252834
9	0xc0023f31	-2.035107
10	0x3f910dd8	1.133235
11	0xc0188574	-2.3831453
12	0xbffbf871	-1.9685193
13	0x3fbc8bc1	1.473015
14	0xbf93da50	-1.1550999
15	0xbfb676bf	-1.4254988
16	0xbf56ac29	-0.83856446
17	0xbff1782d	-1.88648
18	0xbf0759c8	-0.5287137
19	0xbf226a31	-0.63443285
20	0xbe862e17	-0.2620704
21	0xbf9ec929	-1.2405139
22	0xbfb237f2	-1.3923323
23	0x3ed8aa7e	0.42317575
24	0x3d8a86dc	0.06764004
25	0x3e6a59bf	0.22885798
26	0x3f96019c	1.1719241
27	0x4008ef35	2.1396
28	0x3f3de56a	0.74178183
29	0x3fea4edd	1.8305317
30	0xbf194edd	-0.5988596
31	0xbf83d5bd	-1.0299603
32	0x3f7d9941	0.9906197
33	0x3e4c9136	0.19977269
34	0x3e8cdd5d	0.27512637
35	0xbfbee976	-1.4914997
36	0xbf1dffb7	-0.61718315
37	0xbfccf239	-1.601142
38	0x3f789967	0.97109073
39	0x3f7afde2	0.98043644
40	0x3f1a9d4c	0.60396266
41	0xbda8fb43	-0.08251049
42	0x3e895f2a	0.26830417
43	0xbfa17512	-1.2613852
44	0xbec00427	-0.37503168
45	0x3e7d5cd9	0.2474245
46	0xbfa588f4	-1.293242
47	0x3ee2148c	0.441563
48	0xbf02ada2	-0.5104619
49	0xbe304d8f	-0.17217086
50	0xbe1e6d94	-0.15471488
51	0xbe21ade7	-0.15788995
52	0xbf22fea0	-0.63669777
53	0xbe4a0d0c	-0.1973154
54	0xbf4d77d8	-0.8026099
55	0xbdf0215c	-0.11725113
56	0xbf2cff9a	-0.6757752
57	0xc00d06e3	-2.2035453
58	0x3f6232ac	0.8835857
59	0x3e8b2bef	0.27181956
60	0xbf0e0306	-0.55473363
61	0x3f972dcd	1.1810852
62	0xbfb197c5	-1.3874441
63	0xbf86876a	-1.0510075
64	0xbfdb7032	-1.7143614
65	0xbfb41044	-1.4067464
66	0xbf81cfa2	-1.014149
67	0x3eb06488	0.344517
68	0xbf0611a8	-0.5237069
69	0x3da4a1d7	0.08038681
70	0xbf99c922	-1.2014506
71	0x3f97f6de	1.1872213
72	0x3ecee866	0.4041168
73	0xbfee0cee	-1.8597696
74	0xbf8cd3d1	-1.1002141
75	0xbface35c	-1.3506885
76	0xbf9e23e0	-1.2354698
77	0xbfa42b17	-1.282565
78	0xc03d221c	-2.9552069
79	0xc001d7f4	-2.0288057

lstm.bias_hh_l0 f4 [80]
0	0xc038a236	-2.8849006
1	0xc0053725	-2.0814908
2	0xbe333b0e	-0.17502996
3	0xbfd11d1f	-1.6337012
4	0xbfbbfde6	-1.4686859
5	0xc02d1fd8	-2.7050686
6	0xbf849a85	-1.0359656
7	0xc039869b	-2.8988407
8	0xc0143609	-2.315798
9	0xc00e18d6	-2.2202659
10	0x3fa560a9	1.2920123
11	0xc000d6e9	-2.013117
12	0xbfe1e087	-1.7646645
13	0x3fba9963	1.457806
14	0xbfa54c46	-1.2913902
15	0xbf8fbe9d	-1.1230046
16	0xbf45df46	-0.77293813
17	0xbfc6d6cb	-1.55343
18	0xbe7e2471	-0.24818589
19	0xbeba00c9	-0.36328724
20	0x40313fd8	2.7695217
21	0x3fe856a8	1.8151445
22	0x3fbae7cf	1.4601992
23	0x405e7a91	3.4762309
24	0x403992b3	2.8995788
25	0x4046847b	3.101836
26	0x408948d2	4.290139
27	0x409fd7f3	4.995111
28	0x40760019	3.843756
29	0x409ac794	4.8368626
30	0x4020b8a8	2.5112705
31	0x3fe2a17b	1.770553
32	0x4084b046	4.1465178
33	0x4046d6e0	3.106865
34	0x405e0b71	3.4694483
35	0x3fb12465	1.3839232
36	0x400e7e58	2.2264614
37	0x3fa1d796	1.2643917
38	0x408178cb	4.045995
39	0x4070a84a	3.7602715
40	0x3f02898a	0.5099112
41	0x3e28bc4a	0.16478077
42	0x3d3967b3	0.04526491
43	0xbfb99b12	-1.4500449
44	0xbd7c0f79	-0.061538193
45	0x3ef506c6	0.4785673
46	0xbf89c8fd	-1.0764462
47	0x3f1cf256	0.61307275
48	0xbf0b28a9	-0.5435892
49	0xbe9170c7	-0.28406355
50	0xbea59f58	-0.32348132
51	0xbe46213c	-0.19348615
52	0xbf30ace0	-0.69013786
53	0xbea3e52e	-0.32010788
54	0xbf40349b	-0.7508027
55	0x3de25458	0.110512435
56	0xbea75000	-0.32678223
57	0xc023aaaf	-2.5572927
58	0x3f1758ed	0.59120065
59	0x3e56aa9e	0.20963523
60	0xbf546abd	-0.8297537
61	0x3f92f83d	1.1482006
62	0xbfb487f6	-1.4103992
63	0xbf481ac9	-0.7816587
64	0xbfede9fc	-1.8587031
65	0xbfbfc1bf	-1.4981002
66	0xbf30ea48	-0.69107485
67	0x3ea41a2e	0.32051224
68	0xbebffa52	-0.37495667
69	0x3d148750	0.036261857
70	0xbfa0009a	-1.2500184
71	0x3fb04ac4	1.3772817
72	0x3dfebbc6	0.12438159
73	0xbff15e80	-1.8856964
74	0xbf7bee80	-0.984108
75	0xbf86dc7c	-1.0536036
76	0xbfa6051e	-1.2970312
77	0xbfa38ba9	-1.2776996
78	0xc03cb948	-2.9488087
79	0xbfecd90a	-1.8503735

head.net.0.weight f4 [1, 20]
0	0x405acea8	3.4188633
1	0xc038a41e	-2.885017
2	0xbfdbcbb5	-1.7171541
3	0xbfad317b	-1.3530725
4	0xc01c5737	-2.4428232
5	0x3e9cc35b	0.30617794
6	0x3d883eb2	0.06652583
7	0xbd3d7c80	-0.04626131
8	0x3f081aef	0.531661
9	0xbd36627f	-0.044527527
10	0x3fddc140	1.73246
11	0x403bfef5	2.9374363
12	0x3dc7ee85	0.09762291
13	0xbfd44ffa	-1.6586907
14	0x3f1de316	0.6167463
15	0xbfd1846d	-1.6368538
16	0x3fdd2cfe	1.7279356
17	0xc01459fc	-2.3179922
18	0xbd60defe	-0.054900162
19	0x4035846d	2.8362076
