Project-Run/run_cudalstm_1801_104533/model_epoch006.pt (torch, 11206 bytes, 5 tensors)

lstm.weight_ih_l0 f4 [80, 7]
00000000: b7be 7e3d 9315 893d 7dc2 103e 9b21 b43e
00000010: e418 223f 6023 9f3e 5567 d33e d54c 3c3e
00000020: 8b44 b9bd 30f2 d43e adfb 823d 1665 3c3f
00000030: ebe4 0b3f b980 8d3e db7d d73e b7f6 2f3f
00000040: c3d0 353d 3953 053f f8ca 99be 2641 45bf
00000050: 16fe 5abf 0b5c 50be 9a2d bfbf 5e08 a23a
00000060: 2b50 a5be d758 b83d dbd3 dbbe bec8 8a3f
00000070: 05a6 053f 6e55 0b3f 4f50 213e 1fde dbbd
00000080: fe32 523e 58eb 5fbe 98a8 e3be a7ff e6be
00000090: 7282 14bf db60 aa3e 5e6c 9e3f e115 c4bd
000000a0: ec90 9dbf 480b 2cbf effb e1bd 4b5b 783f
000000b0: 9547 283e fa4f 35bf 3fd5 f5bf e2f0 fabe
000000c0: a1c6 3fbf 5ceb 58bf b913 573d fa82 ecbe
000000d0: edc7 033f fe62 28bf 2ed8 40bf bc6a 5e3e
000000e0: 45f6 633e 758f b93d 60f2 2d3d 41a2 51bf
000000f0: 2170 d73e 5060 423e ef2d 9cbd a07f e53e
00000100: f4e2 033e 9ad0 8cbf 5500 3b3f 804b dd3e
00000110: 8b56 95be 2e1d a6bf 09e6 b4bd 80a4 bdbd
00000120: aea5 da3e 28c7 efbe f622 ee3f 1f5d 6f40
00000130: 126a 3640 f1fe acba 893c 053e 4211 153f
00000140: bdcc 883f 355b 7d3e 7d4c bcbe fdb9 68bf
00000150: d823 6abf f342 c5be 9438 483f 49a6 8ebf
00000160: 5326 6a3f ec64 893f d102 6dbf bf3a 873d
00000170: a5f1 9f3e f819 d63d 6278 f9bd eb5a 9f3e
00000180: d4a2 4abd 7dfe b5be 7544 043e 692b 703e
00000190: dc9e 7cbd 61bb 1abf 73ff 9e3e 71e3 fd3e
000001a0: 4631 a03d 07cf d93e 3ad6 693d 1742 fabd
000001b0: 520d 033e 4321 6c3d de9b e73e ffb7 513d
000001c0: f331 d63c 7980 513e 74a7 853e a1ba 91be
000001d0: 6918 6a3e fd7c bc3e 36ad 103f 6c96 aa3e
000001e0: 21ef dd3e 8cb3 893f 895e 563e c0b3 01bf
000001f0: 724b a43e 6028 f63d 3997 9cbe e515 5bbf
00000200: 5499 a63d 5c31 23bf 654b ecbe d40e fcbf
00000210: 8360 03c0 a2c6 ed3e 3419 133f 0446 013f
00000220: c32c e7be d702 963e f0cf 063f 015b 3a3e
00000230: affe 4d3f 5fee f23e 3b03 13bf bbb8 87be
00000240: 4178 3c3e 66ea 463e 2c54 87be adc8 013f
00000250: 91db 49be 97f8 37bf 023c 7c3e 7b62 1bbe
00000260: 3695 f6bd 39fe 77be c329 a3be 6196 98be
00000270: 3d67 81be fdde 27be fc02 043c 0be0 7b3e
00000280: b008 973e c774 343e 648d b33f 3116 f83e
00000290: 0366 bcbe 916f 043f a41a a6bf d79e b4bc
000002a0: fad5 793e b1fe 0d3f fea5 ee3d c3cc ee3d
000002b0: 3a61 aebd a1ac 6dbe a88a 4fbe b2cb a8be
000002c0: 3573 a2be 5f81 89b9 dd81 33bb 4628 c2bd
000002d0: 03f1 c3be 4ec6 1a3f 6581 b3be b69f 34bf
000002e0: 39cf f6bc 21c0 703f 0d5e 773e 51b6 e03e
000002f0: b034 8cbe 07c9 453d 3a70 0e3d 74ad 833e
00000300: 4438 353d 1b2f 7bbc 72c1 593e e954 383d
00000310: 6f87 0d3f f154 81be 381c 533f 11e7 56ba
00000320: 0703 36bf 40f3 623e cc67 5ebc abfb 58be
00000330: ebd4 bfbe 1fb9 f33e f557 2ebf 778f c1be
00000340: 9b2b ac3c d70a 143e 0fd6 1a3f a987 48be
00000350: 6000 ebbe b8d4 f93c 993d 463f baa5 dfbe
00000360: a06a 35bf 8938 b93e b2de 493f 804a 8d3d
00000370: 98b9 aebd 3ece 66bf ce05 4abe d978 99be
00000380: d19e 36bf 5ecb 603e e785 583f 0114 683f
00000390: ef13 1e3f 8c5d 5dbe 6ff2 3cbf 74fe 333f
000003a0: 114f 2ebe e3c7 ed3c 4e09 9d3f 1133 5dbe
000003b0: e986 91bf 0815 40bf 9992 553e 2bd0 e03e
000003c0: 4fe2 0d3f 81e6 bb3e 4de2 623f 327e 0ebf
000003d0: c47d 7ebf ecfc 173c 28d8 e73e 4549 933e
000003e0: e779 48be 5262 e43e 1d50 91be 4875 07bf
000003f0: 6e03 6bbf db45 b23f 2418 aabe 20c3 953d
0.0621936 0.06693568 0.14136691 0.3518189 0.6331923 0.31081676 0.41289774 0.18388684
-0.09046277 0.41591024 0.063956596 0.73591745 0.54646176 0.2763727 0.42088208 0.6873583
0.044388544 0.5208011 -0.30037665 -0.77052534 -0.85543954 -0.20347612 -1.4935791 0.0012362113
-0.32287726 0.0900132 -0.4293507 1.0842512 0.5220645 0.5442723 0.15753292 -0.107357256
0.20527264 -0.2186712 -0.44464564 -0.45116922 -0.58011544 0.3327702 1.2376821 -0.095744856
-1.2309852 -0.67204714 -0.11034381 0.970143 0.16433556 -0.7082516 -1.9205703 -0.49011904
-0.7491246 -0.8473413 0.052509043 -0.46193677 0.5147694 -0.6577605 -0.75329864 0.21720403
0.22261913 0.090605654 0.042467475 -0.81888205 0.42077735 0.18982053 -0.07625949 0.44823933
0.12879544 -1.100116 0.7304738 0.43221664 -0.2916759 -1.2977655 -0.08832938 -0.092598915
0.4270453 -0.46831632 1.8604419 3.7400587 2.850224 -0.0013198537 0.13011374 0.5822946
1.0687481 0.24741824 -0.36777106 -0.90908796 -0.91460943 -0.3852764 0.7821133 -1.1144496
0.9146473 1.0733924 -0.9258242 0.06603002 0.31239048 0.10454172 -0.12181164 0.31124052
-0.04947169 -0.35545722 0.1291674 0.2345406 -0.061674938 -0.6044217 0.31054267 0.49587587
0.07821898 0.42540762 0.057089068 -0.12219637 0.1279805 0.05764891 0.45236105 0.051200863
0.026146865 0.20459165 0.2610432 -0.284627 0.22860874 0.36814108 0.565143 0.33317888
0.43346503 1.0757918 0.209345 -0.506649 0.3208881 0.1201942 -0.30584124 -0.85580283
0.08134714 -0.6374719 -0.4615127 -1.9692025 -2.0527656 0.46440607 0.5746033 0.5049746
-0.45151338 0.29299042 0.5266104 0.18198778 0.8046674 0.47447488 -0.57426804 -0.26508126
0.18405248 0.19425353 -0.26431406 0.5069683 -0.19712664 -0.71863693 0.24632266 -0.15174286
-0.120401785 -0.24218072 -0.318678 -0.2980223 -0.25274077 -0.16393657 0.008057352 0.24597184
0.29498816 0.17622672 1.4027524 0.4845443 -0.3679658 0.51732737 -1.297688 -0.022048397
0.24398032 0.55466753 0.11652754 0.11660149 -0.08514638 -0.23210384 -0.20267737 -0.32967907
-0.3172852 -0.00026227065 -0.0027390637 -0.09480338 -0.38269815 0.6045884 -0.35059658 -0.705562
-0.030128108 0.94043165 0.24156971 0.43889096 -0.27383947 0.048287418 0.034774996 0.25718272
0.044243112 -0.015331055 0.212652 0.04500285 0.5528478 -0.25260118 0.82464933 -0.0008197884
-0.7109837 0.22163105 -0.013574552 -0.21189754 -0.3746713 0.47602174 -0.6810296 -0.37804767
0.021016886 0.1445726 0.6048288 -0.19583 -0.45898724 0.03049694 0.7743774 -0.43681127
-0.7086582 0.36175945 0.7885543 0.06898975 -0.08531493 -0.9015845 -0.19728777 -0.29975012
-0.71336085 0.21952578 0.8457932 0.90655524 0.61749166 -0.21617717 -0.73807424 0.7031014
-0.17022349 0.029025977 1.2268465 -0.21601512 -1.1369296 -0.7503209 0.20856704 0.4390882
0.55423445 0.36699298 0.8862656 -0.5566131 -0.99410653 0.00927661 0.45282102 0.28766838
-0.19577752 0.44606262 -0.28381434 -0.5291333 -0.9180211 1.3927568 -0.33221543 0.07312608

lstm.weight_hh_l0 f4 [80, 20]
00000000: bd92 fcbf a1b7 813f 4486 583f 5b57 2abf
00000010: 7210 053e c535 33be 87f3 bf3d 099c ecbf
00000020: ce93 283f 1b0a e03d d2e6 5bbd 9dfc 75be
00000030: f799 2c40 f0b0 ff3e 5fd4 4a3f 36a9 1b3f
00000040: afc9 adbe 2a2b 8c3e 8270 c03e 8440 ccbd
00000050: 3169 743f 4f2c 1140 a82f 03be 45ea 3e3d
00000060: bdb4 093f d729 d43e 5d33 5d3e ad87 1dbf
00000070: c4de 093e 20e1 7d3f ce04 993f f6dc 623f
00000080: 36d0 b03e c1e1 0cbf e0e2 1bbe 803b 79bc
00000090: 61bb 91be 9914 debf 5c8f 463e 33de 9d3e
000000a0: b1bc 09be 3d8e babe e5e1 103f ddd0 0b3f
000000b0: e1e4 c2bd f4a8 febd 50ca 3abf 10cf 653e
000000c0: c764 b53d d33c 003f 0d08 303f b3d2 843e
000000d0: d64e 523f ed74 883d c9d2 413f 7268 9c3e
000000e0: ffc4 46be 6a61 ac3c 12f1 d33e d72d 493c
000000f0: 3b73 973d 97e1 cfbe 1f53 cb3e 29e8 7d3f
00000100: dc94 c63e 46aa 12bf b8a9 633f 017b 5dbe
00000110: 3277 8dbe eee8 3b3f ca26 1ebf cbf6 19bf
00000120: 7a07 e5bd ec93 22be e169 b13e 4ae5 06bf
00000130: 770e 46be efe4 853f 23de 01bf cd88 9b3e
00000140: 1f3b b73e ecdb de3d c161 0a3e 6c44 2e3f
00000150: de64 323f f8fe 5f3e 6023 fe3d fff8 e1be
00000160: 44ab 47bd 8dbc 35bd a19f ba3e 59c1 6f3d
00000170: fa98 173f a3fe 933e faea 293f 0e37 07bf
00000180: af9d 2dbd be29 303d 0b0b b8bd a835 5cbd
00000190: 9f6c aebd b20c a83f bbbe 353f 2ed8 103f
000001a0: b9f4 74be 0dcc 843f 1075 b53f 1393 12bf
000001b0: 8396 a43f 9d48 d73e 9cfd 3fbe aebf 473f
000001c0: 0830 3140 8377 08be 9894 113f a617 7c3f
000001d0: 3b75 93bf e555 b9bd 64c2 08bf 8ac6 4b3e
000001e0: 9af3 95bf 108a 5d3f 4a73 883f cedf e53d
000001f0: 9642 1bbf fda7 073f 17f0 dd3d 13fa acbe
00000200: 02e1 1bbf b909 a23f 0ea4 73bb 1fa4 39bf
00000210: 0b52 863f fcb4 933e 86d1 a3be 3715 4e3e
00000220: a8c5 85bf 36bd 6c3d aae2 d03f 4212 0bbf
00000230: b95d 583f ff65 9cbf d218 86bf 0fe5 0d3f
00000240: d04a 7c3e 69a5 0bbf 7b00 803f 787c 3bbf
00000250: cde0 cc3f fea1 71be ff29 b63f f48d 4ebe
00000260: 3fe8 9b3f af96 e13d a0f3 0d40 d87d edbf
00000270: 8a0f 613f 96bb 2fbe 0ad8 e03d 6d4f 963e
00000280: a555 cabe 6c8a adbf ac5b 313f c922 bf3f
00000290: 3227 383f dfef 89be ce37 ec3f 47b2 1b3d
000002a0: fb3f 553f 0693 b83e 6e15 28bf 18a9 f0bf
000002b0: 23b0 173f 7164 963f f5b4 103f da6e 01bf
000002c0: fbd5 e63d a201 0540 5d8c 093f 30a8 dcbe
000002d0: 29fd 0cbe d6a7 91be e515 273f 0eb6 1c40
000002e0: 3896 ed3e 7fa9 0fbf 57dc 053f 1fa9 b7bf
000002f0: 928c d43e 286b 01bf 9c95 bfbf ba56 be3c
00000300: df63 ef3e f1cd 3f3e 6109 2abe f6f6 e63e
00000310: 9f0b 173e a09e 90be 6c80 0fc0 cd65 ecbe
00000320: d89b 89bd 60dd 913f 557b 123f e080 4fbf
00000330: 4dbe 703e 5b56 0b3e 97d0 6e3e 956d efbe
00000340: 063d 13bf 57d0 7f3f 58ec dfbf a329 c73e
00000350: ab0a ab3f efd3 f03e f197 ef3e e159 673f
00000360: 91f5 4cbe 60e9 333f a8c0 093f 39ec c6be
00000370: b77d d7be 035d 5f3f 7268 1c3f 0302 cabe
00000380: bc7f d3be f680 49bf da4b b53f ca7f bfbf
00000390: 7c20 5c3f 26b2 92bf 47e1 4dbf 47a7 67c0
000003a0: 8399 703f f0d5 2a3f bc7d 3e3f c896 443e
000003b0: efa2 a1be bf10 cf3f 93e4 71bf 184e 48bf
000003c0: 3001 bb3d d11c 30bf 3b6b 183e 0359 10bf
000003d0: fc75 fa3e 91c1 21bf eb71 a43f 7c31 fabe
000003e0: f2d0 d1bf 1324 b23d 7c6e a1be a4ab 90bf
000003f0: b137 7c3f fb5d 2d3f 8e57 8e3e abf1 80bf
-1.9732281 1.0134164 0.84579873 -0.66539544 0.12994555 -0.1750098 0.09372621 -1.8485118
0.6585053 0.109394275 -0.053686924 -0.24022146 2.6968973 0.4993968 0.792303 0.6080507
-0.33942935 0.27376682 0.37585837 -0.09973243 0.9547301 2.2683294 -0.12811148 0.046610136
0.5379141 0.4143817 0.21601625 -0.6153515 0.13463885 0.9917164 1.1954591 0.8861841
0.34533852 -0.55031973 -0.15223265 -0.01521194 -0.2846327 -1.7350036 0.19390625 0.30833587
-0.13450886 -0.36436644 0.5659469 0.54615575 -0.095163114 -0.12434569 -0.72964954 0.2244227
0.088571124 0.5009281 0.68762285 0.25942 0.82151544 0.06662927 0.7571226 0.30548435
-0.19411086 0.021042544 0.4139486 0.0122789955 0.07395025 -0.406018 0.39711854 0.99182373
0.38785446 -0.57291067 0.88930845 -0.21628954 -0.2763 0.734023 -0.6177794 -0.601422
-0.11183067 -0.1587674 0.34651092 -0.5269362 -0.19341455 1.046049 -0.5072958 0.30377808
0.35787293 0.108817905 0.13513853 0.68073153 0.6968516 0.21874607 0.12409091 -0.4413528
-0.048747316 -0.04436927 0.36449912 0.058534 0.592178 0.2890521 0.6637417 -0.5281838
-0.042386707 0.04300856 -0.08986481 -0.053762108 -0.085168116 1.3128874 0.70994157 0.56579864
-0.2392148 1.0374771 1.417635 -0.5725567 1.2858433 0.42047587 -0.18749088 0.78026855
2.7685566 -0.1332684 0.5686736 0.98473585 -1.1520151 -0.09049586 -0.53421617 0.19899955
-1.1714966 0.8653879 1.0660183 0.11224328 -0.6064848 0.52990705 0.10836809 -0.3378454
-0.6089021 1.2659217 -0.0037176642 -0.72516054 1.0493788 0.28849018 -0.3199579 0.2012528
-1.0450945 0.057797633 1.6319172 -0.54324734 0.8451801 -1.2218627 -1.0476325 0.5542764
0.24637914 -0.5454927 1.0000147 -0.732368 1.6006104 -0.23596951 1.4231566 -0.20171338
1.2180251 0.11015069 2.2179947 -1.855403 0.87914336 -0.17161402 0.10978706 0.29357472
-0.39518467 -1.3557868 0.69280505 1.493249 0.7193481 -0.2694082 1.845453 0.038011815
0.8330075 0.3604967 -0.656577 -1.8801603 0.5925314 1.1749402 0.5652612 -0.5055977
0.11271282 2.0782247 0.537298 -0.43097067 -0.13768448 -0.2844836 0.65267783 2.4486117
0.4640367 -0.56118006 0.52289337 -1.4348487 0.41513497 -0.5055413 -1.4967532 0.023234714
0.46755883 0.18730904 -0.1660514 0.4511029 0.14750527 -0.2824602 -2.2422132 -0.46171418
-0.06719178 1.1395683 0.5721944 -0.8105602 0.23510094 0.13607161 0.23321758 -0.46763292
-0.5751499 0.99927276 -1.7494001 0.38898954 1.3362631 0.47036693 0.4679561 0.9037152
-0.20015551 0.70277977 0.53809595 -0.388521 -0.420881 0.872513 0.6109687 -0.3945466
-0.4130839 -0.78712404 1.4163773 -1.4960873 0.8598707 -1.1460617 -0.8042187 -3.6195848
0.9398424 0.6673269 0.74410605 0.19198143 -0.3156962 1.6176986 -0.944894 -0.7824416
0.09131086 -0.6879397 0.14884655 -0.5638582 0.4891814 -0.63185984 1.2847265 -0.4886588
-1.639189 0.08698287 -0.31529605 -1.130238 0.9852248 0.6772153 0.27801174 -1.0073751

lstm.bias_ih_l0 f4 [80]
00000000: 0e12 0ec0 298f c6bf bd5d f5be d0c7 97bf
00000010: 9c32 b6bf dde6 9abf e685 79be 40ff 06c0
00000020: aef7 06c0 e944 c2bf b8a2 9dbe 4bb6 01c0
00000030: f701 85bf 8a4c 79be 2a24 a3bf ba68 22bf
00000040: 05d5 5fbf 6518 bebf 4daa aabf 958e 37bf
00000050: 8b69 e2be f0dd 80bf 3ecb 34bf 08ca 163d
00000060: 2e35 543f 4d18 ebbe e9c1 fbbd 4b1e af3f
00000070: acd8 213f da82 083f d59c 4abf 1501 48bf
00000080: ef26 05be f376 c73d 8731 d93e d6a5 08bf
00000090: 1ca7 5cbf 4afe 4fbf 69ca c83e 05e8 cd3e
000000a0: 1765 423e f249 7abe 7f68 2c3e 8308 0bbf
000000b0: 9fa7 83be 820f 213e b1f9 49bf 2a15 603e
000000c0: 7148 64be 5527 33be 0cdc d43c 00e5 a4bd
000000d0: 1b71 a0be 843d 743e ec05 80be 80b8 97be
000000e0: 438d e4bd 22d5 09bf bb1a d33e c815 5f3e
000000f0: c75f 7abe 4a97 033e 24e8 cfbf 0808 aabf
00000100: 4dd7 cabf 0825 c6bf 0dc1 3abf 171a 09be
00000110: b45d a6be b404 723d f888 93bf 0a7f 06bf
00000120: 2970 c0bd 6e58 cdbf 1233 81bf d011 cabf
00000130: c675 84bf 784c b0bf ffcb fabe 33b4 e3bf
-2.219852 -1.5512439 -0.4792308 -1.1857853 -1.4234195 -1.2101704 -0.24367484 -2.1093292
-2.1088672 -1.517728 -0.30788207 -2.0267513 -1.0391225 -0.24345604 -1.2745411 -0.6344105
-0.87434417 -1.4851195 -1.3333222 -0.7170194 -0.44221148 -1.006773 -0.7062262 0.036813766
0.82893646 -0.45916978 -0.12292845 1.368112 0.6322124 0.53324664 -0.79145557 -0.7812665
-0.13003133 0.09739485 0.424206 -0.53378046 -0.8619249 -0.8124739 0.39216927 0.4021608
0.18983875 -0.2444227 0.16836737 -0.5430986 -0.25713822 0.15728572 -0.78896624 0.21883073
-0.22293259 -0.17495473 0.025983833 -0.08051491 -0.31336293 0.23851591 -0.25004518 -0.2963295
-0.11159756 -0.5384084 0.4123133 0.21785653 -0.24450599 0.12850681 -1.6242719 -1.3283701
-1.5846955 -1.5480051 -0.7295082 -0.13388859 -0.32493365 0.059086516 -1.1526175 -0.52537596
-0.09396393 -1.6042612 -1.009371 -1.5786686 -1.0348442 -1.3773336 -0.48983762 -1.7789367

lstm.bias_hh_l0 f4 [80]
00000000: c0b4 11c0 91b6 c4bf a1e1 a5be c089 7abf
00000010: 4b17 99bf 4f27 c6bf 88a1 d3be d05e 0bc0
00000020: b6eb ffbf 4cf8 d9bf 02ae 18be 7f0f d4bf
00000030: 25d4 55bf a96f 84be 2896 b4bf 6df1 a9be
00000040: c807 4fbf 0777 93bf ddc1 86bf 094a e4be
00000050: 6fb8 2540 ec20 0340 155d 0940 a6c0 4540
00000060: bc4b 6a40 db7b 1a40 d3b2 3f40 1828 8740
00000070: 1efd 6e40 3289 6240 2465 1440 6f3b 0140
00000080: a7a7 4140 a349 4040 0096 6740 a4dd 1540
00000090: 8aa9 fd3f 5065 0340 b7e4 5d40 f4a5 4b40
000000a0: 652b c43d 05fd 3b3b e0ed 5fbd a554 3bbf
000000b0: c7d6 663d 10e0 c63e 9379 12bf 8fdb c73e
000000c0: 521a 83be 60dd 92be 2c35 12be 6fcb edbd
000000d0: 95cd bbbe 0101 ed3d 65fe 4abe ed6c 8cbd
000000e0: c017 733e c564 64bf ad9c f53d c068 1f3e
000000f0: 7fff 04bf 47d6 c33d 55d8 d2bf 318e 87bf
00000100: 2451 ddbf 6ed6 d1bf cf18 d0be ccae 21be
00000110: 8569 34be 8b20 753c 73c0 99bf 13af abbe
00000120: 4255 bfbe 17aa d0bf cdac 64bf e70a a4bf
00000130: 0557 8cbf 0aad afbf 5285 f7be 44dd ccbf
-2.276657 -1.5368215 -0.32398704 -0.9786644 -1.1960233 -1.5480746 -0.41334176 -2.177662
-1.9993808 -1.7028899 -0.14910129 -1.6567229 -0.8352683 -0.2586644 -1.4108324 -0.33192006
-0.8087125 -1.1520699 -1.0527912 -0.44587734 2.589382 2.0488844 2.1463063 3.0898833
3.6608725 2.4138095 2.9952896 4.2236443 3.734199 3.5396237 2.3186731 2.0192525
3.0258577 3.0044944 3.6185303 2.3416529 1.9817364 2.0530586 3.4670846 3.182004
0.09578589 0.0028684747 -0.054670215 -0.7317603 0.05635717 0.3884282 -0.5721676 0.39034697
-0.25606018 -0.2868452 -0.14278096 -0.116110675 -0.36680284 0.11572457 -0.19823606 -0.068567134
0.23739529 -0.8921626 0.11992774 0.15567303 -0.51952356 0.095623545 -1.6472269 -1.0590268
-1.7290387 -1.6393564 -0.40643927 -0.15789336 -0.17618378 0.014961372 -1.2011856 -0.3353201
-0.37369734 -1.6301907 -0.89326173 -1.2815827 -1.0964056 -1.3724682 -0.48343903 -1.6005025

head.net.0.weight f4 [1, 20]
00000000: 94e7 1640 83d8 8bbf fd25 bcbf faf6 4dbf
00000010: af11 dabf 3d1c 953f d328 9d3d 8b46 8bbd
00000020: db4f c43e 840d 31be 1f96 cd3f 1dbd 0040
00000030: f00b 3c3d 7eb3 eebf e789 203f d0c6 b3bf
00000040: b533 d73f 4f07 d0bf 9bc5 2cbd 5c33 f03f
2.3578844 -1.0925449 -1.4699093 -0.8045498 -1.7036647 1.1649243 0.07673802 -0.068005644
0.38342175 -0.17290312 1.6061438 2.0115426 0.045909822 -1.8648527 0.6271042 -1.4045048
1.6812655 -1.625223 -0.04218064 1.8765674
