Project-Run/run_cudalstm_1801_104533/model_epoch005.pt (torch, 11206 bytes, 5 tensors)

lstm.weight_ih_l0 f4 [80, 7]
00000000: d040 3d3e fbae 063e 3e13 383e f82f b03e
00000010: d79f 393f b1c3 9d3e 04ba f93e ebb3 893e
00000020: 0df4 6cbe a8da 8f3e ef42 a6bc c62c 163f
00000030: 2e80 1d3f cbff 933e 0e70 223f 38f9 363f
00000040: f1a3 823e 4d82 4e3f 381a 633d 5a67 7abe
00000050: f6db b4be 49a6 b3be 874b 96bf 6f14 f23d
00000060: fbcb 95be 2506 bb3c 3fb2 00bf 7edf 643f
00000070: 05e2 103f bbdf 1a3f 79c7 423e ef9e 4dbb
00000080: e4cc 583e a0a1 90be 3729 ffbe 6282 73be
00000090: 44e3 9abe 50a2 d13e d92c 7b3f d342 a0be
000000a0: e229 3ebf 9766 12bf 127d 9fbc 4421 563f
000000b0: 6172 1b3d e994 33bf e5d5 e9bf 4f8d 27bf
000000c0: 328c 68bf 428f 40bf 925f 953d ec4b ccbe
000000d0: fc2c 833e c7a7 49bf 93fa 4fbf b1e9 d33d
000000e0: 5551 473e 28ea d93d d7c2 22bc e38c 4dbf
000000f0: 91d2 d83e 444c 1f3e 1035 46be 8dfa ff3e
00000100: 20f8 5d3d 4a23 8bbf 82f6 5d3f 76a0 043f
00000110: 3a4e 34be 295a 95bf 968c d23c fb8f 11be
00000120: 6320 be3e 2a15 acbe ca0f e13f f516 5440
00000130: 7c07 2a40 d1e1 623e 87ca f03d f1c1 f23e
00000140: 1a15 893f 2894 233e dbcb 04bf e01b 7cbf
00000150: bab9 5ebf 84a6 b2be 072e 303f b53e 89bf
00000160: 2e0e 623f 8741 7c3f 1bd4 44bf 6745 9c3e
00000170: 7d3d 933e d526 463e 3786 d8bd eb8b 4e3e
00000180: 58f3 db3c a30e 933c 091c db3d 0150 963e
00000190: 9ef2 85bd 29df 0abf da1b 803e 4b2c c43e
000001a0: 1a7e f73d 5f85 173e 0d69 373e 7f53 12be
000001b0: 13ef 4bbe 7224 81be 9691 903e 8bb2 8abe
000001c0: b158 0fbd 1130 603e aa4d 4c3e 0929 cbbc
000001d0: 3b72 e93e 86f2 c43e 588f 193f 7853 163f
000001e0: 114a ca3e d098 853f 2ca5 3dbd 188f 26bf
000001f0: 912b a03e 742a 5ebc 6d4a d9be a0cf 2cbf
00000200: 21af 253d bba4 efbe a76d eebe c979 d9bf
00000210: dfcb e3bf bc0d ae3e 85e1 dc3e 1df3 c33e
00000220: 017a aebe 6f70 083f 9439 413f d234 8bbe
00000230: a3f9 373f 3513 ef3e 4159 32bf 0fb6 5fbe
00000240: 2560 903d a1d3 ab3d e0bc b9be 4ba8 113f
00000250: 3b94 98be acac 3dbf be43 8d3e 9051 79be
00000260: 2fe5 acbd f2da a8be 3ea0 cebe 796f d6be
00000270: 0ace 8fbe 9fc8 2abe 69be efbc 8639 6d3d
00000280: 4a9e 16bd 1ad6 8a3e 5a92 af3f 5c7b dc3e
00000290: 9c9e c4be 9bbc 003f b759 89bf 8d24 003d
000002a0: 7d21 3e3e 2a27 fe3e c13c 1c3d 150e 853e
000002b0: 4d20 d53d 20e7 bbbd c452 03be 17db 1ebb
000002c0: 306d 56be aa2d 043d 4aae 243f d417 7ebd
000002d0: 2831 89be c0ae e63e ac5b a43e 1509 89be
000002e0: 3001 623d bf14 443f d97f 8f3e f15e e33e
000002f0: 2337 87be 4fc0 81bd 8865 0dbd 43b2 f43d
00000300: 274f 543e 737f f53d 69ac d33e 085d ae3e
00000310: 167c f63e 4cb4 1bbe 45f9 443f 580a 993d
00000320: 2767 40bf 82e2 773e 3f39 51bd 95b5 47be
00000330: baad bfbe 1507 143f 0ad6 31bf b2c9 cdbe
00000340: 66c0 9d3d 0d60 583d 247b 493f e354 3ebd
00000350: 91e7 a0be b7bf 4d3e 7703 8f3f 05d6 b5bd
00000360: cfed 75be f784 d43e 9543 1c3f 0ff0 b43d
00000370: 8d62 adbd 5c8a 7cbf f0ec 95be eec4 cbbe
00000380: a425 48bf bf4f 7c3e b53d 353f 6ad6 593f
00000390: 5eee fe3e 5705 59be 404c 2dbf 6660 343f
000003a0: c5a4 01bd 865a 343e fca5 913f 91dd a0be
000003b0: 6c5a 82bf ab04 32bf 71ca a63d 36be a13e
000003c0: 7be6 e53e 4e2a d83e 18d7 473f 437f f7be
000003d0: 9720 65bf f788 15bf cfc3 0fbe a3e3 77bc
000003e0: d609 edbe 57e7 083f 9f07 103e 0238 8dbe
000003f0: e0e4 a0be caff eb3f 60c7 453d 04bd 613e
0.18481755 0.13152687 0.1797609 0.34411597 0.7250952 0.30813363 0.4877473 0.2689508
-0.23139973 0.2809651 -0.020295588 0.5866207 0.6152371 0.28906092 0.6345223 0.7147403
0.25515702 0.80667573 0.055444926 -0.24453488 -0.35324067 -0.35087803 -1.1741799 0.11820304
-0.29257187 0.022830078 -0.5027198 0.8940352 0.5659488 0.60497636 0.19021405 -0.003137525
0.2117191 -0.2824831 -0.49836132 -0.23780206 -0.30251515 0.40944147 0.9811531 -0.31300983
-0.7428266 -0.5718779 -0.019468818 0.8364451 0.037950877 -0.70149094 -1.82684 -0.65449995
-0.9083892 -0.75218594 0.07293619 -0.39901674 0.25620258 -0.7877163 -0.8124172 0.103473075
0.1946462 0.10640365 -0.009934149 -0.802931 0.4234815 0.15556437 -0.19356179 0.49995843
0.05419171 -1.0870144 0.86704266 0.51807344 -0.17607966 -1.166814 0.025701802 -0.1421508
0.37134084 -0.33609897 1.7582943 3.3139012 2.6567068 0.22156455 0.11757379 0.4741359
1.0709565 0.15974486 -0.5187356 -0.98480034 -0.87002146 -0.34892666 0.6882023 -1.0722262
0.88302886 0.98537487 -0.7688615 0.305217 0.2875785 0.1935075 -0.105724744 0.20170562
0.026849434 0.017951315 0.10698707 0.29357913 -0.06540416 -0.54246765 0.2502125 0.38315043
0.12084599 0.14796971 0.17911167 -0.14289664 -0.19915418 -0.25223118 0.28236073 -0.27089342
-0.034996692 0.21893336 0.19951501 -0.02479984 0.45594963 0.3846628 0.5998435 0.58721113
0.39509633 1.043726 -0.0463001 -0.65062094 0.3128324 -0.013559926 -0.42439595 -0.6750431
0.04045022 -0.46805367 -0.46568033 -1.6990291 -1.7796592 0.33994853 0.43140808 0.38271418
-0.34077457 0.5329656 0.7547848 -0.27188736 0.7186529 0.4669434 -0.6966744 -0.21846794
0.07049588 0.083899744 -0.36276913 0.5689742 -0.2980059 -0.740916 0.27590746 -0.2434752
-0.08442151 -0.32979542 -0.4035663 -0.41881922 -0.28086883 -0.16678093 -0.0292656 0.057916187
-0.03677205 0.27116472 1.3716538 0.43062866 -0.3840226 0.5028779 -1.0730504 0.031284858
0.18567462 0.49639255 0.038143877 0.25987306 0.104065515 -0.09174943 -0.12824541 -0.0024239474
-0.20940089 0.03227011 0.64328444 -0.062034443 -0.26795316 0.450552 0.3210119 -0.26764742
0.055176914 0.76594156 0.28027228 0.44408372 -0.26409253 -0.06335508 -0.034520656 0.11948063
0.20733319 0.119872 0.41342476 0.34055352 0.48141545 -0.15205497 0.76942855 0.07472676
-0.751574 0.242075 -0.051079985 -0.19502862 -0.3743723 0.57823306 -0.6946722 -0.40192944
0.07702713 0.052825976 0.7870352 -0.046467673 -0.3142667 0.20092665 1.1172932 -0.088787116
-0.24016498 0.41507694 0.6104062 0.0883485 -0.08466063 -0.9864862 -0.2928233 -0.39798683
-0.78182435 0.24639796 0.7079728 0.85092795 0.49791235 -0.21193443 -0.67694473 0.7045959
-0.031651277 0.17612657 1.137878 -0.31419042 -1.0183845 -0.6953837 0.081440814 0.31590432
0.44902405 0.42219776 0.7806258 -0.4833928 -0.89502853 -0.58412117 -0.14039539 -0.015129956
-0.46296567 0.53477997 0.14065407 -0.27581793 -0.31424618 1.8437436 0.048285842 0.2204476

lstm.weight_hh_l0 f4 [80, 20]
00000000: c90a dbbf 4db9 5b3f b1b9 193f 83e0 21bf
00000010: af7d aebd 29c7 4bbe b54b b53c 98d1 d6bf
00000020: 4a6b 093f 9fdd c83e 433e 35be b4fd 97be
00000030: 532e 1940 6650 d43e 0449 333f b33e f93e
00000040: 4a8e c4be 876e 573e 478e 623e 90e5 8b3d
00000050: 644e f93e 0d69 0f40 1895 6c3e c3ae a33e
00000060: 917c 4b3f 7b43 2b3d bb64 bb3e 9f59 fdbe
00000070: 6ba6 0fbd 2c16 843f 5e5a 3f3f 8732 313f
00000080: bdb9 c93d 522a 4dbe 59fe acbe ffc2 2cbd
00000090: e8df c0be 3a4d b6bf c640 b83e c13e 64be
000000a0: b3fe 9abe 68ad cbbd 7735 2f3f 68e8 253f
000000b0: a59d a5bd 60b5 c8be b5bf 02bf 2fd0 9c3e
000000c0: 4020 3dbe 78c0 0b3f 237a f33e 698e 403e
000000d0: 8cfd 043f d9b8 843e 9ce9 0e3f 74b0 9e3e
000000e0: aba9 3bbe ab11 b6bc 1509 ac3b 6306 0ebe
000000f0: c869 f03d f1b4 f4be b1ca 223f 9d63 683f
00000100: 0b66 6d3e bcaa cabe ce09 673f fa87 e8be
00000110: d374 e0be 55c5 913f 7e26 0cbf 6da7 23bf
00000120: 1e6d 89be e0a3 76be bc6a be3e 2822 e0be
00000130: f63f 5dbe 4f63 603f e300 17bf c1ae 9d3e
00000140: 3895 b83e 1893 913d 153d e23d 7c4f 163f
00000150: 081e 323f 47b4 e53d db57 353e 887d 02bf
00000160: 8c74 44bd 35f5 3abd 6620 b93e 87bd d43c
00000170: 7c05 313f 5e98 853e dfa3 393f a475 14bf
00000180: 3f83 cbbc 3276 9fbc d332 9abd b006 0abd
00000190: 8f1e 18be 2b88 fc3e 4de3 703e 8853 433f
000001a0: 5373 b4bd b8ad 363f e1f8 a83f 8ff9 f1be
000001b0: c6b5 a23f 8cf4 6f3f 1d92 ec3e 155a 463f
000001c0: 9d72 2440 c3a3 f93d 2a79 353f 7668 bc3e
000001d0: c57d 14bf 2aec 303c f044 a4be c301 523e
000001e0: 59df ccbf 560d 893f dc6f 9a3f 2ba0 e63d
000001f0: 74e2 acbd b6a2 233e 81d0 01be 8c4d d5bd
00000200: 26a6 6bbf b7a8 ae3f fadb 9cbe fcbf afbf
00000210: 07bf 7f3f 01b7 653f 0222 b2be 7a89 0a3e
00000220: 2aac 91bf dd5f 343f fa64 cb3f 1caf 1fbf
00000230: 2b20 673f 5581 86bf 96f3 56bf 4991 0c3d
00000240: 53c1 33bd 22c5 8fbe 6178 5d3f 6679 3bbf
00000250: 2be1 cd3f a7ad eabd 8b9c a43f 0094 17bd
00000260: 504b 823f ff72 833c fe30 e03f 0174 ccbf
00000270: e5b8 263f 8328 3d3c 2b03 843e 3ad6 1c3e
00000280: a282 dcbe 2284 9ebf 6ab4 683f 37a6 bb3f
00000290: 1713 233f 9e4d 20bf 021b d93f 24db 433d
000002a0: 7252 653f 1bcd 4f3e ef44 3dbf f09d f3bf
000002b0: 939d 1b3f ca11 603f 13eb 413f 1431 ecbe
000002c0: 6708 5e3d f61f ff3f 1cd7 de3e 1787 02bf
000002d0: bf35 123d 5a71 94be dbd8 333f 0b8d 1f40
000002e0: 4acd 113f 5122 c5be 95ac c03e 6aec 9cbf
000002f0: a1e4 c33e c45b dcbe 763c 85bf af4d 04be
00000300: 4572 f33e e3ed 133e 4df9 2dbc c9ee d83e
00000310: c58f 873e e3d1 04be cd0a 07c0 018b 78be
00000320: 4d8d fa3d 2fd5 6e3f 4fd9 cd3e 6640 38bf
00000330: 6d55 693e b599 273d 4c03 7d3e 5b3d bdbe
00000340: effb 8fbe 63d2 a13f af2b b5bf f67c b83e
00000350: 7687 a53f 5dc3 0a3f 301a 033f cde4 213f
00000360: a3d3 0cbe bf03 fe3e 8c41 c73e bf5e 74be
00000370: 0e21 77be 43b4 dd3e c1a4 c03e 2748 e5be
00000380: e6a1 35bf 9946 35bf 0cb2 9d3f e57f c9bf
00000390: fbf9 4e3f 821c 71bf 18ef 2fbf 4b90 51c0
000003a0: 4846 4c3f d9ca c63e 76c4 593f 1182 583e
000003b0: f7a5 c8be 8789 a13f bf2b 3bbf 6ed4 24bf
000003c0: d5b4 ce3e 5579 bcbe f198 093e f2e6 32bf
000003d0: bc78 983e 04be 17bf a866 8c3f 44e0 22be
000003e0: 7a7a b2bf 5a43 aa3d 62d8 42be e7e2 39bf
000003f0: 525b 2f3f 09e6 e83e 88c6 783e fc5a 6cbf
-1.7112666 0.8582962 0.6004897 -0.632332 -0.08520066 -0.19900192 0.022130826 -1.6782713
0.53679335 0.39231583 -0.17699532 -0.29685748 2.3934524 0.4146759 0.7003329 0.48680648
-0.38389808 0.21038257 0.22124587 0.06830895 0.4869262 2.2407868 0.2310375 0.3196927
0.7948695 0.0418124 0.3660029 -0.49482438 -0.035070818 1.0319266 0.74747264 0.69217724
0.0984988 -0.20035675 -0.33787802 -0.04217815 -0.37670827 -1.4242318 0.35986918 -0.22289564
-0.30272445 -0.09945184 0.68440956 0.6480775 -0.08086709 -0.39200878 -0.5107377 0.3062758
-0.18469334 0.5459056 0.4755412 0.18804325 0.5194938 0.25922278 0.5582521 0.30993998
-0.18326442 -0.022225222 0.005250106 -0.13869624 0.11738926 -0.47794297 0.6359053 0.90777
0.23183458 -0.39583385 0.90249336 -0.45416242 -0.4383913 1.1388346 -0.54746234 -0.63927346
-0.26841062 -0.24085951 0.37190807 -0.4377606 -0.2160643 0.8765153 -0.5898573 0.3079739
0.36051345 0.07108134 0.11046807 0.58715034 0.69577074 0.11216026 0.17709295 -0.50972795
-0.04796271 -0.045644004 0.3615753 0.02596928 0.69148993 0.2609281 0.7251567 -0.57992005
-0.024842856 -0.01946554 -0.07529225 -0.033697784 -0.14855407 0.49322638 0.23524208 0.76299334
-0.08811059 0.71358824 1.3200952 -0.4726071 1.2711723 0.93732524 0.46205226 0.77481204
2.5694954 0.12189438 0.70888007 0.36798447 -0.5800441 0.010798493 -0.32083845 0.20508485
-1.600566 1.0707195 1.2065387 0.11261018 -0.0844163 0.15980038 -0.12677194 -0.104151815
-0.920504 1.3645238 -0.3063658 -1.3730464 0.9990086 0.89732367 -0.3479157 0.13529006
-1.1380665 0.70458776 1.5890191 -0.6237657 0.9028346 -1.0508219 -0.8396543 0.034318242
-0.04388554 -0.28080088 0.8651181 -0.73232114 1.6084341 -0.11458903 1.2860273 -0.03700638
1.0179234 0.016046045 1.7514951 -1.5972902 0.65125877 0.011545303 0.25783667 0.15316096
-0.43068415 -1.2384074 0.9090029 1.46601 0.63701004 -0.62618434 1.6961367 0.04781641
0.89578927 0.20293085 -0.7393331 -1.9032574 0.60787314 0.87527144 0.7574932 -0.46131194
0.05420723 1.9931629 0.4352349 -0.5098738 0.035695788 -0.2899273 0.7025277 2.4929836
0.5695387 -0.38502744 0.3763167 -1.2259648 0.38260368 -0.43038762 -1.0409076 -0.12920259
0.47548118 0.14446215 -0.01061852 0.4236968 0.26476875 -0.1297069 -2.1100342 -0.24271776
0.12233982 0.9329404 0.40204856 -0.71973264 0.22786494 0.04091807 0.24708289 -0.36960873
-0.28121898 1.264233 -1.4153956 0.36032838 1.2931964 0.5420435 0.51211834 0.6323975
-0.13752608 0.49612233 0.38917196 -0.23864268 -0.24133703 0.4330159 0.37625697 -0.4478161
-0.7095016 -0.7081085 1.231996 -1.5742155 0.8085019 -0.94184124 -0.68724203 -3.274432
0.7979474 0.38826635 0.850654 0.21143366 -0.3918912 1.2620095 -0.73113626 -0.6438664
0.4037234 -0.3681132 0.13437249 -0.69883645 0.29779613 -0.59274316 1.0968828 -0.15905863
-1.3943627 0.083136275 -0.19027856 -0.7261185 0.6849872 0.45488003 0.24294484 -0.9232633

lstm.bias_ih_l0 f4 [80]
00000000: d7da 01c0 4d9d acbf 7b7f 09bf 9e44 98bf
00000010: c7e7 bcbf df42 5bbf f4f8 2abe 4f65 e0bf
00000020: 8de3 01c0 1f8c b5bf ca78 b9be 2b16 fdbf
00000030: a2b8 4ebf fb86 8bbe 1409 9ebf a2e2 1dbf
00000040: 235c 89bf 15c3 a8bf 8e67 8fbf 3045 f9be
00000050: e6e9 ebbe 2d9a 6cbf bfcd b8be 2efe 373d
00000060: f8f4 773f 379c 15bf 7642 29be ef55 8f3f
00000070: d010 1d3f dbc4 c93e 6667 53bf 7de9 2ebf
00000080: 816f a3bd f0a9 81bd 1380 a53e 91ac a4be
00000090: 08f4 55bf bdf0 53bf 82de 543e 10dd 2c3f
000000a0: 997f f13d 3454 8bbe 12d5 db3d 91be e2be
000000b0: 604a 7cbe 32fe 7d3e 3b7a 31bf 45c1 223e
000000c0: 358c 57be 6593 33be 4eef 673d c3f7 b9bd
000000d0: 4696 70be 2450 e33d 9e70 88be ad56 7bbe
000000e0: 4e41 43bd acec 04bf 5974 bf3e 2ed4 573e
000000f0: 9b17 25be 47ba 833c 9adb a3bf 45b4 98bf
00000100: d32d c4bf be5d ebbf 362b 14bf 30b3 29be
00000110: 1536 6cbe 0d3a e13d 3307 9abf 24b0 0cbf
00000120: 3cb8 b5bd 04be babf d0d7 7fbf e203 b8bf
00000130: 05ee 87bf 4724 adbf b663 c7be 60e4 c9bf
-2.028982 -1.3485504 -0.53710145 -1.189594 -1.4758233 -0.8564891 -0.1669653 -1.7530917
-2.0295136 -1.4183387 -0.36224967 -1.977239 -0.8075048 -0.2725142 -1.234652 -0.6167394
-1.0731243 -1.3184534 -1.1203477 -0.48685598 -0.46076888 -0.92422754 -0.36094472 0.04492014
0.9685817 -0.5844149 -0.16529259 1.11981 0.6135378 0.39408 -0.8257965 -0.68325025
-0.07980252 -0.06331241 0.32324275 -0.32162908 -0.8357549 -0.8278921 0.20788005 0.67524815
0.117919154 -0.2721268 0.10733999 -0.44286016 -0.24637747 0.24803999 -0.69327134 0.15894039
-0.21049578 -0.17536695 0.056624703 -0.0908046 -0.23494825 0.1109927 -0.2664842 -0.24544783
-0.0476697 -0.5192363 0.37393454 0.21077034 -0.16122286 0.016080035 -1.2801392 -1.1930014
-1.5326484 -1.8387983 -0.57878435 -0.16572261 -0.23067506 0.109974004 -1.2033447 -0.5495627
-0.088730305 -1.4589238 -0.9993868 -1.4376185 -1.0619513 -1.3526696 -0.3894326 -1.577282

lstm.bias_hh_l0 f4 [80]
00000000: 877d 05c0 b5c4 aabf ef82 c3be 7783 7bbf
00000010: 76cc 9fbf e6e1 98bf 015b acbe 6f24 e9bf
00000020: a1c3 f5bf 823f cdbf 275a 50be 1cb9 cdbf
00000030: d588 1abf 5f50 93be 127b afbf 2ce5 a0be
00000040: 89f5 80bf 6c43 7cbf 16fe 56bf 27e4 5cbe
00000050: 5388 2440 4d69 0840 2376 1f40 6d45 4640
00000060: b73b 7340 d777 1240 bafc 3c40 146c 7e40
00000070: 28cb 6d40 15a1 5940 8b32 1240 5081 0740
00000080: 9dde 4440 a600 3640 ca1f 6140 8771 2340
00000090: 8081 0040 bf68 0240 5919 5240 3a20 5d40
000000a0: 7a83 c33c 8b73 cbbc e3f2 ecbd 65ab 21bf
000000b0: 3975 893d 8057 f53e 33f4 f3be a631 a93e
000000c0: 4f78 79be 6913 93be c4a9 e5bd 146f 01be
000000d0: 96a7 93be 7e4e 41bc d9d3 5bbe eae0 90bc
000000e0: 0a47 9a3e 4f7c 5fbf 1403 a73d 3727 183e
000000f0: ff5a dfbe c3a6 89bc cbcb a6bf d274 6cbf
00000100: aaa7 d6bf 240f f7bf 15ed 82be df47 42be
00000110: 55c8 a7bd d1db 863d ae3e a0bf 6a11 b8be
00000120: 46a7 bcbe ad0f bebf 841e 62bf f9fc 91bf
00000130: 44cf 8fbf d984 acbf 041d c4be 710d b3bf
-2.0857866 -1.334128 -0.38185832 -0.98247474 -1.2484272 -1.1943939 -0.3366318 -1.8214244
-1.9200326 -1.6035006 -0.2034689 -1.6072116 -0.6036504 -0.28772256 -1.3709433 -0.31424844
-1.0074931 -0.9854038 -0.83981454 -0.21571408 2.5708206 2.131427 2.4915855 3.0979874
3.8005197 2.2885644 2.9529252 3.9753466 3.7155247 3.4004567 2.284335 2.1172676
3.0760872 2.8437896 3.5175653 2.5538042 2.007904 2.0376432 3.282797 3.455092
0.023866404 -0.024835369 -0.115697645 -0.6315215 0.067118116 0.4791832 -0.47647247 0.3304569
-0.243623 -0.28725746 -0.11214021 -0.12640029 -0.28838795 -0.011798499 -0.21467532 -0.017685372
0.30132324 -0.87299055 0.08154884 0.1485871 -0.43624112 -0.016803151 -1.3030943 -0.92365754
-1.6769917 -1.9301496 -0.25571504 -0.18972729 -0.08192507 0.065848954 -1.2519128 -0.35950786
-0.3684637 -1.4848534 -0.88327813 -1.1405326 -1.1235127 -1.3478042 -0.38303387 -1.3988477

head.net.0.weight f4 [1, 20]
00000000: 3b44 0b40 1932 7bbf 9103 c9bf 8f3a 34bf
00000010: 0d57 d5bf 5bed 9d3f 99d0 7e3d cef4 78bd
00000020: 604d b13e 184e 20be 3835 c13f ab0f 0440
00000030: 65db 503d fc57 f3bf 1347 203f 9f1b bdbf
00000040: e923 e43f d284 d1bf 3650 513c 9e86 d13f
2.1760395 -0.9812332 -1.5704213 -0.70401853 -1.6667191 1.233806 0.062210653 -0.06078034
0.34629345 -0.1565479 1.5094366 2.0634563 0.05099048 -1.9011226 0.6260845 -1.4774054
1.7823459 -1.6368659 0.012775471 1.6369207
