Project-Run/run_cudalstm_base_model/model_epoch041.pt (torch, 19526 bytes, 5 tensors)

lstm.weight_ih_l0 f4 [80, 33]
000000 13 0c a4 be 60 bd 80 3d 82 c9 b0 bf 94 cd ae bf
       -0.32040462 0.062861204 -1.3811495 -1.3656487
000010 35 6c 6a 40 04 67 0a 40 ab 36 9d bf ed 73 c5 3f
       3.6628544 2.1625376 -1.2282308 1.5426003
000020 f2 08 6a c0 2f 80 c7 bf 3c 89 93 3f f2 0f 61 be
       -3.656796 -1.5585994 1.1526256 -0.21978739
000030 d5 47 52 40 74 83 9e bf 77 36 2b c0 6d b1 da be
       3.2856343 -1.2383866 -2.6751993 -0.4271349
000040 a8 cf 8d bf de b0 ab bf 94 be 74 3e 1d 94 b0 c0
       -1.1078997 -1.341335 0.23900825 -5.51808
000050 eb be 9a c0 cc 7b ac be 06 25 05 c0 14 d8 52 40
       -4.8358054 -0.336882 -2.0803847 3.2944384
000060 c1 37 b8 40 cb a0 a4 3f 14 8e 47 bf d4 c7 32 3f
       5.756806 1.286157 -0.7795117 0.69836164
000070 f6 2e e6 3f 8c 0d a3 bf 32 79 ec be e3 c1 79 3f
       1.7983081 -1.2738509 -0.46186215 0.9756147
000080 39 a3 fd 3f f9 a0 68 3c b4 b2 a1 39 4a 87 b3 3e
       1.9815437 0.014198535 0.00030841457 0.35064155
000090 23 f3 82 be 9e c7 a1 bf 66 89 5b 40 72 0f 0a bf
       -0.25576124 -1.2639043 3.4302611 -0.5392982
0000a0 11 03 38 bf 04 0b 22 3f 55 68 04 40 3e 70 af 3e
       -0.7187968 0.6329806 2.068868 0.34265321
0000b0 b9 df c4 3d ab e7 19 be 58 5a a5 bd 0b be af 39
       0.09612984 -0.1502978 -0.08073872 0.00033520194
0000c0 18 39 c6 be fe f7 48 bf 79 16 b9 be e8 1a f3 be
       -0.38715434 -0.78503406 -0.36149958 -0.47481465
0000d0 47 a6 1b be 4f db af 3f d0 02 9e 3e ad 76 27 3f
       -0.15200149 1.3738803 0.3086152 0.6541546
0000e0 d8 a3 ec 3e 6d a5 17 3f 50 4e a5 be 9d c1 8c bf
       0.46218753 0.59236795 -0.3228631 -1.0996586
0000f0 56 7e 88 3e cd f9 0e 3f 37 a0 68 3e 0f 17 de 3d
       0.26658887 0.55849916 0.22717367 0.10844242
000100 ee bd cb be 73 4c 9b bf 9f cd 2a bf 88 82 50 bf
       -0.39793342 -1.2132705 -0.6672 -0.81449175
000110 dc af a3 bd f6 4c 85 c0 8f 3a dc c0 86 2d 91 be
       -0.07992527 -4.1656446 -6.8821483 -0.28355044
000120 f3 ce d0 bf 24 b8 5c c0 3f fc 35 c0 c0 4d 80 c0
       -1.6313156 -3.448739 -2.8435209 -4.009491
000130 06 2b 9e bf 44 84 e4 bf 66 1d c9 40 34 71 6f bf
       -1.235688 -1.7852864 6.2848387 -0.9353211
000140 96 3f 90 3f 09 ea e4 3f 34 75 16 3f 8b b9 b6 bf
       1.1269405 1.7883922 0.5877259 -1.4275373
000150 ff b8 cd 3f e8 39 69 3e d8 2b c6 be 62 da 46 3f
       1.6072081 0.22775996 -0.38705325 0.77676976
000160 b5 36 4d be 3a 6e b9 be 5f 42 1d 40 06 ad 97 c0
       -0.200404 -0.3621691 2.457176 -4.739871
000170 29 e8 b2 3f a2 2b 40 3f f2 c7 ab 3f 14 76 56 3f
       1.39771 0.7506658 1.3420393 0.8377392
000180 8c fa d0 bf 47 ef 16 bf 5e 97 f5 bf 92 b2 d5 bf
       -1.6326461 -0.5895886 -1.9186819 -1.669512
000190 11 87 db c0 64 e1 b0 bf 8a 6f 25 c0 3f 1a 92 c0
       -6.8602376 -1.3818784 -2.5849328 -4.565704
0001a0 3f 0c 32 c0 69 d0 ae bf 57 94 72 40 e9 e2 8f be
       -2.7819974 -1.3657352 3.790304 -0.28102806
0001b0 fd eb 9b 3f d9 44 82 bf 0e 61 69 3f aa a7 7b 3f
       1.2181393 -1.0177261 0.9116372 0.9830271
0001c0 ba 37 df 3f fe 70 dc bf 5e 14 40 40 3d 93 15 bf
       1.7438881 -1.7221982 3.001243 -0.5842779
0001d0 62 65 70 c0 22 24 23 40 46 92 1f 40 d8 d1 0b 3e
       -3.756188 2.5490804 2.4933028 0.13654268
0001e0 f4 db e9 3e 3a 84 a4 3f ac 1f 03 40 4c e3 98 3f
       0.45675623 1.2852852 2.048808 1.1944366
0001f0 35 aa 2a c0 76 d7 05 bf ed 42 d0 3f 3c 39 97 3f
       -2.6666386 -0.5228189 1.6270424 1.1814342
000200 ab e8 33 3f e1 df 03 be 51 19 63 be 88 ad 4b 3e
       0.702769 -0.12878372 -0.22177626 0.19890416
000210 75 79 d7 be 84 cc 63 40 99 fd e6 be 89 58 9f 3f
       -0.42084852 3.5593576 -0.45115355 1.2448894
000220 b9 9b 9f bc 62 d3 a7 3f d2 de 1c 40 a6 6f 92 3f
       -0.019483434 1.3111384 2.4510999 1.1440322
000230 10 b1 92 bf fb 54 15 bf eb 1b d6 3d 22 ff f8 bd
       -1.1460285 -0.58332795 0.10454544 -0.12158038
000240 c8 74 10 3f fb 0b de 3f 37 fd 2e c0 26 db ec bf
       0.56428194 1.7347406 -2.734205 -1.8504379
000250 c7 c2 1a 3e 5a b5 91 bf d7 b3 71 3f 40 e8 61 bf
       0.15113364 -1.1383469 0.9441504 -0.8824501
000260 e9 0f 35 3f 87 97 ed 3f 73 41 75 bd b9 6e 3a bf
       0.707274 1.8561867 -0.05987687 -0.728252
000270 4b 85 04 3f ce 8e 1b be 23 68 28 c0 c8 88 56 3d
       0.5176589 -0.15191194 -2.631356 0.05237654
000280 d1 92 31 3f c1 a1 8c be bf a3 59 c0 07 9f 5d 3c
       0.6936465 -0.27467158 -3.4006193 0.013526685
000290 d5 f7 39 3f 90 40 81 3e 47 2a df 3a 31 1c a4 3e
       0.72643787 0.2524457 0.001702615 0.32052758
0002a0 c9 fb c8 bd 44 4e 56 3f 0c 6a 1a 3f 50 27 92 be
       -0.09813649 0.83713174 0.60318065 -0.28545618
0002b0 4f 56 22 be b1 e3 5e 3f 0d 10 0e 3e c8 81 94 bd
       -0.15853237 0.8706618 0.1387331 -0.07251316
0002c0 39 95 93 be bc 6f b9 bd aa d8 b4 bd 1b 95 ac bd
       -0.28824785 -0.09054515 -0.08830388 -0.08426877
0002d0 04 cb d6 bd e8 f0 01 3e 1d 11 39 be 34 09 82 3e
       -0.10487941 0.12689555 -0.18072934 0.25397646
0002e0 22 9b 9b 3e 48 e7 9c be e3 06 e4 3d cf 07 90 be
       0.30391794 -0.30645204 0.11134126 -0.28130957
0002f0 46 cf 1b 3f 20 bd 83 3e f1 e5 8a be 37 8d 3e bf
       0.6086315 0.25730228 -0.27128556 -0.74434227
000300 d5 67 cb 3c 2c f7 b0 3e ef 1d 95 3c 50 a5 db bc
       0.024829784 0.34563577 0.01820275 -0.026812226
000310 92 30 17 bf 16 60 36 bf df 5f 23 c0 9e ab 8f bf
       -0.5905849 -0.71240366 -2.5527265 -1.1224248
000320 c2 6a 9a 40 b3 e0 6c 40 40 7b f1 3f a7 00 5b 40
       4.825532 3.7012146 1.8865738 3.4219148
000330 67 57 b8 40 2a d9 0b be cc fa e6 bf a0 63 96 c0
       5.760669 -0.1365706 -1.8045287 -4.6996613
000340 90 56 85 bf 60 08 30 40 79 4a 0f 40 f2 41 05 3e
       -1.0417042 2.7505112 2.2389205 0.13013437
000350 03 e5 b0 40 96 b8 5b bf f7 59 a9 3e cf 99 31 c0
       5.5279555 -0.8582853 0.3307645 -2.7750127
000360 52 8b da 3e 0a dc 03 40 87 ea 09 40 bb 37 1b 3f
       0.42684418 2.060305 2.1549394 0.6063191
000370 17 80 24 bf e2 7f 13 40 29 77 59 40 4a 24 af 3f
       -0.6425795 2.3046803 3.397898 1.368295
000380 f1 2a b2 3f 76 7e cb bf e6 18 4e 40 11 6c 80 3c
       1.3919355 -1.5897968 3.2202697 0.01567653
000390 9f 7a c5 3e fb f3 54 3f 04 b3 70 3f 89 82 9b 40
       0.38570115 0.83184785 0.94023156 4.8596845
0003a0 d1 94 05 40 8a c1 f2 3e d5 05 b8 be 00 64 8c c0
       2.087208 0.47413284 -0.3594195 -4.387207
0003b0 8d 3c c1 3f bf df d4 3f ab 35 4d bf 66 99 3d bf
       1.5096604 1.6630782 -0.80160016 -0.7406219
0003c0 5d ab 16 c0 56 1a 41 be ce 97 ed 3e 2f 49 0e c0
       -2.3542092 -0.18857703 0.4640488 -2.2232168
0003d0 49 e3 dc be bc 54 82 c0 f3 17 52 bf 70 6f 94 3f
       -0.43142155 -4.0728436 -0.82067794 1.1596508
0003e0 9d 6d 90 bf d5 a8 2b c0 29 e9 e0 3f 25 66 09 40
       -1.1283451 -2.6821797 1.7571155 2.1468594
0003f0 ef bb bc bf 00 fa 03 c0 39 3a 9e c0 5e c0 21 3f
       -1.4744853 -2.0621338 -4.9446073 0.63184154

lstm.weight_hh_l0 f4 [80, 20]
000000 ea 49 03 40 78 ea 42 3f 73 2b 9b 40 19 32 4b 3e
       2.0513864 0.7613902 4.849054 0.1984333
000010 63 3c 2f c0 3c 03 87 c0 0c 55 da 40 df 04 78 3f
       -2.7380607 -4.219145 6.8228817 0.9688243
000020 e0 12 98 3f 20 05 a3 3f 69 0f 5b 40 a9 e3 14 bf
       1.188076 1.2735939 3.4228156 -0.5815988
000030 9a ce 1c bd 84 a0 33 c0 82 5b 4b bf fb b9 7c 40
       -0.038282968 -2.806672 -0.79436505 3.9488513
000040 2d 0a aa 3f f2 28 50 3f a0 d2 a4 3f 5d cf 01 40
       1.3284355 0.8131248 1.2876778 2.0282815
000050 23 bc 0c 3f c9 b9 c1 3f 7e 61 72 3f 46 99 98 bf
       0.54974574 1.5134822 0.9468001 -1.1921775
000060 9f 7e cf bc 64 5c 51 bf 22 4c 6f bf ae fe 2b 3f
       -0.025328932 -0.817816 -0.93475544 0.67185485
000070 94 7f 6b 3f e8 8b 0f bf 2f b2 9f bf ae de bd be
       0.91991544 -0.56072855 -1.2476252 -0.37083954
000080 45 27 61 3e 66 5b 84 be c0 41 05 bf d6 4a f5 3e
       0.21987636 -0.2585098 -0.5205345 0.47908658
000090 75 c6 9a be 5f 31 a3 bf ab a3 61 3f 4c cc aa 3f
       -0.30229536 -1.2749442 0.8814036 1.3343596
0000a0 36 d3 39 bf ca 74 69 40 11 82 ef 40 55 18 82 c0
       -0.7258791 3.6477532 7.4846272 -4.06547
0000b0 ef 99 2e 3f 35 67 c9 be 98 a4 03 bf a8 8d a3 3f
       0.68203634 -0.39336553 -0.51423025 1.2777605
0000c0 72 2e 63 3f 46 3e 64 3f 63 25 22 c0 73 3a 32 3f
       0.88742745 0.8915752 -2.533532 0.69620436
0000d0 4f 16 2b c0 27 fe bb 40 01 de 4d bf 4c 63 ac 3e
       -2.6732366 5.8747745 -0.80416876 0.33669508
0000e0 61 ca 9e 3f c7 32 09 40 3c 34 86 40 49 0d 48 40
       1.2405511 2.1437242 4.1938763 3.1258109
0000f0 5d fd 55 be e7 63 13 bf db b6 49 40 3e 61 c4 40
       -0.20897432 -0.57574314 3.1517856 6.1368704
000100 37 e4 54 c0 e3 d1 c6 c0 8f e9 81 bf 22 4a 3f 40
       -3.3264291 -6.213121 -1.0149401 2.9888997
000110 c7 55 88 3f 51 0f c3 3e c5 16 a3 c0 e9 0b bf 3e
       1.0651177 0.38097623 -5.0965295 0.37313774
000120 a3 12 d5 c0 ad 99 9f 3f 78 d8 4a 3f 3c fa 69 bf
       -6.658525 1.2468773 0.79236555 -0.9139745
000130 5e 5a 4a c0 34 8e 1e 40 62 ca 40 40 e3 29 05 41
       -3.1617656 2.4774294 3.0123525 8.322726
000140 eb da 61 c0 03 5a 3a 40 ad 30 54 bc d9 03 81 3e
       -3.5289867 2.9117439 -0.012951058 0.25198248
000150 8d 44 e7 3e 7f ac 25 40 b0 b3 25 c0 74 4e a2 3d
       0.45169488 2.5886533 -2.5890923 0.0792512
000160 d2 96 12 3f 8c fc 87 40 c4 77 97 3e bc c4 02 3f
       0.57261384 4.2495785 0.2958356 0.5108144
000170 fb dd 0b c0 d8 cc 4f c0 51 e9 5b 3f 1e a6 3c 40
       -2.1854236 -3.2468777 0.8590289 2.947639
000180 e8 27 88 40 bd 8d 8c 3f 63 a8 10 c0 de c1 31 3f
       4.2548714 1.0980755 -2.2602775 0.6943644
000190 e8 f9 0f 3f 31 d8 c7 bd 15 17 84 3b a7 8b 6d bf
       0.562407 -0.09758032 0.004031072 -0.9279122
0001a0 0f 5c a7 bf 83 d0 6b 3f d9 58 cf be f8 0b 3c bf
       -1.3074969 0.9211504 -0.40497473 -0.7345576
0001b0 c2 b6 4d 3f 25 41 b6 40 64 f1 5c bf ff 5a 7a 3f
       0.8035699 5.695452 -0.8630583 0.977951
0001c0 30 5d 55 3f c2 44 71 3f 9b 06 d4 3e 0c 6b fa 3f
       0.8334532 0.9424554 0.4141129 1.9563918
0001d0 1d be 2a bf 8f de cc bd 5c 7b f0 3f 89 af af 3f
       -0.6669634 -0.10003387 1.8787646 1.3725444
0001e0 2d fc 0b bf 08 59 81 bf 99 a7 fb 3f 2e 71 d1 3f
       -0.54681665 -1.0105295 1.9660522 1.6362665
0001f0 82 fe e5 40 5d fe 59 40 bd 77 a0 3f 4a 1d 3e 3f
       7.187318 3.40615 1.2536541 0.7426344
000200 d1 e5 73 bf 27 23 c4 3e ba b8 01 bf 0a 77 1f bf
       -0.95272547 0.3830807 -0.50672495 -0.62291014
000210 d1 f3 aa 3f 0f b1 10 c0 ce 0e 2b 3e a1 9b 78 c0
       1.3355657 -2.2608068 0.16704866 -3.8844988
000220 9d c6 97 c0 92 cd 11 c0 7c 7d 1b c0 13 92 db 3e
       -4.742995 -2.278172 -2.429534 0.42884883
000230 26 2c 88 be 65 ad c1 bf 66 93 ea bf fe 45 94 bf
       -0.26596183 -1.5131041 -1.8326232 -1.158386
000240 ee 2a fd 40 f2 70 09 c1 60 e8 b8 c0 e7 44 f6 bf
       7.9114904 -8.590075 -5.778366 -1.9239777
000250 31 6f 87 3f 17 f7 da bf 23 9a 58 c0 2a 05 df bf
       1.0580808 -1.7106656 -3.3844078 -1.7423451
000260 87 2b 8a 3f b4 4a ba 40 57 ec 06 40 23 2b ef c0
       1.0794533 5.821619 2.108175 -7.4740157
000270 6e 8e 74 3f 49 0d 9c 3f 80 0a d1 3f 38 19 45 40
       0.9552983 1.2191554 1.6331329 3.0796642
000280 08 73 33 3f cb 0e 04 40 2d 9e ce bf 87 a4 11 c0
       0.700974 2.063403 -1.6142021 -2.275667
000290 54 44 79 40 99 b8 83 c0 ef 01 18 40 fb 9c 1c c0
       3.8947954 -4.116284 2.375118 -2.4470813
0002a0 31 11 71 40 84 c4 80 c0 0a e6 17 c0 5d 84 ff 40
       3.7666743 -4.0239887 -2.3734155 7.9849076
0002b0 54 80 12 c0 0c 1d 06 3f 8c ae 4d 40 7f c5 85 c0
       -2.2890825 0.5238807 3.2137785 -4.1803584
0002c0 23 ea 99 c0 2c 64 bb bf a5 34 93 40 cb 13 55 3f
       -4.809831 -1.4639945 4.6001763 0.83233327
0002d0 e0 d6 b1 bd c0 bd b9 c0 e1 0c c5 be 45 98 58 c0
       -0.08683562 -5.804413 -0.38486388 -3.3842938
0002e0 25 17 95 40 b9 b6 14 c0 40 bd aa bd 20 ba 8b bf
       4.6590753 -2.3236525 -0.08336878 -1.0916176
0002f0 74 d2 bb 3f 81 47 c0 3f aa 58 16 c0 38 26 fa 3f
       1.46736 1.5021821 -2.3491616 1.9542913
000300 c9 d4 61 bf 01 5e 1c 40 a8 91 d0 3f 28 60 af c0
       -0.8821531 2.4432375 1.6294451 -5.480488
000310 c3 29 05 40 47 9e 5a c0 49 8e 29 40 fe 68 8b 40
       2.080674 -3.4159105 2.6493094 4.3565664
000320 1a 63 50 be 1e ad 8f 40 7b 05 72 3e 90 a0 41 c0
       -0.20350304 4.4898825 0.23634903 -3.025425
000330 45 57 31 c0 77 23 f5 be cd f4 09 c0 ae d2 d6 3f
       -2.7709515 -0.4787862 -2.1555665 1.6783044
000340 1b b6 4e c0 a9 bf e9 3f c8 0e 8a c0 fd b2 ab 3f
       -3.2298648 1.8261615 -4.3143044 1.3413998
000350 05 22 9e be 8d 3e d5 bf 77 90 97 3f 1c 8f 00 c0
       -0.3088533 -1.6659714 1.1840962 -2.0087347
000360 1f 7c 87 3f a0 7e 01 40 0f c4 54 c0 c8 76 e5 3e
       1.0584754 2.0233536 -3.3244665 0.44817185
000370 1a 41 82 bf a1 a1 95 c0 27 90 0f 3f de 5b 37 c0
       -1.0176117 -4.67598 0.56079334 -2.8649821
000380 36 9f d4 3f 7b 73 4c c0 cb f1 d8 3f 23 81 99 c0
       1.6611087 -3.1945484 1.6948789 -4.7970138
000390 b4 8f de bf 46 f6 2f 40 5f 57 89 bf ff 0a fd 40
       -1.7387605 2.7494063 -1.0729789 7.9075923
0003a0 b0 48 58 3f 0c d7 61 c0 11 8c 48 3f d3 7c 98 40
       0.8448591 -3.5287504 0.78338724 4.7652373
0003b0 ea 92 29 bd 41 f2 fd bf 08 8a 32 3f 1a 49 4d c0
       -0.041399874 -1.9839555 0.6974187 -3.2075868
0003c0 5c 44 da 3f 0a 9a 97 be dc 7c 08 be 16 e5 78 c0
       1.7052112 -0.2960971 -0.1332888 -3.8889823
0003d0 41 22 a9 c0 39 fb 43 3f 04 de 2b bf bf 9c da be
       -5.2854314 0.7655521 -0.67135644 -0.42697713
0003e0 b9 b3 be 3f ec 6f 23 40 40 6e 9b 3f 82 65 b4 3f
       1.4898597 2.5537062 1.2143021 1.4093478
0003f0 f7 67 42 c1 6c 29 46 be da 70 15 3f aa ed 56 c0
       -12.150382 -0.19351739 0.5837532 -3.3582559

lstm.bias_ih_l0 f4 [80]
000000 c3 5c ba 3f 42 d2 17 c0 f3 6b a1 bf 1d fb 91 bf
       1.4559559 -2.372208 -1.2611068 -1.1404759
000010 53 82 84 3d f4 70 85 bf ed 92 d4 3f 17 fb 9a be
       0.0647017 -1.0425096 1.6607338 -0.3026969
000020 eb 78 9f 3d 79 bf 1d c0 49 34 92 bf 28 cf 62 3f
       0.07786735 -2.4648116 -1.1422206 0.88597345
000030 46 c6 04 c0 0a dd a3 be 09 9a d9 bf 42 be 5f c0
       -2.0746017 -0.32004577 -1.7000133 -3.4959874
000040 80 7b d5 be c9 97 9b c0 90 3e 73 3f e3 b4 da bf
       -0.41695786 -4.8622785 0.9501734 -1.7086452
000050 02 44 b6 3f c9 86 0f bf 71 0a 1a c0 7d 0b b6 bf
       1.4239504 -0.5606504 -2.4068873 -1.4222256
000060 ac 52 08 40 73 86 52 bc 22 0a 65 bf a1 04 3a 3f
       2.130046 -0.012849438 -0.89468586 0.72663313
000070 04 18 b3 3e 28 69 67 c0 5e d9 8a be 7c 49 2d 3f
       0.3497926 -3.6157932 -0.27118963 0.67690253
000080 41 97 cb bf 7a fc de bf c2 53 11 bf 49 84 30 c0
       -1.5905534 -1.74208 -0.5676843 -2.758074
000090 77 46 23 3f 39 ac e6 c0 68 c3 5c 3f be 6b d0 3f
       0.63779396 -7.2085233 0.86235666 1.628288
0000a0 cc 79 20 c0 7f de 6a c0 a8 4c af bf 36 95 a6 3f
       -2.507434 -3.66983 -1.3695269 1.3014286
0000b0 90 9e 11 40 f6 95 0b c0 6b d7 80 40 8b 52 a4 40
       2.275303 -2.181028 4.026296 5.135076
0000c0 89 ee 6a c0 29 50 5a be cf 3a 2f 40 0b 17 46 bf
       -3.670809 -0.21319641 2.7379644 -0.7737891
0000d0 4a 69 50 3f f4 4e 89 c0 b4 62 8b c0 77 99 a3 bf
       0.8141066 -4.290888 -4.3557987 -1.2781209
0000e0 8b 9f 8b 3f 31 47 e2 bf 55 d5 b0 c0 0b 4f 91 3e
       1.0908064 -1.7677976 -5.5260415 0.28380617
0000f0 ca 66 09 40 3d 83 07 bf bc fd fb c0 48 28 70 c0
       2.1468987 -0.5293463 -7.8747234 -3.7524586
000100 c7 26 a6 c0 4d b0 0d 40 03 9c 32 3f 41 0a 68 3e
       -5.1922336 2.2138855 0.69769305 0.22660162
000110 f9 22 c8 bd 41 9b d1 c0 0c 15 97 bf 2e 87 f9 bf
       -0.097722955 -6.550202 -1.1803298 -1.9494379
000120 7c ef 59 c0 00 26 91 bf 06 09 d9 bf e4 d7 ff c0
       -3.405242 -1.1339722 -1.6955879 -7.995104
000130 13 c8 84 c0 16 53 b9 c0 d3 a7 06 40 48 42 01 40
       -4.149423 -5.7913923 2.1039932 2.0196705

lstm.bias_hh_l0 f4 [80]
000000 9e 71 9b 3f 22 69 06 c0 5d ab 94 bf 74 fc 85 bf
       1.2144048 -2.1001668 -1.1614796 -1.0467668
000010 3e a0 35 3e b2 24 89 bf 7d 9f 03 40 14 be ff be
       0.17736909 -1.0714324 2.0566094 -0.49949706
000020 e1 2b 9f 3e 4c 42 1b c0 72 df 87 bf be 55 48 3f
       0.31088164 -2.4259214 -1.0615065 0.7825583
000030 bb 30 10 c0 e3 30 af be d2 fd c5 bf 2e 6a 60 c0
       -2.2529743 -0.34216985 -1.5468085 -3.5064807
000040 9b 18 83 be 88 64 9c c0 4f d7 92 3f e9 8f e7 bf
       -0.2560471 -4.887272 1.1471957 -1.8090793
000050 9e 8f 94 40 05 c3 1f 40 05 8a 2c 3f 2f 83 dc 3f
       4.6425314 2.496278 0.673981 1.7227534
000060 44 9b a2 40 8e f6 48 40 6f ec 0b 40 e6 8a 7b 40
       5.0814533 3.1400485 2.1863058 3.9303527
000070 54 36 59 40 81 15 15 bf f3 16 29 40 36 c5 76 40
       3.393941 -0.5823594 2.6420257 3.8557868
000080 da 2c 9b 3f 0b 13 bd 3f 50 d0 21 40 96 ba 13 3e
       1.2123063 1.4771436 2.5283394 0.14426646
000090 1b 88 65 40 52 a8 7f c0 5c 7f 82 40 fe 24 8f 40
       3.5864322 -3.9946485 4.078047 4.4732656
0000a0 47 d7 2d c0 1d c7 6d c0 cc 7e d8 bf 32 59 c3 3f
       -2.7162645 -3.715278 -1.6913695 1.5261595
0000b0 0c ca 1b 40 a1 24 0d c0 ae ac 6e 40 80 d1 9b 40
       2.434207 -2.2053607 3.7292895 4.8693237
0000c0 fe 7c 53 c0 7f 0a 89 3d 65 e6 24 40 b1 49 6d bf
       -3.304504 0.06691455 2.5765622 -0.9269057
0000d0 2b 3b 89 3f 18 89 80 c0 8b e5 82 c0 1c e9 9e bf
       1.0721182 -4.016735 -4.0905204 -1.2414889
0000e0 5e d8 9f 3f 3f dd dd bf 33 e5 b7 c0 a2 b4 d5 3e
       1.2487905 -1.7333144 -5.7467284 0.41739374
0000f0 86 c2 18 40 1c 3f a9 be e3 cf 02 c1 8d 8f 77 c0
       2.3868728 -0.3305596 -8.175754 -3.8681366
000100 80 d0 a1 c0 f1 a9 10 40 b3 7b 63 3f 10 b0 b6 3e
       -5.0567017 2.2603724 0.88860625 0.356812
000110 61 23 7c 3e b1 10 c8 c0 6c 1a 5b bf 47 08 fd bf
       0.24622871 -6.2520375 -0.8558719 -1.9768151
000120 b7 f1 52 c0 af 69 9d bf c2 1f ab bf bb b8 f6 c0
       -3.296003 -1.2297877 -1.3369067 -7.71005
000130 9c 03 8c c0 01 1e b4 c0 cf 95 13 40 6c b3 d2 3f
       -4.3754406 -5.6286626 2.3060186 1.6461005

head.net.0.weight f4 [1, 20]
000000 df 01 a2 bc 11 92 fa bf 35 e2 37 c0 fd 55 21 be
       -0.019776283 -1.9575826 -2.8731816 -0.15755458
000010 31 cc 07 40 d4 87 81 c0 39 bc 2a 3c cd 2c 38 bc
       2.1218379 -4.0478306 0.010420852 -0.01124115
000020 7f f9 4b 3b 69 60 46 c0 0e 5d 0f be d0 d1 22 3e
       0.0031124053 -3.0996344 -0.14000341 0.1590035
000030 64 51 27 40 77 0d 8d 3d 2d d0 e2 3c cb c2 a4 c0
       2.6143427 0.06887334 0.027687157 -5.1487784
000040 a2 58 f6 bf 60 58 3b c0 79 21 27 3e ea 15 b6 3d
       -1.9245799 -2.927269 0.16321363 0.088908985
