Project-Run/run_cudalstm_base_model/model_epoch006.pt (torch, 19526 bytes, 5 tensors)

lstm.weight_ih_l0 f4 [80, 33]
00000000: f662 973e 8ab2 543b dc23 9abf 804e 13be
00000010: ed71 0e3f 21cf 053f 3d7a d83e 7242 e83d
00000020: 955e d6bf a6bd 4ebf ba33 9a3f f854 e23d
00000030: 7965 4c3f 3494 4fbf 5043 d4bf fc9b 96be
00000040: 68d7 c7be 7185 bdbf cefb 31bf 3388 00c0
00000050: c0c5 0cc0 1591 3bbe c707 31bf 37e3 0540
00000060: 4f7d 0640 8930 c93e 7736 07bf fbc6 fa3e
00000070: 7641 293e 0bb3 16bf 04d1 c6be da24 4b3f
00000080: 942c 4b3f a837 193e ea44 89bd c9e6 ff3e
00000090: 4d06 073e 2e15 83bf 70da 923f fdca 3b3f
000000a0: 53bf 17bf 0558 373f 7bd9 e23f 0e79 1e3f
000000b0: c835 833e 6941 9abe c1de 2abc 42e0 b83d
000000c0: 6d13 2dbe cde8 2ebe ed60 a2be 868a d8be
000000d0: 6bf6 10be a9de 8c3f df51 5fbe eea3 5f3f
000000e0: 63e4 373d d846 993e ccaa 84be 2470 51bf
000000f0: d337 0dbe 4a1c 843e 3a19 93be 870b 54be
00000100: ffb4 8cbe 4218 27bf e9d4 8ebf dc2e d1be
00000110: 8d21 2dbf 7d49 5dbf d440 3dc0 6ae6 97bf
00000120: b1e2 5dbf 84ec 75bf 7bbf 5fbf 84c2 11bf
00000130: 2f3d e0bd 700d 97be a4f3 2c3f b6e1 2d3e
00000140: 3574 203f a341 053f 322d 36bf c3e1 28bf
00000150: 65bb 0c3f 0433 903e 41d1 aebc 4446 863f
00000160: a60e c4bd af15 323f b9ff 9f3e dc2f fbbf
00000170: 1c87 fdbd fdf9 0cbf 9605 06bf 4646 803f
00000180: 3f99 5cbe 4511 8e3f 29e8 81bf c5b2 ddbf
00000190: b10a ecbf f659 e7bf cfbe 26bf da9d a8bf
000001a0: 2d2d 8dbf 21d9 9cbf ec5b b03f 71d6 743d
000001b0: 78d9 8a3e 8b01 63bf b984 543e 628c 22bf
000001c0: 4c71 593f 1e23 933e 8bb9 5b3f f74d f9be
000001d0: 8cd2 e0bf fe0c 7d3f 937e 033f d409 a7be
000001e0: fe8c cfbd 6708 3f3d 5dc4 953f 903c 4cbe
000001f0: 1525 a8bf 2870 cf3e d202 633f 6475 62bf
00000200: 1ecb 5f3e 0bc2 97bf 3d7c a63c c7ae a83e
00000210: b3cf 423f ab5e bd3f b77b c83e f146 c43e
00000220: abe0 1f40 15d7 4440 3e64 5d40 4d13 333f
00000230: 4e56 2cbf 63b3 a1be 5dee 493e fe35 463f
00000240: fb73 f83e d428 df3e 7c97 18bf 5f19 babe
00000250: d397 463e 12ea c03e e3bd 893e cf98 04bf
00000260: 6677 72be f3cb eb3d b099 3abe a62a 72be
00000270: fd0f 343f 8bff abbe c0aa 3abf f5f1 70bd
00000280: 8c9c 9b3f 176a 413e f58e c1bf 2c46 1bbe
00000290: 27dc 2ebd a50d a73e 17f0 183c c1db 993e
000002a0: c962 8ebe e0be 713f f601 603c 7101 1bbe
000002b0: fea1 01be 2cf6 1c3f 0376 3f3e 340a 8cbc
000002c0: 5b2a 69bd 770b 49bc eb80 81be b060 a13c
000002d0: 0c61 cebd 896b bc3c 7b6a 86bd aac4 033e
000002e0: 6db8 8d3e 3032 793d 195c 94bb 5966 15be
000002f0: d77c d43e edc3 2f3e cb0c 51be b2a8 f8be
00000300: 6e30 75bd bf08 2f3e cbd4 393e 9e22 843b
00000310: 4980 c2be 4254 cbbe 6f76 623b 6f2b a93b
00000320: 08ab ea3f b6eb f83f c46e 2340 16e7 3d40
00000330: b24f 2040 eb72 5a3e 8e8c 4cbf afef 33bf
00000340: a1e6 69be 6275 4a3f d171 a83f 8cbb 1c3e
00000350: 75f5 703f b161 79bc f5a9 fe3d edd2 b0bf
00000360: 5e33 89be 9b67 083f 302c 243e a152 003f
00000370: 05a7 aabf b28f 0e3f 5e93 0340 8891 4e3e
00000380: bf78 e53e 6e5f edbe 879c 0bbf 911c 3c3d
00000390: 3287 4a3f cca4 503e f1ba 133e 8d9a 253f
000003a0: 1e76 803d 2b67 713f 6126 483f c7df 533d
000003b0: 8e19 0f3e e541 b43e b7ef 693f aea1 07c0
000003c0: 253f 38bf 5299 49bc 8353 953e d150 93be
000003d0: e171 d0be 6e0e cbbf 8135 b2be 1481 673f
000003e0: 8936 ccbc d119 a5bf 3c37 ee3e fada 2c3f
000003f0: 0549 a4bd 272e 8bbf 2212 96bf 1b18 9a3f
0.2956769 0.003245505 -1.2042193 -0.14385414 0.55642587 0.5226918 0.4228076 0.113407984
-1.6747614 -0.8075813 1.2047036 0.11051363 0.79842335 -0.81085515 -1.6583042 -0.29415882
-0.3903153 -1.4806348 -0.6952485 -2.008313 -2.1995697 -0.18317063 -0.6915249 2.091993
2.1013982 0.39294842 -0.5281748 0.48979935 0.16528878 -0.5886695 -0.3883134 0.79353106
0.79364896 0.14962637 -0.067025974 0.49980763 0.13185997 -1.0240839 1.1472912 0.7335661
-0.5927631 0.7161868 1.772262 0.61903465 0.2562697 -0.3012803 -0.010429085 0.09027149
-0.16901942 -0.17080994 -0.31714574 -0.42293185 -0.14156501 1.100545 -0.21808575 0.8735951
0.04489554 0.29936862 -0.25911558 -0.8181174 -0.13790826 0.25802833 -0.28730184 -0.20707522
-0.2748184 -0.6527139 -1.1158725 -0.40856063 -0.6762932 -0.8644026 -2.9570818 -1.1867192
-0.8667403 -0.9606402 -0.8740155 -0.5693743 -0.1094917 -0.2950244 0.67559266 0.16980633
0.6267732 0.5205328 -0.7116271 -0.65969485 0.5497344 0.28163922 -0.021340014 1.0490193
-0.095731065 0.69564337 0.31249788 -1.962398 -0.12379286 -0.5506895 -0.52352273 1.0021446
-0.21542834 1.109902 -1.0148975 -1.7320181 -1.8440763 -1.8074329 -0.651349 -1.3173172
-1.1029412 -1.2253762 1.3778052 0.05977482 0.2711904 -0.8867423 0.20753755 -0.6349546
0.849385 0.2873773 0.8582999 -0.48692295 -1.7564254 0.9884795 0.5136501 -0.32624686
-0.10134314 0.046638872 1.170055 -0.19944978 -1.3136317 0.40515256 0.8867618 -0.88460374
0.21854827 -1.1856092 0.020322913 0.32945845 0.76098174 1.4794515 0.39156887 0.38335374
2.4980876 3.0756276 3.4592433 0.69951326 -0.6731919 -0.31582174 0.19719835 0.77426136
0.48525986 0.43585837 -0.59606147 -0.36347482 0.19393854 0.3767858 0.26902685 -0.5179567
-0.2367836 0.115135096 -0.1822269 -0.23649082 0.70336896 -0.335934 -0.72916794 -0.0588245
1.2157149 0.18888126 -1.5121752 -0.15163487 -0.042690422 0.32627597 0.009334586 0.3005047
-0.27809742 0.9443188 0.0136723425 -0.15137269 -0.12659451 0.6131313 0.18697362 -0.017094709
-0.05692516 -0.0122708 -0.2529367 0.019699425 -0.10077104 0.023000496 -0.06563278 0.1286799
0.27679768 0.06083888 -0.0045275805 -0.14589824 0.41501495 0.17164584 -0.20415036 -0.48566204
-0.05986064 0.1709318 0.1814758 0.004032447 -0.379885 -0.3971272 0.0034555455 0.0051626484
1.8333445 1.9446933 2.5536356 2.9672294 2.5048642 0.213329 -0.7990197 -0.70287603
-0.22841884 0.7908536 1.3159734 0.15305918 0.9412454 -0.015221045 0.124347605 -1.381437
-0.26797003 0.5328309 0.16032481 0.5012608 -1.333222 0.5568801 2.0558696 0.20172703
0.44818684 -0.4636187 -0.54535717 0.04592568 0.7911254 0.20375365 0.14426781 0.6468895
0.06272529 0.94298047 0.7818356 0.051727083 0.13974592 0.35206524 0.913814 -2.1192431
-0.7197135 -0.012304621 0.29165277 -0.28772596 -0.40711883 -1.5863779 -0.34806445 0.9043133
-0.024928348 -1.2898504 0.46526515 0.6752163 -0.0802174 -1.087346 -1.1724284 1.2038606

lstm.weight_hh_l0 f4 [80, 20]
00000000: 927f 9abe 3cb5 c2be 51ed a3bf c20e 77be
00000010: 8609 0abf 37d5 d1bf 2d0f 1140 f60e 65be
00000020: b2b6 67be 261e 5dbe a5aa 57bf a877 5f3f
00000030: d46c 043d 12aa 5f3f 13b2 16bf 2213 e63e
00000040: cf5f 68bf 2ea9 28bf 476f 063f 64e8 563f
00000050: f509 103f b2ee 933f 48bc 0b3f 751b fe3d
00000060: dc71 fcbe d2df 54bf ee4a 09bf 2820 c73e
00000070: 753d cd3f 1741 643f 4eb6 e4be 674e 1b3d
00000080: f00e 60bf b7bb 363e 7f6b 01bf 805f 1a3f
00000090: 0bf6 f9be fb53 10be 057e 8d3e 82c8 a53f
000000a0: 310b 193f f672 0f40 2181 5440 8632 83bf
000000b0: 8d66 483e 2869 3ebe c6d2 8abf 2a2f 4a3d
000000c0: 5cdb 833f 2bed 9c3f 0042 edbf 5b1b be3f
000000d0: 1159 6ec0 5f68 5a3f 1e87 133f ace6 443f
000000e0: e1bb f73f c7f7 4540 f7e9 d43f 9d88 1dbe
000000f0: b659 7bbf 1415 c23f e2ab 773f 3d99 2b40
00000100: 8bbf 94bf 5605 13c0 a1f8 0abf 634c dd3f
00000110: 2a3d a63e 5bfe 9e3f 7f74 31c0 c1f8 1fc0
00000120: 6c45 53c0 16fe b2be 3430 df3d a864 b13f
00000130: 8ce9 d13f 77f6 a63f a0ec 8ebd f1ca 4840
00000140: f2aa d4bd 9c97 31bf b4c1 813e ba51 1e3f
00000150: bd4c 0cbf 3aa6 29be 71f9 9dbe cae9 8dbf
00000160: d00e 893f 360b eb3d 97ae 853f 9f77 c63e
00000170: a760 c3bf a9aa 6ebf 3c70 b0be d354 94bf
00000180: 7e67 db3e 2171 4dbf e481 ce3e bb81 c43e
00000190: 58d2 d03e bad0 d53b 8fb3 b0bd e03a c8bc
000001a0: a2c0 edbe 70bc 9c3a 2734 eebe c38c b0be
000001b0: 1bb2 103f 37b5 a83f 8858 a0be 3e68 2f3f
000001c0: 5d72 9bbf e8d4 7c3f 4f07 cb3e e57a a6be
000001d0: bd65 d7be 682c 723e e990 e63e d0a2 6d3f
000001e0: 923d d0bf ebc3 83be 29e0 b9bf 883d 00bf
000001f0: b820 2b3f 9c77 593f 1a86 ebbf f953 723f
00000200: b33d 85be a37b 573f fe16 abbf 0bd1 133f
00000210: e071 103f f641 07c0 641c fb3d 9a22 bfbe
00000220: 16d1 14c0 45d5 cfbe a658 8cbf 6a59 b23f
00000230: 25e8 64bf 9a5c c4bf b3ad a0bf ecaa 10c0
00000240: b3a6 b63f 3ede 81c0 d90c f4bf 3cf1 623f
00000250: 2cb3 633f 7ebe 8ebf bf39 fabf ede0 0bbf
00000260: bb6e b43f 1ef6 c73f 2e4e 2540 b14c e23e
00000270: 8efc 59be b3b4 e4bf 2e00 c83e 243e be3f
00000280: 26b0 913f b38e 1dc0 37fb 0dc0 2131 30bf
00000290: 8077 0640 cc68 25c0 8ce1 4c3e b5a7 e1be
000002a0: 8cec b43f edb0 d0bf f1cd 33c0 dfc6 1e40
000002b0: d75f a03f 4e4b c2bf 4d2a 85bd d0f5 04bf
000002c0: 64a2 e6bf 4737 b0bf db34 c33f 3b7d 033f
000002d0: c266 a03c 2f56 79bf ab47 ce3e c1dd dcbf
000002e0: 1adf 353f c00a 05be c877 a73d 6af9 2bbf
000002f0: 0547 d83f f55e bc3e b764 23c0 2769 1140
00000300: 5b36 a03f 3287 0040 3195 363d 0980 24bf
00000310: 390c b03e 7bab 67bf 1390 a13e 09aa ec3f
00000320: 6fe8 bd3e 690e 873e f064 2a3f 2538 453f
00000330: d900 3f3f 9464 d4be bca2 9cbf 6495 fe3e
00000340: 8f33 b3bf 1e74 15be 9071 11c0 97fd e5be
00000350: 4cb9 7d3e 8100 0ebf 22bf 45bf 7851 80bf
00000360: 5576 27bf bb9d 77bf b9bb 62bf 680f 053f
00000370: 9484 c2bd 51db e9bf 6740 27bf e48d 5c3f
00000380: d007 31bf 1523 2a3f 9d75 4ebe f939 d9be
00000390: 7fe9 b53e 6719 b23f 1aa6 e93e 2ca4 a140
000003a0: 76fc ce3d f652 05bf ba49 2c3f 6c0a 553e
000003b0: d3b6 2ebf 8e4e 0e3e 1097 403f 9eba 7ec0
000003c0: ee23 913e c5f5 2a3f 55ea f2be 7967 b53e
000003d0: 4cd3 273e 664d 753e e20c 3c3e 4911 27bf
000003e0: 883b e6be 9914 293f c3d2 6dbe 3f9a a73f
000003f0: aed8 41c0 fc97 c23f ff72 cebd 956f cbbf
-0.30175453 -0.38028896 -1.2806798 -0.24126723 -0.5392078 -1.6393193 2.2665513 -0.22368988
-0.22628286 -0.21593532 -0.8424476 0.87291956 0.03233035 0.8736888 -0.5886547 0.44936472
-0.9077119 -0.6588315 0.52513546 0.8394835 0.56265193 1.1557219 0.5458417 0.12407581
-0.49305618 -0.8315402 -0.5362996 0.3889172 1.603438 0.8916182 -0.44670337 0.037916567
-0.8752279 0.17845045 -0.5055465 0.6030197 -0.48820528 -0.14094536 0.27635208 1.2951815
0.597827 2.2413917 3.3203814 -1.0249794 0.1957037 -0.18594801 -1.0845573 0.049361385
1.0301318 1.2259878 -1.8535767 1.4852098 -3.7241862 0.8531551 0.5762805 0.7691448
1.9354211 3.0932481 1.66339 -0.15384145 -0.98183763 1.5162683 0.9674665 2.681228
-1.1620954 -2.2972007 -0.5428563 1.7288936 0.3246854 1.2421373 -2.7727354 -2.4995577
-3.3011122 -0.34959477 0.10897866 1.3858843 1.6399398 1.3043965 -0.069787264 3.1373866
-0.10384168 -0.6937196 0.25343096 0.61843455 -0.54804593 -0.16567317 -0.3085437 -1.1086972
1.0707645 0.11476748 1.0443906 0.3876314 -1.5263871 -0.93229157 -0.34460628 -1.1588386
0.42852396 -0.80250746 0.40333474 0.38380226 0.4078548 0.0065251263 -0.08627998 -0.024442136
-0.4643603 0.0011958014 -0.46524164 -0.34482393 0.5652177 1.3180302 -0.31317544 0.68518436
-1.2144276 0.9876237 0.39654014 -0.32515636 -0.42069808 0.23649752 0.45032433 0.9282656
-1.626879 -0.2573541 -1.4521533 -0.5009389 0.668468 0.84948134 -1.84003 0.9465938
-0.26023635 0.8417303 -1.3366392 0.5774085 0.5642376 -2.113401 0.122612745 -0.37331086
-2.3252616 -0.405924 -1.0964553 1.3933537 -0.89416724 -1.534076 -1.2553009 -2.2604322
1.4269623 -4.058379 -1.9066421 0.88649344 0.8894527 -1.1151884 -1.9548873 -0.54640085
1.4096292 1.5621984 2.5828967 0.44199136 -0.21287748 -1.7867645 0.39062637 1.4862714
1.1381881 -2.4618347 -2.218458 -0.68824965 2.1010437 -2.5845213 0.20007914 -0.44073263
1.4134688 -1.6303993 -2.8094447 2.4808881 1.2529248 -1.5179231 -0.06502209 -0.5193758
-1.8018308 -1.3766869 1.5250505 0.5136296 0.019580249 -0.9739713 0.40289053 -1.7255174
0.7104355 -0.12992382 0.08177143 -0.6717745 1.6896673 0.36791196 -2.5530221 2.272043
1.2516588 2.0082517 0.044575874 -0.64257866 0.34384325 -0.90496033 0.31555232 1.8489391
0.37091395 0.26378182 0.6656027 0.77038795 0.7461067 -0.41482985 -1.2237163 0.4972335
-1.400011 -0.14595076 -2.2725563 -0.44920036 0.24777716 -0.5546952 -0.7724477 -1.0024862
-0.65414935 -0.9672505 -0.8856769 0.51976633 -0.094979435 -1.8270055 -0.65332645 0.8615401
-0.69152546 0.6645978 -0.20162053 -0.42427042 0.35529706 1.3914002 0.45634538 5.0512905
0.10106747 -0.52079713 0.673 0.20804757 -0.6824772 0.13897154 0.75230503 -3.9801402
0.28347725 0.66781265 -0.47444406 0.35430506 0.16389197 0.23955306 0.1836429 -0.6526075
-0.44967294 0.66047055 -0.2322493 1.3093947 -3.02885 1.5202632 -0.100805275 -1.5893427

lstm.bias_ih_l0 f4 [80]
00000000: f6bf 573f fcd5 fabf 3a22 a1bf f3ff c83e
00000010: 2770 56bf 9d8b 99bf 866b e53b 8561 fb3e
00000020: e087 a53e 0c15 b7bf ac9a f8be 5912 9cbb
00000030: bc5b 63bf cb84 81bd 8f80 a2bf 0a82 8cbf
00000040: 5266 80bf 6001 07c0 83db 893e 33d2 cabf
00000050: 234f 873e da13 a2bf 5015 5abf 9a95 3b3f
00000060: ec3c b83e d1eb 8cbd 6641 39bf 23fb b0be
00000070: 18ae 943e 030d 0bc0 9fb8 7c3e 10d5 c43e
00000080: 0bb6 16bf 9230 89bf fed2 af3e 9337 bfbf
00000090: 7951 473d d442 44c0 9506 803e d2ac 993f
000000a0: e51e 61bf 4791 79bf e7da d73e 57df 1abf
000000b0: 77b6 813f c02f debe b50f 333f 473a 1940
000000c0: 602e 42bf 5f48 58be f128 913f f906 563c
000000d0: 72ef 6a3e 94e7 8ebf d4ac b4bf e609 b5bf
000000e0: 00e6 673f c087 67bf 70d6 c4bf b69a 28bf
000000f0: 4af2 353f 9597 99bf 5272 43c0 dd2b bfbf
00000100: 9a49 57c0 0cff 673f eecb 1b3f 6355 b53e
00000110: a315 d33d a112 69c0 3a99 ebbe 3367 6dbf
00000120: 6e83 1cc0 2627 9ebf fee7 36bf 27a6 8ec0
00000130: e934 04c0 7c08 42c0 61cd cf3e 4d21 3c3f
0.84277284 -1.9596553 -1.258857 0.39257774 -0.8376488 -1.1995732 0.007001343 0.4909784
0.32330227 -1.4303298 -0.48555505 -0.0047629294 -0.8881185 -0.063241564 -1.2695483 -1.0977185
-1.0031226 -2.109459 0.26925287 -1.5845398 0.26427564 -1.2662308 -0.8518877 0.7327515
0.3598398 -0.06880916 -0.72365415 -0.34566602 0.29039073 -2.1726692 0.24679802 0.38443804
-0.58871526 -1.0717947 0.34340662 -1.4938835 0.048661683 -3.0665789 0.25005022 1.2005866
-0.87937766 -0.974873 0.42159197 -0.6049704 1.0133809 -0.43395805 0.6994584 2.394182
-0.7585201 -0.21121357 1.1340619 0.013063186 0.22942904 -1.1164422 -1.4115243 -1.4143646
0.9058533 -0.90441513 -1.5377941 -0.6586107 0.7107283 -1.1999384 -3.0538526 -1.4935261
-3.3638673 0.90623546 0.60858047 0.35416707 0.10306861 -3.641762 -0.4601534 -0.92735595
-2.4455218 -1.2355697 -0.7144774 -4.4577823 -2.0657294 -3.0317678 0.4058638 0.7348831

lstm.bias_hh_l0 f4 [80]
00000000: cee9 193f e303 d8bf d161 94bf 7df9 f83e
00000010: 8098 39bf 5e3f 9dbf d546 ce3e dd9f 963e
00000020: e76a 0e3f be1a b2bf 5b47 cfbe e78a ddbd
00000030: 4d82 88bf add4 aebd 3ce4 8ebf d4d9 8dbf
00000040: 519b 57bf cd9a 08c0 babb ee3e 39ad d7bf
00000050: 7be7 5e40 9e35 e53f ada7 0e40 942c 7840
00000060: a6eb 5340 0f62 4540 dade 1640 25eb 3640
00000070: 7c69 5540 b05b 5c3f c03d 4a40 7c0d 6440
00000080: 57b4 0d40 626f 0940 ba1f 5c40 5f48 b43f
00000090: 07d4 3f40 66d3 163e 9acf 5d40 bf74 8140
000000a0: 4f4a 8bbf fc99 82bf 5848 cc3d 3faf c2be
000000b0: 7e0d 963f 55a5 eabe 8e0f ce3e 4338 0840
000000c0: e1cf c8be 9a1c 8d3d d400 793f 2769 0fbe
000000d0: 3a92 f93e 799f 57bf abb7 92bf aa59 b0bf
000000e0: a22b 883f 11b4 5ebf 0316 e1bf d967 06bf
000000f0: 7261 733f c825 80bf 78b7 56c0 5efa cdbf
00000100: bf9c 4ec0 3ae5 733f 82ab 4c3f 5d00 f83e
00000110: fedf e43e 8afd 55c0 fcf5 0abe 7b68 74bf
00000120: a985 15c0 dd6a aabf f829 b6be 1987 85c0
00000130: 24ac 12c0 359e 37c0 289f 1b3f 35fe b83e
0.6012238 -1.6876186 -1.1592351 0.48627844 -0.7249832 -1.2284963 0.40288416 0.2941884
0.5563187 -1.3914411 -0.40484127 -0.10817509 -1.0664765 -0.085366584 -1.1163402 -1.1082101
-0.8422137 -2.1344483 0.466276 -1.6849738 3.4828784 1.7906988 2.228984 3.8777208
3.3112578 3.08411 2.3573518 2.858102 3.3345633 0.86077404 3.160019 3.563323
2.214132 2.1474233 3.4394364 1.4084586 2.9973161 0.1472908 3.465796 4.045501
-1.0882052 -1.0203242 0.09974736 -0.38024327 1.1722867 -0.45829263 0.40246242 2.128434
-0.392211 0.06890221 0.9726689 -0.14004956 0.48744375 -0.8422771 -1.1462301 -1.3777363
1.0638316 -0.8699351 -1.7584842 -0.5250221 0.95070565 -1.001153 -3.354948 -1.6092031
-3.228317 0.95271647 0.799492 0.48437777 0.44702142 -3.3435998 -0.13570398 -0.95471925
-2.336283 -1.3313862 -0.35578895 -4.1727414 -2.2917566 -2.8690312 0.6078973 0.36131445

head.net.0.weight f4 [1, 20]
00000000: 9f19 6bbd 54b2 01c0 8d6c 28c0 f976 c5be
00000010: b359 e83f 325d 28c0 aa32 1dbd 4b1e a0bc
00000020: 6c66 febc 9a51 26c0 29cd a8be a889 eb3e
00000030: 7d9f 1140 1f3d 923e 6784 9d3e c731 76c0
00000040: 673f debf a511 11c0 0866 b63e 236f 4f3e
-0.05739748 -2.0265093 -2.6316254 -0.3856733 1.8152374 -2.6306882 -0.038378395 -0.019545695
-0.031054698 -2.5987306 -0.32969025 0.4600346 2.2753594 0.28562257 0.30765077 -3.8467882
-1.7363099 -2.266702 0.3562472 0.20257239
