Project-Run/run_cudalstm_base_model/model_epoch003.pt (torch, 19526 bytes, 5 tensors)

lstm.weight_ih_l0 f4 [80, 33]
00000000: 332d b33e 211b cf3d c246 83bf 6e92 8d3d
00000010: ca3d b13d 683d c0bd b8f3 3bbe 6f72 423e
00000020: ba47 8cbf 3d8a 1ebf 4a12 c83e be38 103e
00000030: b405 053f f96c 0fbf 01b1 7dbf 55fd b5be
00000040: 3783 32be 3c6f d3bf 14ff 69bf c903 b6bf
00000050: 135b b6bf 73fc 17bf 75f0 1fbf 5965 bf3f
00000060: 9bf2 b23f 15fa db3e a161 debd a9cb 053e
00000070: 5983 bd3d 8b37 8dbe 808f 78be 8c9a 543f
00000080: 5577 743e 5f22 813e 0960 1dbd 4732 0c3f
00000090: 59ec 19bd 2d7c 72bf e9fa 773f d957 2b3f
000000a0: c96d e1be fd11 2c3f 0c92 c53f c48a b33e
000000b0: 70bf 473e b036 17bf d033 cebd 2a55 ad3e
000000c0: b5b7 c73d cad3 9bbe 5aff 7dbd 3469 b6be
000000d0: afe3 1bbd 32ca 003f d296 04be dd46 213f
000000e0: d886 fcbd 1fd4 b63e 6a3e 1bbe 4399 27bf
000000f0: 1aec cebe 1eb7 8dbe dc1e 0cbe c7d9 8dbe
00000100: 0fc0 49be 9153 17bf 7b6d 8fbe 888b 18be
00000110: a807 85be d76f 49bf 2b5b 15c0 7511 49bf
00000120: 6b4c 1bbf 9522 19bf 2b6f 3ebf 7c2e bebd
00000130: 93f8 02bd e45a 90be 3738 ab3e a6a8 16be
00000140: e5ff 0bbe 4417 513e 1cfa 5dbf 2990 bfbe
00000150: 88de 1d3f 6833 15be c537 99be 5df0 363f
00000160: 3856 d3bd f8b3 b03e 999e 883e dea8 adbf
00000170: d123 c5be b161 dcbe 15a8 09bf 9170 1e3f
00000180: c2b0 35bf 2d22 223f 34e3 20bf 1514 e0be
00000190: c7a3 94be 3d40 ffbe 2691 0ebe 2779 fbbe
000001a0: 7761 1abf 26fa 31bf 6d2b 863f 9974 8c3e
000001b0: 1b54 f13e 54b7 be3e a278 fdbd 6c22 51be
000001c0: 7050 713e 3bae 2a3f 71c5 843d aceb 333f
000001d0: c3af 7bbb f09a 953f 393a 823e b05e f43d
000001e0: 1a79 4a3d 1610 933e 675e b43f b019 e3be
000001f0: b7eb b5bf 6ec6 61be 08fc e43f dbbe e9bf
00000200: 818e 87bf a67c 1e3f 24b0 e1be 6291 be3f
00000210: d51c 4a3f d17b 653f ad59 233f d1cf 26bf
00000220: 1cec 0040 b0f8 1540 921f 2340 e9d7 463f
00000230: fa13 34bf 5d4b 4c3e 386b 023f 2833 dcbe
00000240: e0eb e63e e129 00be 1e18 55bf a803 f1be
00000250: 93a0 ebbc fad7 7b3f dab7 92be bb92 fcbe
00000260: 1891 8dbe 39d0 88be b5be 0dbf 99af 963e
00000270: 15ec 323f ceb6 213e 9e08 7dbe 762c 8e3e
00000280: 4753 273f 3c5b cdbd ac1e 06bf 33eb 8bbe
00000290: 50b9 333e d550 b63e 3adf a0bb 80ce 823e
000002a0: 378d 71be 37d6 453f 883a 2dbe cf79 0e3d
000002b0: 6357 eabd 38c2 263f 910c 3dbd 10d6 b8bd
000002c0: 5a65 babd db27 66be 97e7 f2bd fe4e 8dbb
000002d0: 907b 57be 3158 763e ca83 05bd fbc2 dabb
000002e0: b0ba 3c3e 3131 eb3b 6c2e c9bd d020 983d
000002f0: 3da4 6f3e 2a85 e93d 6eae 99bd 8f5c a6be
00000300: a2cf a4bd dd78 3d3e c6e0 3e3e 8f9e c83c
00000310: 7f87 a4be 687b 2dbe 6588 e83c f878 68be
00000320: 0cdc 653f f423 a93f d61c fa3f 33cb 1c40
00000330: aab8 c73f 6519 4f3e 9254 09bf 259d debd
00000340: 6157 1f3c 2555 2d3f 9139 f33e 4932 be3e
00000350: acc5 e23e 8042 b63d e58c 23be 8179 64be
00000360: 3d6c 73be 935a d83e c964 903d 131d a73e
00000370: 20e2 86bf 21ba 293f af44 8c3f 2421 723d
00000380: 61c5 373f b6ea acbe 892f a6be 95c1 e83b
00000390: b2a9 303e 86b9 273e 4326 b7bd d538 ce3e
000003a0: a1aa 32be 6712 ae3d 53fc cc3d 170a 93be
000003b0: e552 5bbd 6da3 63bd ffd3 393f 7a7c fcbf
000003c0: 17aa 8fbf fd4d fc3d 1b04 b8bd 5571 77be
000003d0: b99e 91be 3e76 cdbf 1df8 e53d 4bc7 413e
000003e0: 60a7 623c 28f2 02bf d239 613e b6d3 8d3b
000003f0: b9ee 9dbe 4240 43bf 495e 83bf e50f 7d3f
0.34995422 0.10112596 -1.0255969 0.06912695 0.086543635 -0.09386712 -0.1835469 0.18988965
-1.0959389 -0.61929685 0.39076453 0.14084145 0.5196183 -0.56025654 -0.9909821 -0.3554484
-0.17432867 -1.6518321 -0.91404843 -1.4219905 -1.4246544 -0.5936958 -0.62476283 1.4952804
1.3980287 0.42964235 -0.10858465 0.13065971 0.09253568 -0.27581438 -0.24273491 0.8304832
0.23873647 0.25221536 -0.038421664 0.5476422 -0.037578914 -0.9472073 0.96867234 0.6693092
-0.44029072 0.6721495 1.5435195 0.35066807 0.19506621 -0.5906782 -0.10068476 0.33854038
0.09751836 -0.3043502 -0.0620111 -0.3562714 -0.038058933 0.50308526 -0.12948158 0.62998754
-0.12330407 0.3570871 -0.15160528 -0.65468234 -0.40414506 -0.2767877 -0.13683647 -0.27705213
-0.19702171 -0.5911189 -0.28013214 -0.14896977 -0.25982404 -0.7868628 -2.3336895 -0.7854226
-0.6066348 -0.59818393 -0.7438838 -0.0928621 -0.03197534 -0.28194344 0.33441326 -0.14712772
-0.13671835 0.20419031 -0.8670976 -0.37414673 0.6166768 -0.14570391 -0.2992536 0.71460515
-0.10319179 0.34512305 0.266835 -1.3567159 -0.38503888 -0.43043283 -0.537721 0.6189051
-0.70972836 0.633334 -0.62846684 -0.4376532 -0.29031202 -0.49853697 -0.13922557 -0.4911587
-0.6030497 -0.6952232 1.0482002 0.27432707 0.4713448 0.37249243 -0.123765245 -0.20423287
0.2356584 0.66672105 0.064829715 0.7028148 -0.0038404323 1.1687908 0.25435045 0.11932123
0.049431898 0.2872321 1.4091309 -0.44355536 -1.421256 -0.22048351 1.7889414 -1.826137
-1.0590364 0.6190895 -0.44079697 1.4888117 0.78950244 0.89642054 0.6380871 -0.6516085
2.014411 2.3433037 2.548802 0.776732 -0.7034298 0.19950624 0.5094485 -0.4300778
0.45101833 -0.12515976 -0.83239925 -0.47073102 -0.028763091 0.9837643 -0.28655893 -0.49330696
-0.2764976 -0.2672136 -0.5536912 0.29430845 0.6989148 0.1579239 -0.24710318 0.27768296
0.65361446 -0.10027167 -0.5239055 -0.2732788 0.1755116 0.35608545 -0.004909423 0.25548172
-0.23589025 0.7727999 -0.16916859 0.034784134 -0.11442449 0.65140104 -0.046154562 -0.09025204
-0.091013625 -0.22476141 -0.118605785 -0.004312395 -0.21043229 0.2405708 -0.032596387 -0.0066760755
0.1843059 0.007177495 -0.098233074 0.074281335 0.23402496 0.11402352 -0.07503973 -0.32492492
-0.08047415 0.18503137 0.18640432 0.02448967 -0.32134625 -0.16941607 0.02838535 -0.22702396
0.8978889 1.3214097 1.954005 2.4499023 1.560323 0.20224531 -0.5364467 -0.10869817
0.009725423 0.67708045 0.47504857 0.3714774 0.44291437 0.088994026 -0.15971716 -0.22311975
-0.23771758 0.42256603 0.07050473 0.3263937 -1.0537758 0.66299635 1.095846 0.059113637
0.7178555 -0.3377282 -0.3245814 0.007103155 0.17252234 0.16379365 -0.08942845 0.40277734
-0.17447902 0.08499604 0.100090645 -0.28718635 -0.05354585 -0.055575777 0.72589105 -1.9725487
-1.1223782 0.123195626 -0.08985158 -0.24164326 -0.28441408 -1.605171 0.112289645 0.1892368
0.013833851 -0.5115075 0.21994713 0.0043282164 -0.30846193 -0.76269925 -1.0263149 0.9885238

lstm.weight_hh_l0 f4 [80, 20]
00000000: cd91 aabe 8ad7 0dbf 3c3c 80bf 4662 04bf
00000010: 09ae d7bd c44e 5dbf 7386 b03f e0ea e4bd
00000020: 4362 97be 01ac 743d a633 81bf 327b d63e
00000030: c1fc 843f b29d ec3e 4bb7 f8be ef4a e43d
00000040: dbb8 80bf 4a0a 63bf 1d46 4a3e b3ff 1d3f
00000050: d56b a93e 32f2 513f 3af3 d63e 4042 00bc
00000060: 8093 0abf a0fb 36bf de71 f1be 0a83 9abd
00000070: c5af b13f 9670 1c3f 8881 e0be 0563 9dbd
00000080: 8985 54bf 120a c33e a0c9 b2be 364e 4d3f
00000090: 3fc8 3dbf c18b 773e 14f0 13be 1c2d 123f
000000a0: 3892 13be 8b7d 303f af60 4f3f f90f 42bf
000000b0: 4185 46be 0ec2 30bf 1256 41bf 8332 92be
000000c0: b6f0 f03d 95cf b43f 5259 8dbf 423e 2ebd
000000d0: 9a0b e7bf 38ef 9b3f 5aa8 fabd 470e 143f
000000e0: d6e1 b63e b064 b63f 5ce3 813f 8532 903f
000000f0: 7fb9 29bc 3fe1 9d3f 1ee0 663f 9b92 e53f
00000100: 0daf acbf 2a74 9bbf 807e a3bf 7f29 093d
00000110: 4831 393e f7ca 533f 1e7d aebf ab30 f9bf
00000120: 9c8e 19bf 81e4 8fbf 9de0 09bf 8356 613f
00000130: 5250 283f d7a9 083f 9c7f 8f3d 53b1 8f3f
00000140: 6acc e23d 76b7 59bf a1df 123e e61a cbbe
00000150: 0150 bfbe 5a16 d7be f63a d4bd d457 51bf
00000160: b05b 643f 6f76 7d3e 651f b73e 3875 c53e
00000170: f557 aabf fd45 c83d 083a d0bd 4972 72bf
00000180: f7d6 683f 11c5 1fbf 4f76 2fbe 0ae6 973e
00000190: 9c6d 843e d935 123e 3eaa 253e 7b9d 59bd
000001a0: 9b86 0cbf cba5 a1be 40a8 8fbe 7cad 93be
000001b0: 4c50 9d3e a822 453e 781a e43c 3e83 fb3e
000001c0: 3efc a6bf 3ef4 143f 603c 0c3f b876 72be
000001d0: 72a0 ea3e dd4d ea3d c7cd 59bd b0d9 ed3e
000001e0: d3f1 b5bf 60e6 033f 2970 9ebe 4e62 e93e
000001f0: 2753 0cbd c2d4 863e 4836 bcbf fe95 893f
00000200: 2fe1 b3bd b096 3d3f fd4d 8abf 08fe acbc
00000210: 3697 0fbf 6d3b 84bf b322 2ebf 6d7b 9a3e
00000220: dc09 74bf 3f47 7f3e 5157 7cbf e7af 823f
00000230: 18f1 59bf d3a1 8fbf 2eae a0bf 9ef2 dcbf
00000240: ba25 5f3f 979b 08c0 f09f 4fbf 3bf9 bc3f
00000250: f525 fa3e 89fa 4ebf 3697 88bf 22ab c9bd
00000260: a98d 0b3f dff0 2f3f 1543 8d3f fd9b d0be
00000270: 026b 2fbf 1ade acbf 3683 89be 776f 2a3f
00000280: 082c af3e 5553 46bf 2e2b 8ebf 400b 98bf
00000290: 7a30 47bd df6b b3bf 0fe0 04bf 35c8 753e
000002a0: 6143 753d 7f53 91bf c40d 9fbf 0c83 3740
000002b0: df82 8c3f 3f79 9ebf ecc3 8abe d38f 02bf
000002c0: 16fc 05c0 3f70 1bbf 6202 993e 6d9e 91be
000002d0: 5e0d 8dbe f06f 9dbd bddf 823e e651 90bf
000002e0: 550f 3e3e 5876 813e e62a a1bd edf6 97bd
000002f0: 6d27 0b3f c8aa 9cbd 7580 9fbf c6e8 983f
00000300: bc0c 6e3f f634 703f 216d 9839 13b8 2dbf
00000310: 9b39 963e 8676 54be ec65 90be 7a26 bc3f
00000320: fb66 383f 7f72 ab3e e5c7 663e e7d9 bf3d
00000330: 3674 9f3f 0586 f5bd dbf2 b1be ad41 6f3f
00000340: 58fc f2be 62f5 eabe 232f 02c0 452f 30bf
00000350: a86c 0ebf 3c96 22be f777 e1be 7445 6ebe
00000360: e366 80be 3ca8 3abf a6c9 babe e403 d13d
00000370: 96da 6bbe ed77 eabe c5c9 ad3e 1ec4 943f
00000380: 7785 5bbe fc51 873e 1b2b 12bf cebc 86bc
00000390: a201 013f f342 513f a7ca 133e cc05 6140
000003a0: 1ce2 ab3e 83c3 11bf f492 e83e 7b25 2fbf
000003b0: 2ee7 63be 0fb8 023e 1d1c 5f3f 500e 1ec0
000003c0: ddc3 ecbe bace 053f f5ee 67be bdc4 423d
000003d0: 654e 71be 1f1a 0ebe 205a 79bf 7397 30bf
000003e0: 526d 22be a517 be3e 63d1 813c d9bd 993f
000003f0: aee7 c3bf 53b5 ad3f 0110 153e 7d7c 663e
-0.33314362 -0.5540701 -1.0018382 -0.51712453 -0.105312414 -0.8644831 1.3791031 -0.11177611
-0.29567155 0.05973435 -1.0093887 0.41890866 1.0389634 0.46214062 -0.4857734 0.11147105
-1.0056413 -0.88687575 0.19753309 0.6171829 0.33090082 0.82010186 0.41982442 -0.007828295
-0.5413132 -0.714777 -0.47157186 -0.07544525 1.3881766 0.6110929 -0.43848825 -0.07684902
-0.8301626 0.3809362 -0.34919453 0.80197465 -0.74133676 0.24174406 -0.14447051 0.5710008
-0.14411247 0.68941563 0.810069 -0.7580562 -0.1938677 -0.69046104 -0.7552196 -0.28554162
0.11764662 1.4125849 -1.1042883 -0.042539842 -1.8050416 1.2182379 -0.12239142 0.57834285
0.35719174 1.4249477 1.014751 1.1265417 -0.010359167 1.2334365 0.90185726 1.7935365
-1.3490921 -1.2144825 -1.277298 0.03348684 0.18085206 0.82731575 -1.3631933 -1.9467977
-0.5998323 -1.1241609 -0.5385836 0.8802263 0.6574756 0.53384155 0.070067614 1.122599
0.11074145 -0.85045564 0.1434312 -0.3966896 -0.37365726 -0.4200924 -0.103628084 -0.8177464
0.89202404 0.2475221 0.3576614 0.38565993 -1.3308092 0.09778974 -0.101673186 -0.94705635
0.9095301 -0.62410074 -0.17134975 0.29667693 0.25864875 0.14278354 0.16178223 -0.0531287
-0.5489289 -0.31571802 -0.28058052 -0.28843296 0.30725324 0.19251502 0.027844653 0.49123567
-1.3045728 0.58185184 0.54779625 -0.236781 0.45825535 0.114406325 -0.05317476 0.46455145
-1.4214424 0.515234 -0.30944946 0.45582813 -0.034258988 0.26334196 -1.4704065 1.0748899
-0.08783185 0.74058056 -1.080505 -0.021117225 -0.56090105 -1.0330635 -0.68021697 0.3017229
-0.95327544 0.24929522 -0.98570734 1.0209931 -0.85133505 -1.122126 -1.2553155 -1.7261541
0.8716694 -2.1344965 -0.8110342 1.4763559 0.48857084 -0.80851036 -1.0671146 -0.09847094
0.5451303 0.68726915 1.1036097 -0.4074401 -0.68522656 -1.350528 -0.26857919 0.6657633
0.3421328 -0.77470905 -1.1106927 -1.1878433 -0.048630215 -1.4017295 -0.51904386 0.24002154
0.05987871 -1.1353606 -1.2426076 2.8673735 1.0977439 -1.2380751 -0.27102602 -0.5100071
-2.093511 -0.6071815 0.2988463 -0.28441182 -0.2754926 -0.07687366 0.25561324 -1.1274993
0.18560536 0.25285602 -0.0786951 -0.07420144 0.54357034 -0.076497614 -1.2461077 1.1946037
0.9298818 0.9383081 0.00029073007 -0.67859 0.29340824 -0.20748338 -0.2820276 1.4699242
0.72032136 0.3348579 0.22537191 0.093677334 1.245734 -0.11988453 -0.34755597 0.9345959
-0.47458148 -0.45890337 -2.034127 -0.6882213 -0.55634546 -0.15877622 -0.44036838 -0.23268682
-0.25078496 -0.72912955 -0.3648197 0.1020582 -0.23032603 -0.4579462 0.33943 1.162235
-0.21437632 0.26429737 -0.57097024 -0.016447451 0.50393116 0.8174278 0.14432774 3.5159788
0.33570945 -0.5693895 0.45424616 -0.68416566 -0.22256157 0.12765525 0.8715227 -2.4696236
-0.46243182 0.52268565 -0.22649749 0.047550905 -0.23565061 -0.13877152 -0.97403145 -0.68981093
-0.15862015 0.37127414 0.015846914 1.2011062 -1.5305078 1.3570961 0.14556886 0.22508426

lstm.bias_ih_l0 f4 [80]
00000000: 2626 2b3f f07f dcbf ceba 0bbf 9caf 7d3e
00000010: f4b4 60bf d608 83bf 3c2c f8bd 37f7 203f
00000020: b82c e93e a1a0 50bf dae6 26bf 13fd 343e
00000030: 7bb4 30bf c6b0 973d 13e1 7dbf d847 97bf
00000040: 273d 15bf 2b43 cbbf c342 9ebd 9dad b5bf
00000050: 1c29 cebd 7401 86bf 456b 50bf 5b23 373e
00000060: 7faf 7a3e 12f1 c3bd 358c 8abe 5d2f cbbe
00000070: 6be0 8a3d 802c eebe 7772 113e 96db 4c3e
00000080: 89ba 9abe f5a2 21bf a1ff 813e ffec 5abf
00000090: 3ad9 be3e 2320 fdbf 7b04 b8bd 540d 7e3f
000000a0: 894d 2fbf 3cbd ddbe 2218 743e a3d2 23be
000000b0: d447 773e 0238 d33c 73dc cf3e 603c 933f
000000c0: bd02 1abf 8c7b 9dbe b66c 653f c43a 493e
000000d0: 2a8e 683d 5427 65bf 8f81 8ebf 5f5a 89bf
000000e0: 116c 0d3f c790 9bbe 8849 87bf 7631 22bf
000000f0: ce1f f03e 8e16 75bf 5648 09c0 ed25 76bf
00000100: e7a1 26c0 de04 323f a20c aa3e 2117 c53e
00000110: 65d0 313d caec 2cc0 7d20 1fbe 12f5 eabe
00000120: 1acf f7bf f59f 86bf 9786 7ebf 9c81 63c0
00000130: 08fe dabf 3cca 1ec0 6b2f 95be 028d b93e
0.66855085 -1.7226543 -0.54581916 0.24774021 -0.8777611 -1.0237072 -0.12117812 0.6287722
0.4554193 -0.814951 -0.65196 0.17674665 -0.6902539 0.07406764 -0.9917156 -1.18188
-0.58296436 -1.5879873 -0.077275775 -1.4193608 -0.10066435 -1.0469193 -0.8141368 0.17884581
0.24481009 -0.09567465 -0.27060094 -0.39684573 0.067810856 -0.46518326 0.14203821 0.2000564
-0.3022044 -0.6313928 0.25390342 -0.8551788 0.37275106 -1.9775432 -0.089852296 0.9923909
-0.68477684 -0.43308437 0.23837331 -0.1599832 0.24148494 0.025783543 0.40597877 1.15028
-0.6016043 -0.3075832 0.89619005 0.19651324 0.056776203 -0.89513135 -1.1133288 -1.0730704
0.5524302 -0.30383894 -1.0569315 -0.6335672 0.46899265 -0.9573754 -2.14504 -0.9615162
-2.6036317 0.69538677 0.33212763 0.38494208 0.04341163 -2.7019525 -0.15539737 -0.458901
-1.9360077 -1.0517565 -0.9942412 -3.5547857 -1.7108774 -2.4810934 -0.2913774 0.36240393

lstm.bias_hh_l0 f4 [80]
00000000: 78a0 da3e dcad b9bf f773 e4be 75d1 ae3e
00000010: 60dd 43bf 97bc 86bf 13a6 8c3e bc2c dd3e
00000020: 5b3d 303f f5ab 46bf 373d 12bf 2330 963d
00000030: 465d 5ebf 0cc2 543d 49a8 56bf a39f 98bf
00000040: a017 d8be 0e76 cebf bb3d f53d a388 c2bf
00000050: 458c 4740 02a4 0040 6d12 1140 64b9 5440
00000060: 148f 4c40 b6a9 4340 9cdd 3340 96a4 3340
00000070: ea2a 4740 695e 2440 6f89 4340 6740 5840
00000080: 8c0a 2040 d59e 2540 3f65 5640 a504 0340
00000090: e091 5440 0140 9e3f 7e0e 4840 6396 7540
000000a0: 43c3 64bf bc02 f5be 20f3 aabd 8598 843d
000000b0: 0000 cd3e 96d8 bd3a 6a32 df3d e470 623f
000000c0: 4df1 70be 4f05 e1bc cc1b 3c3f c4c4 313d
000000d0: 622c a13e 94f7 1ebf bd18 59bf 23aa 84bf
000000e0: 81dd 353f 65e9 89be 1b89 a3bf 1dfd ffbe
000000f0: ef7e 353f 9132 42bf 7c8d 1cc0 7de1 89bf
00000100: 0cf5 1dc0 0feb 3d3f d9e5 053f 2be1 033f
00000110: bc54 c63e b3d7 19c0 131c 2d3e a1f7 f8be
00000120: 9cd3 e9bf abe3 92bf a3b3 22bf c143 51c0
00000130: 57ec f7bf f55f 14c0 49fa b6bd 3ef0 36bc
0.42700553 -1.4506183 -0.44619724 0.34144178 -0.76509666 -1.0526303 0.27470455 0.43198192
0.6884362 -0.77606136 -0.57124656 0.073334 -0.86861074 0.05194287 -0.8385053 -1.1923717
-0.42205524 -1.6129777 0.11974665 -1.5197948 3.1179364 2.0100102 2.2667496 3.3238153
3.1962328 3.0572333 2.810401 2.8069205 3.1119943 2.5682623 3.0552633 3.3789308
2.5006437 2.5878193 3.3499296 2.0471585 3.3214035 1.2363282 3.1258845 3.8373039
-0.89360446 -0.4785365 -0.08347154 0.06474403 0.40039062 0.0014484103 0.108982876 0.8845351
-0.23529549 -0.027468352 0.73479915 0.04340054 0.31479174 -0.62096524 -0.8480337 -1.0364422
0.71041113 -0.26935878 -1.2776216 -0.49997798 0.7089681 -0.7585841 -2.4461355 -1.0771939
-2.4680815 0.74186796 0.52303845 0.51515454 0.38736522 -2.4037902 0.1690524 -0.48626426
-1.8267703 -1.1475729 -0.63555354 -3.2697604 -1.9369 -2.3183568 -0.08934457 -0.011165677

head.net.0.weight f4 [1, 20]
00000000: 012d f4bc 2682 02c0 e6bb 03c0 e39e 03bf
00000010: 78b5 cf3f aba0 ebbf efcc 9abd f267 90bd
00000020: 5eec 913c 56cb fdbf 4ae8 2cbf 8a31 043f
00000030: bbf0 f93f 95d9 d53e e047 f83e a857 3dc0
00000040: 8885 f4bf acb5 10c0 b085 ec3e 79ed 903e
-0.029806616 -2.0391936 -2.0583434 -0.51414317 1.6227255 -1.8408407 -0.07558619 -0.07051076
0.017812904 -1.9827678 -0.67541945 0.5163809 1.952659 0.41767564 0.48492336 -2.958475
-1.910325 -2.2610884 0.46195745 0.28306177
