Project-Run/run_cudalstm_base_model/model_epoch029.pt (torch, 19526 bytes, 5 tensors)

lstm.weight_ih_l0 f4 [80, 33]
000000 9e bc 3a be bf a1 c6 3c f7 9c cc bf 89 66 8c bf
       -0.18236014 0.024247048 -1.5985402 -1.0968791
000010 5b bf 46 40 b3 9e 1e 40 d5 3f ca be 88 40 39 3f
       3.1054294 2.4784362 -0.39501825 0.7236409
000020 e2 bf 7b c0 e1 37 fc bf 9c b3 8b 3f dc 70 17 bf
       -3.9335866 -1.9704553 1.0914187 -0.59156585
000030 d8 7f 41 40 ac 32 a5 bf 61 9c 24 c0 ff e7 a2 be
       3.023428 -1.2906089 -2.5720446 -0.31817624
000040 4f 04 7f bf 78 27 c3 bf 1f 8a 5d 3d 91 92 94 c0
       -0.9961595 -1.524642 0.0540868 -4.6428914
000050 31 6a 90 c0 0b 4a 3a bd 30 4e 04 c0 d2 b0 36 40
       -4.512963 -0.04548077 -2.0672722 2.8545423
000060 36 6b c4 40 b9 73 8b 3f ab b2 6b bf da 24 a7 3f
       6.1380873 1.0894691 -0.920695 1.3058121
000070 96 08 db 3f da 10 a5 bf 1c e3 bb bd 9f fc 23 3f
       1.7111995 -1.2895768 -0.09174177 0.64057344
000080 ad 3d 0a 40 a4 52 86 3d 35 05 3a bc 95 2f 92 3e
       2.1600144 0.06558731 -0.0113537805 0.28551927
000090 b6 cb 80 be 06 dd b8 bf 74 22 59 40 69 1f ed be
       -0.2515542 -1.4442451 3.3927279 -0.46313027
0000a0 ad c8 c6 bd df 8d 2a 3f ce e1 14 40 b0 c0 d7 3e
       -0.097062446 0.6662273 2.326282 0.42139196
0000b0 3a 9e 2f 3e 11 0f 12 3a 4e c9 ce 3c 4a 58 2a be
       0.17150202 0.0005571703 0.025242474 -0.16635242
0000c0 dd 7a a7 be bd 20 76 bf e2 28 f3 be 6d 58 e4 be
       -0.32710925 -0.96143705 -0.4749213 -0.44598714
0000d0 75 1c 61 be 7e a1 95 3f 01 91 d7 3e 88 28 67 3f
       -0.21983512 1.1689909 0.42102817 0.9029622
0000e0 8d 58 a1 3e fa e6 2a 3f 65 d9 a5 be 08 86 48 bf
       0.3151287 0.6675869 -0.3239242 -0.78329515
0000f0 3e c5 87 3e ba 9b 18 3f 8d ab 66 bc 6b 72 28 bc
       0.2651767 0.5961262 -0.014078987 -0.010281186
000100 cb 70 0e bf 75 3c 95 bf 3a e5 54 be 5d c7 34 be
       -0.5564086 -1.1659075 -0.20790568 -0.17654176
000110 8f 10 56 3e 91 29 81 c0 dd ba c9 c0 fb ec ad bf
       0.20904754 -4.036324 -6.3040605 -1.3587946
000120 97 37 20 c0 50 01 52 c0 7e 1f 30 c0 d1 97 68 c0
       -2.503393 -3.28133 -2.7519221 -3.6342661
000130 8d cb 88 bf a0 49 e9 bf 4c ef c6 40 07 db 7c bf
       -1.0687119 -1.8225594 6.216711 -0.9877171
000140 a0 68 85 3f af cb d8 3f ec 63 2b 3f 34 53 5b bf
       1.0422554 1.6937159 0.66949344 -0.8567383
000150 7a 69 c8 3f fb f1 ba 3e f6 b1 96 bd c9 43 6e 3f
       1.5657189 0.3651274 -0.07358162 0.9307218
000160 52 eb 83 be be f3 98 bd f1 1c 0f 40 a1 27 7c c0
       -0.25765473 -0.07468365 2.2361414 -3.9399188
000170 9b 05 bb 3f 8b 27 75 3f 81 1a 8e 3f dd 68 6e 3f
       1.4611086 0.9576346 1.1101838 0.9312876
000180 9b 18 f7 bf 4d de 48 bf 78 c9 ef bf 21 f1 80 bf
       -1.9304384 -0.78464204 -1.8733358 -1.0073587
000190 72 1a d6 c0 13 d4 d0 bf d4 d6 d3 bf 70 26 6e c0
       -6.690728 -1.631472 -1.6549935 -3.721096
0001a0 45 e2 6d c0 15 87 fa bf d2 71 89 40 24 25 2f be
       -3.7169354 -1.9572474 4.295144 -0.17104012
0001b0 ba 2c b5 3f 5b 05 a1 bf c2 5a 78 3f 7e 6d 7b 3f
       1.4154274 -1.2579759 0.97013485 0.98213947
0001c0 9f 66 07 40 dd 5a ae bf f5 6f 2f 40 78 4c 10 bf
       2.1156385 -1.3621479 2.7412083 -0.5636668
0001d0 3a 75 3e c0 31 11 18 40 32 24 10 40 1b 42 04 be
       -2.975905 2.3760493 2.2522092 -0.12915842
0001e0 97 3b 73 3e 95 ea a6 3f fd 75 0c 40 73 cc 29 3f
       0.237532 1.3040339 2.1947014 0.6632759
0001f0 53 f0 14 c0 75 84 d4 3e e5 bd f6 3f ed e1 5d 3f
       -2.3271682 0.41507307 1.9276701 0.8667286
000200 54 45 71 3f 99 25 f2 be 0e ed 49 bf 42 26 e5 3d
       0.9424641 -0.4729431 -0.7887734 0.11188938
000210 09 c9 f8 3d 90 5a 5e 40 d5 42 04 be 30 99 a9 3f
       0.121477194 3.4742775 -0.1291612 1.3249874
000220 a1 00 60 3f cf 64 10 40 e4 25 4a 40 ef e3 ab 3f
       0.8750096 2.2561529 3.1585627 1.3428935
000230 4f ac 92 bf 95 98 8e bf 75 e4 ec bc 8d f6 06 3e
       -1.1458834 -1.1140314 -0.02891753 0.13179989
000240 ae b9 2c 3f 96 94 ad 3f 95 29 4a c0 b1 e8 d3 bf
       0.67470825 1.356097 -3.158788 -1.6555387
000250 07 78 d7 3e e4 9f d4 bf 85 62 5e 3f f3 f0 48 bf
       0.4208376 -1.6611295 0.8686908 -0.7849266
000260 db ed 45 3f a4 ee df 3f bc 01 9d bd 88 d7 60 bf
       0.77316064 1.7494702 -0.076663464 -0.87828875
000270 be 6a 0d 3f f0 8a 34 bf 29 b0 41 c0 10 09 9a bd
       0.55241 -0.705245 -3.026377 -0.0752126
000280 94 b9 50 3f b7 b8 db bd be 56 63 c0 8d 83 3e 3e
       0.8153317 -0.10728591 -3.5521693 0.1860487
000290 fa 26 19 3f c9 f0 86 3e a4 d0 b0 3c ad e1 cd 3e
       0.598251 0.2635558 0.021583863 0.4021124
0002a0 9a 33 a4 3d ad e5 6e 3f ea d8 12 3f 68 1e c2 be
       0.08017655 0.9331921 0.57362235 -0.37913823
0002b0 ca 02 43 be 8d 0a 4d 3f c0 1c f4 3d 6a 44 eb bc
       -0.19044033 0.80094224 0.11919546 -0.028719146
0002c0 8e fa ab be 70 98 5d bd 7b 9d 12 bd f0 24 0a be
       -0.33589596 -0.054100454 -0.035794716 -0.13490653
0002d0 05 b5 ce bc 4e da 94 bd d9 70 16 be ad af 7d 3e
       -0.025232801 -0.07268201 -0.14691485 0.24774046
0002e0 1f a7 aa 3e 34 c4 7a be f3 5d f1 3d 3b 8f 72 be
       0.33330628 -0.24488908 0.117854975 -0.2368745
0002f0 ae 49 0e 3f 88 dc 9a 3e ab 5e 9b be 79 ca 5e bf
       0.55581176 0.30246377 -0.30345663 -0.870277
000300 23 aa 8f bc 8b 07 93 3e 1a d6 7d 3d ee 32 42 bd
       -0.017537182 0.28716692 0.06197176 -0.04741185
000310 33 ab 18 bf 13 82 34 bf 35 86 19 c0 da 1a 48 bf
       -0.5963623 -0.7051098 -2.3988163 -0.7816597
000320 3f 89 7f 40 94 c0 80 40 e2 41 3b 40 f4 95 63 40
       3.9927518 4.023508 2.9258962 3.5560274
000330 71 17 b4 40 1b 0b 49 3e 49 f7 b5 bf 90 ea 77 c0
       5.6278615 0.19633143 -1.421609 -3.8736916
000340 5e 6f f9 be 4e 97 28 40 df ce 26 40 41 ca 42 be
       -0.4871778 2.634235 2.6063764 -0.19022466
000350 3e 01 b0 40 ec da 45 bf c6 82 a7 3f 63 4c 4f c0
       5.5001516 -0.77287173 1.3086784 -3.2390373
000360 4a ec 01 be a6 91 2a 40 51 79 30 40 09 38 0e 3f
       -0.12687793 2.6651397 2.7574046 0.5555425
000370 44 2e 62 bf 40 86 0a 40 a7 f9 4e 40 d1 01 f3 3f
       -0.88351846 2.164444 3.2339876 1.8984929
000380 fb a9 ed 3f 22 69 b4 bf 5d 3e 21 40 f2 35 2c 3e
       1.8567499 -1.4094584 2.5194314 0.16817454
000390 90 4f ba 3f e9 1e 3d 3e 67 8c 2e 3f 95 21 90 40
       1.455553 0.18468823 0.68182987 4.5040994
0003a0 ac 50 16 40 05 c9 17 3f e0 4c 91 be 9b 24 70 c0
       2.3486738 0.59291106 -0.28378963 -3.7522342
0003b0 e7 53 ca 3f df a4 df 3f 91 11 c0 be 85 b0 97 bf
       1.5806855 1.747219 -0.37513402 -1.1850744
0003c0 4e de 1e c0 60 3d fa be 08 91 6d 3f 21 5a fe bf
       -2.4823184 -0.4887495 0.92799425 -1.9871255
0003d0 05 a6 91 be 5f 39 55 c0 45 f2 9b bf d2 47 97 3f
       -0.28446975 -3.3316267 -1.218331 1.1818793
0003e0 be 8d 77 bf 53 c2 31 c0 73 4b aa 3f 9a d8 05 40
       -0.96700656 -2.7774856 1.3304275 2.0913453
0003f0 9b 0a 9f bf 72 4f 07 c0 d2 89 8b c0 8b 3d 44 3f
       -1.2425112 -2.114224 -4.360574 0.7665641

lstm.weight_hh_l0 f4 [80, 20]
000000 f2 1d f4 3f 54 db ca 3e 15 8a 2d 40 5a 0b b8 3e
       1.9071639 0.3962046 2.7115529 0.3594616
000010 45 2e 13 c0 22 f2 84 c0 2a 5c b8 40 67 f0 5b 3f
       -2.299699 -4.154557 5.7612505 0.859137
000020 92 68 57 3f 29 13 45 3f e9 7e 44 40 48 a2 ef be
       0.84143937 0.7698236 3.070246 -0.46803498
000030 af cd 32 bf bd b0 08 c0 14 37 69 bf 0a eb 6a 40
       -0.698451 -2.1357872 -0.9109967 3.6705956
000040 9e 0b 91 3e 13 d3 e1 bc 8d 35 34 3f 10 47 2d 40
       0.28329176 -0.027566468 0.7039421 2.7074623
000050 ca 6c f5 3e 61 f5 e6 3f f1 84 df be 74 61 8f bf
       0.47934562 1.8043634 -0.43656114 -1.1201615
000060 0c 5e f7 3d 7a 63 71 bf fb 2c 4e bf 48 f1 ed 3e
       0.12078485 -0.94292414 -0.80537385 0.46473145
000070 08 52 a2 3f ff ff e4 be 72 58 99 bf 9d a1 98 be
       1.2681284 -0.4472656 -1.1980116 -0.298108
000080 df 4e 0c 3e db 0f 26 3f 45 0b 22 bf fc 5e d0 3d
       0.13701962 0.64867944 -0.63298446 0.10174367
000090 35 06 dd be af 74 82 bf ee ce 45 3f 0a 7a bf 3f
       -0.43168798 -1.0191859 0.77268875 1.4959118
0000a0 30 fa 6b bf db c7 76 40 85 08 c4 40 88 a0 5b c0
       -0.9217863 3.8559482 6.12604 -3.431673
0000b0 71 64 04 3f e1 0a 63 bf bd 8f 4d bf 8a 4e c4 3f
       0.5171576 -0.88688475 -0.8029745 1.5336468
0000c0 6b 96 27 3f 89 1b 47 3f cb cb 45 c0 36 bc f7 3e
       0.65463895 0.7777639 -3.0905635 0.4838578
0000d0 74 a6 37 c0 7a 07 b6 40 96 0b 93 3e 99 a6 85 3f
       -2.8695345 5.6884127 0.28719777 1.0441467
0000e0 fa 66 ad 3f b1 ae 31 40 14 9b 6c 40 ce de 28 40
       1.3547051 2.7762873 3.6969652 2.638599
0000f0 ba e9 1e bf 38 f5 b5 be 0f 15 14 40 bd 22 db 40
       -0.6207539 -0.3553865 2.3137853 6.8479905
000100 bc 78 52 c0 70 2a 99 c0 e1 4a ae bf 52 2d 81 40
       -3.288619 -4.7864304 -1.3616601 4.0367823
000110 4a 76 10 3f 8d dc 6f 3e b1 85 b2 c0 ab ec 14 c0
       0.56430495 0.23423977 -5.5788198 -2.326945
000120 d3 84 e1 c0 ee 1f a9 3f f0 d1 bc 3e a2 7c 08 3f
       -7.047464 1.3212869 0.3687892 0.53315175
000130 3d 79 44 c0 f8 65 4b 40 0f 53 d6 3f a1 45 dc 40
       -3.0698998 3.1780987 1.6744097 6.8834996
000140 27 d0 51 c0 4a 04 ea 3f c6 74 b4 3e 5d 90 82 3d
       -3.2783296 1.8282559 0.3524534 0.06375191
000150 8b 95 37 bf 29 6a 0a 40 71 ad dc bf 2b a9 7f 3e
       -0.7171256 2.1627295 -1.724043 0.24966876
000160 63 78 9d 3f 71 5e 83 40 ff 80 72 3f 5a bc 1e bf
       1.2302364 4.1052785 0.9472808 -0.6200615
000170 99 64 08 c0 b3 fb 20 c0 12 9a fe 3e 69 80 50 40
       -2.13114 -2.5153625 0.4972692 3.2578375
000180 68 ec 98 40 80 98 f7 3e a1 f7 1c c0 aa 24 2c 3e
       4.778858 0.48358536 -2.452614 0.16810861
000190 9b 03 2e 3f 82 c3 ee bd f4 ac b0 3d 0e 8c 53 bf
       0.6797425 -0.11658384 0.08626738 -0.8263558
0001a0 7b d7 bd bf 40 15 d3 3f 72 e8 bf be 2c 8f 62 bf
       -1.4831384 1.649086 -0.3748203 -0.8849971
0001b0 29 88 52 3f d8 95 74 40 6f 55 1e bf 41 7d 92 3f
       0.82239014 3.8216457 -0.6184911 1.1444474
0001c0 8a 22 e5 3e 86 a1 81 3f 15 55 29 3f 38 ac 96 3f
       0.44752914 1.0127418 0.6614545 1.1771307
0001d0 41 d2 60 bf fb 91 e5 3e d6 db cf 3f 96 39 c9 3f
       -0.8782082 0.44837937 1.6238964 1.5720699
0001e0 7a 21 86 be 2e 26 1f bf d2 5d d7 3f ad 04 ce 3e
       -0.26197416 -0.6216763 1.6825507 0.40237942
0001f0 84 03 9e 40 74 81 59 40 3c 49 c7 3f 34 35 19 3f
       4.937929 3.3985262 1.5569224 0.59846807
000200 ea 17 6c bf c5 13 4a 3f f2 56 22 3e 1f 47 b7 bd
       -0.9222399 0.78936416 0.1585348 -0.08949112
000210 6b 78 17 3d 98 c7 14 c0 d5 c3 84 be 21 01 56 c0
       0.036980074 -2.3246822 -0.25930658 -3.343819
000220 80 be 94 c0 07 2d 51 bf ee 9d 1c c0 76 b2 7a 3f
       -4.6482544 -0.8170933 -2.4471393 0.9792856
000230 29 cc 0e bd 0d 2f fc bf 42 ed 0d c0 eb 8f 03 be
       -0.03486267 -1.9701859 -2.217606 -0.12847869
000240 cc 2b cf 40 e3 e3 02 c1 55 6d 90 c0 12 93 21 c0
       6.4740963 -8.180636 -4.513346 -2.5246015
000250 1c a4 35 40 61 2b 89 bf c2 14 7d c0 18 5e dc bf
       2.8381414 -1.0716363 -3.954392 -1.7216215
000260 df 47 fa 3e 4b bb 98 40 42 0f 11 40 67 d7 bc c0
       0.48882958 4.772863 2.2665563 -5.901294
000270 50 a2 11 bf 83 b3 51 3c 48 af 0a 40 c4 3b 46 40
       -0.56888294 0.012799147 2.1669483 3.0973978
000280 c2 14 87 3f 8a 6e 97 3f 9b db 3f c0 b9 39 96 c0
       1.055321 1.1830609 -2.9977787 -4.694546
000290 77 04 58 40 d3 2c 87 c0 5e 47 39 40 4e ac f5 bf
       3.3752725 -4.2242217 2.894981 -1.9193208
0002a0 f3 a4 81 40 59 00 32 bf c1 ba f6 bf d0 56 c7 40
       4.0513854 -0.6953178 -1.9275743 6.229347
0002b0 a4 87 00 c0 9a 22 89 3f 72 67 47 40 ec 6c d1 bf
       -2.0082788 1.0713685 3.1156888 -1.6361365
0002c0 ef c7 91 c0 b0 42 c5 bf 4b ef 94 40 7c 5d 95 3f
       -4.555656 -1.5410976 4.6542106 1.1669154
0002d0 19 96 4a bd 9c 24 7d c0 60 ab 10 3e 8f ab 35 c0
       -0.04945955 -3.9553595 0.14127874 -2.838596
0002e0 6a 4b 4c 40 2a 00 ab bf b2 4f 4b 3e 41 56 8e bf
       3.192103 -1.3359425 0.1985462 -1.1120073
0002f0 67 6c eb 3f b2 6a b3 3f 51 93 1e c0 3d 33 b4 3f
       1.8392457 1.4016936 -2.4777415 1.4078137
000300 a1 ff 64 bf 13 fe 35 40 af 2b 85 3f c0 58 78 c0
       -0.8945256 2.8436325 1.0403956 -3.8804169
000310 da c6 27 40 0f df 17 c0 4e 1e 0f 40 00 c5 61 40
       2.621512 -2.3729894 2.2362247 3.527649
000320 d6 c7 82 bf 2a 30 ad 40 55 9c 38 3f fb 19 10 c0
       -1.0217235 5.4121294 0.72113544 -2.2515857
000330 e1 3f 3a c0 8e 31 96 be c0 54 20 c0 6d fc 81 3f
       -2.9101489 -0.29334682 -2.5051727 1.0155159
000340 5c b1 69 c0 44 26 f7 3e fa 36 79 c0 2b 83 86 3f
       -3.6514502 0.48271382 -3.8939805 1.0508779
000350 ea b3 65 3f 8a fc 95 bf 01 c5 7d 3f 9e 2a 21 c0
       0.8972765 -1.1717694 0.9912873 -2.5182261
000360 aa 04 8a 3f 33 f3 c0 3f a3 01 84 c0 84 21 5c bf
       1.0782673 1.5074219 -4.1252 -0.8598864
000370 d2 7f a1 bf 82 e9 73 c0 0b 74 52 3f 24 8f 00 c0
       -1.2617133 -3.8111272 0.8220832 -2.0087366
000380 c1 e6 de 3f 62 45 01 c0 70 f9 d8 3f 10 ef 9c c0
       1.741417 -2.0198598 1.6951122 -4.9041824
000390 c6 01 a3 bf 7b 8e 79 3f 4c 70 81 bf 44 dd ef 40
       -1.2734916 0.9748303 -1.0112395 7.49576
0003a0 0f b1 37 3f 6b 6a 14 c0 60 74 ef 3e 6a 86 64 40
       0.71754545 -2.3189952 0.46768475 3.570704
0003b0 82 1c aa 3b 59 81 a6 bf ae 35 a8 3e 35 7b 7e c0
       0.0051913867 -1.3008224 0.32853454 -3.97627
0003c0 8a 1a fe 3f e8 09 44 be 38 25 69 3f 47 ee 13 c0
       1.9851849 -0.19144404 0.91072416 -2.3114183
0003d0 07 2a 47 c0 03 6e 3d 3f 0a 6f f3 bc 1d 6a 8c bf
       -3.1119401 0.7399599 -0.029716033 -1.0969883
0003e0 f4 11 a7 3f a2 8c 18 40 ad 4f 1f 3e 45 ea b6 3f
       1.3052354 2.3835835 0.15557738 1.4290243
0003f0 83 5c 37 c1 f9 ee 56 3d d2 4c 48 3f cd d6 64 c0
       -11.460086 0.052473996 0.7824222 -3.5756104

lstm.bias_ih_l0 f4 [80]
000000 ac e7 dd 3f f2 a0 26 c0 12 66 4a bf 31 42 90 bf
       1.7336326 -2.6035733 -0.79061997 -1.12702
000010 3b ba 3b 3c a5 8d 8f bf c1 9c a7 3f 09 3a 86 be
       0.011457975 -1.1215101 1.3094712 -0.26216152
000020 6c d4 37 3c 22 2e 24 c0 75 a1 06 bf a7 27 4a 3f
       0.011220079 -2.5653157 -0.52590114 0.78966755
000030 12 17 f9 bf 59 95 13 be 39 07 c9 bf ec 59 4c c0
       -1.9460166 -0.1441244 -1.5705329 -3.1929884
000040 fa 3a 24 bf f2 05 9e c0 5a 72 4e 3f 9a ec c3 bf
       -0.6415249 -4.9382257 0.80643237 -1.530658
000050 aa ab ad 3f 3a 9f 2e bf f3 df 0b c0 01 46 bd bf
       1.3568013 -0.6821171 -2.1855438 -1.4786988
000060 5e 85 ef 3f 2b c6 7a 3d be cf 82 bf 75 29 90 3e
       1.8712575 0.061224144 -1.0219648 0.2815663
000070 64 f4 d3 3e 01 e5 64 c0 3e 90 23 bf 63 34 74 3f
       0.41397393 -3.5764773 -0.6389197 0.95392436
000080 2a 0c ae bf 58 59 c4 bf 79 7c dc be ed 4f 20 c0
       -1.3597462 -1.5339766 -0.43063715 -2.5048783
000090 c7 12 ac 3e 41 af d2 c0 68 54 71 3f 63 0a db 3f
       0.33608076 -6.5838933 0.9426942 1.7112545
0000a0 58 01 1a c0 4d 87 67 c0 cf a5 b4 bf 0d 32 44 3f
       -2.406332 -3.617633 -1.4113101 0.7663887
0000b0 6f ba 10 40 5c 9d 04 c0 94 e1 68 40 fb 2d 9a 40
       2.261379 -2.0721045 3.6387682 4.818113
0000c0 70 4a 62 c0 da 08 2c bf 34 d2 02 40 20 95 79 bf
       -3.5357933 -0.67201006 2.0440798 -0.9749317
0000d0 cc 61 93 3f 5b 51 81 c0 7a 67 99 c0 40 a0 aa bf
       1.151422 -4.041181 -4.7938814 -1.3330154
0000e0 b4 b3 7e 3f c7 29 cf bf a6 87 a3 c0 0f 7b f6 3d
       0.99492955 -1.6184624 -5.1103086 0.1203519
0000f0 38 ad d6 3f 17 f9 26 bf 5f c9 f8 c0 4e 0e 5c c0
       1.6771612 -0.6522383 -7.7745814 -3.438373
000100 57 2e ac c0 0d f7 34 40 26 f6 82 3f 95 1d 06 bb
       -5.3806567 2.8275788 1.0231369 -0.002046441
000110 27 cc c8 be 30 60 cc c0 0a 45 86 bf a6 85 05 c0
       -0.39218256 -6.3867416 -1.0489819 -2.0862823
000120 24 c7 67 c0 d5 04 d9 bf 18 8f 99 bf 4e 80 fc c0
       -3.6215296 -1.69546 -1.1996794 -7.890662
000130 bc dd 88 c0 86 93 b2 c0 69 56 17 40 60 68 01 40
       -4.277067 -5.580508 2.364649 2.0219955

lstm.bias_hh_l0 f4 [80]
000000 87 fc be 3f d2 37 15 c0 29 e5 30 bf b9 43 84 bf
       1.4920815 -2.331532 -0.6909967 -1.0333167
000010 95 35 fe 3d 63 41 93 bf 58 49 da 3f 2a fd ea be
       0.12412564 -1.150433 1.7053633 -0.45896274
000020 2d 18 7a 3e f5 b0 21 c0 65 ef e3 be 35 ae 2f 3f
       0.24423285 -2.5264256 -0.4451858 0.68625194
000030 bd f5 07 c0 d6 3c 2a be 02 6b b5 bf d8 05 4d c0
       -2.1243737 -0.1662477 -1.4173281 -3.2034817
000040 39 13 f6 be b1 d2 9e c0 30 71 80 3f a0 c7 d0 bf
       -0.4806154 -4.963219 1.0034542 -1.6310921
000050 dd 69 92 40 e1 fc 17 40 ab 34 65 3f ab 48 d5 3f
       4.575423 2.3748095 0.8953349 1.6662802
000060 4d 53 9a 40 11 b4 4d 40 26 c7 03 40 14 0f 5f 40
       4.8226686 3.2141154 2.05903 3.4852953
000070 b1 51 5d 40 62 04 0b bf 0b 8e 11 40 25 40 84 40
       3.458111 -0.5430356 2.2742946 4.13283
000080 f1 b7 b8 3f 2d b6 d7 3f 9d 95 2a 40 36 82 cb 3e
       1.4431134 1.6852471 2.6653817 0.3974778
000090 ec 38 52 40 01 af 57 c0 ae 11 85 40 99 cc 91 40
       3.2847242 -3.3700564 4.158408 4.5562253
0000a0 d3 5e 27 c0 eb 6f 6a c0 f4 d7 dd bf dc b9 7d 3f
       -2.6151626 -3.663081 -1.7331529 0.99111724
0000b0 f4 e5 1a 40 03 2c 06 c0 9e df 55 40 f0 ac 91 40
       2.4202852 -2.0964363 3.3417735 4.5523605
0000c0 e5 d8 4a c0 b7 a6 c8 be ae fb f0 3f f6 63 90 bf
       -3.1694882 -0.39189693 1.8826807 -1.1280506
0000d0 4b 68 b4 3f dd 16 71 c0 3f ea 90 c0 e5 ef a5 bf
       1.4094328 -3.7670205 -4.5285945 -1.2963835
0000e0 a2 92 93 3f f6 bf ca bf 84 97 aa c0 65 04 82 3e
       1.1529124 -1.5839832 -5.3309956 0.25393978
0000f0 d0 64 f5 3f 84 2a e8 be 13 36 01 c1 93 75 63 c0
       1.917139 -0.45344937 -8.075702 -3.5540512
000100 10 d8 a7 c0 b1 f0 37 40 f3 65 9b 3f 35 3d 03 3e
       -5.245125 2.8740656 1.2140487 0.12816317
000110 a3 8e 45 bd a0 d5 c2 c0 f0 7a 39 bf 00 46 07 c0
       -0.048231732 -6.0885773 -0.7245321 -2.1136475
000120 5f c9 60 c0 84 48 e5 bf 9e 4b 57 bf 44 61 f3 c0
       -3.5122907 -1.7912755 -0.8409976 -7.6056232
000130 45 19 90 c0 71 5e ad c0 66 44 24 40 87 ff d2 3f
       -4.5030847 -5.4177785 2.5666747 1.6484231

head.net.0.weight f4 [1, 20]
000000 3a b0 58 3c 01 23 06 c0 41 4b 28 c0 44 ba 2b be
       0.013225609 -2.0958865 -2.6295931 -0.16770273
000010 dd 8d ee 3f 38 95 70 c0 ea 3f 8f 3b f6 0d 0d 3c
       1.8637043 -3.7591076 0.004371633 0.008609286
000020 86 d8 dd 3b 5c 2e 32 c0 24 58 94 bd 35 8f 0f 3e
       0.0067701964 -2.7840796 -0.07243374 0.14019473
000030 df 80 1d 40 71 6e cc 3d 4d c7 b2 3c e0 1f a4 c0
       2.4609907 0.099820025 0.02182355 -5.128891
000040 cb f1 f1 bf 4a 8e 2f c0 a9 47 6b 3e 54 ca 2c 3e
       -1.8901914 -2.7430596 0.22976555 0.16874057
