Project-Run/run_cudalstm_gmm_model/model_epoch041.pt (torch, 40907 bytes, 8 tensors)

lstm.weight_ih_l0 f4 [80, 33]
00000000: 840c 2f3e 04db 5fbe c7f2 0f3e 74ce bc3e
00000010: e823 05be 09c0 c53e 6b3d 95be b849 e3bc
00000020: 2bcf 2cbe e902 2a3f 149d c0bd 226c 5ebe
00000030: c4ba ccbe c29b ca3e fddf d6bd c8a4 3abe
00000040: e8a2 9a3e 5c5a b5be 79ab c83e 2b77 863d
00000050: 55a9 9f38 b3ef 5a3e c8f4 82be a324 2dbd
00000060: ae1a 4c3e 5d63 063e 3d7b c5be 3f45 ec3e
00000070: 917c f13b ec50 a43e 0f0e 47bd 1dd2 e8bd
00000080: b89a 803e f6e8 473e 2704 883e e0d4 163f
00000090: 1994 e13c 2eb3 78be ec3c e53d 1a0f 31be
000000a0: d8e4 853d 2a8a 673e 24f3 fabe c802 90bd
000000b0: 6b16 df3c e915 4d3c 3bd6 dcbe dd71 6f3d
000000c0: af3e 22bf 7fa4 633d d15d 0fbe 7dff 0a3d
000000d0: 2789 433e ff24 7d3e bce6 a2be c7d1 b23d
000000e0: 637d 9cbd 9192 ecbe 3325 0b3e 9017 c2bd
000000f0: 157e 82bd 6a18 553f 44e8 c13e e94b 90bc
00000100: 14b6 9ebe ece3 fc3d 9181 5c3e e508 7fbe
00000110: 5253 de3d b01c 42be 797d 533e 896c 813d
00000120: b537 b7bd 626e 3d3f d108 603e 0d10 813f
00000130: 1f68 61be d9f7 133e 1ae3 103e f4a3 4bbe
00000140: 62a7 b33b 1f04 473f d3a8 1ebf e830 66be
00000150: f1d0 04bf 8724 803d 02f4 ae3e 78ac c6be
00000160: b7ba ff3e a582 89be 43e2 17bf ba9a 81bc
00000170: 1027 493e 4cc8 853d 1b21 983e 7338 bfbd
00000180: e538 923d 85ec 0dbe 59dd d13e ec11 353d
00000190: 71df f33d 20df 5d3e 2caf 8b3d 3886 943e
000001a0: f483 b13e f213 aa3c 7048 493d 775f de3e
000001b0: 1763 363e 68f5 703e d0da 0cbe a341 8e3e
000001c0: f7c8 5d3e 735d c53c dcf7 bf3d 139d 143f
000001d0: 1290 153e 5845 46be 465f 07bf 43c1 4a3e
000001e0: 2e3f 2bbd 3fb0 d03e 4c9d 86bb e37f 2d3c
000001f0: d414 87be c186 5abd 6609 52be 3d8f a9be
00000200: 73cc 383e cdc3 5cbd 9691 e93c 7011 293d
00000210: 500f 3bbf ec91 0ebd 4131 203f 9c14 3f3d
00000220: c618 0ebc b63e 03bf e178 32be a4c6 98bc
00000230: 9c29 ef3d c8ac 533b 3451 b6be f7db 98be
00000240: cc23 b03b 2615 c03d a828 b5be 9c0e f7bd
00000250: 0d80 aebe 07a5 833d 8b6f 6c3e a0f7 f5bd
00000260: 5157 463f 9fc3 d9be 474c be3d 52d6 783d
00000270: 5a43 22bf 8101 e93e 8f4b 22bb 68e4 e2bc
00000280: c19c 78bf d444 993e 8955 8a3d b237 5fbd
00000290: 82d5 233f a7dd 593d 7fae 7a3e 7dda 893d
000002a0: 26f5 80bd b8f8 27bd e35c 8dbb 440e 0d3f
000002b0: de69 62bc d48b 3fbe b9a8 563c 9dd7 ef3d
000002c0: 2e2a 4d3f 0810 063e 8b94 2fbe 3a55 5f3e
000002d0: d8b4 03bf 0300 8cbe 2d3c 823e 4684 cfbd
000002e0: 5832 9b3e bbfa abbe cf9f 7fbe 07a8 93bc
000002f0: ea37 073e d7e2 853e c7b6 0ebe bcdd 53be
00000300: 1c3f 10bf b1b7 4fbe c317 ac3e b745 9ebd
00000310: 736c 81be 743c 443e f6a0 f63d 17b9 da3c
00000320: f711 ea3d 0c75 223c 0b48 583e 4145 48be
00000330: 4f08 dd3e 850b 1abc 6a8d b93d 395f 23bd
00000340: 64a7 0c3e 3304 f23e c260 be3d f8b6 43be
00000350: e08c 2a3e 3964 a4be 76d5 a6be 04c8 9c3e
00000360: 56df 053e a242 9e3e a9b0 1cbe 4821 34be
00000370: 62d4 1dbd d9b5 6c3e c449 9f3e aa1c a8bd
00000380: 02fe 7abe b3f8 f9be 1cee d6bd 583c e83e
00000390: 2740 42bd f7d5 a0be 122a d03d ac16 8bbe
000003a0: d2b2 39bf 9e71 7abe c550 96be d6e0 013f
000003b0: 501e 03be a733 a73d ede7 33be f5da 0b3f
000003c0: 978c e0be 7f52 9f3d 062b 9ebc cabe 9b3d
000003d0: 91b2 68bf 86c9 c63e 3ce3 1e3e 3392 2a3e
000003e0: b697 0a3f 218c a93e e013 ee3c 815e bebd
000003f0: a44b 94bf 4184 043f 9e85 e23c be95 203f
0.17094618 -0.21860892 0.14057456 0.3687626 -0.13001978 0.38623074 -0.2914842 -0.027745113
-0.16875903 0.6641069 -0.0940496 -0.21720937 -0.3998624 0.3957196 -0.10491941 -0.18226922
0.30202413 -0.354205 0.39193323 0.06565698 7.6132514e-05 0.213805 -0.25577378 -0.042271268
0.19932052 0.13123842 -0.38570586 0.4614658 0.007369586 0.32092988 -0.04859739 -0.11368201
0.2511804 0.19522461 0.26565668 0.5891857 0.027536439 -0.24287102 0.111932606 -0.17290917
0.06537789 0.22611299 -0.49013627 -0.070317805 0.02723237 0.012517431 -0.43132195 0.058458198
-0.633769 0.055576798 -0.14000632 0.03393506 0.19095288 0.24721144 -0.3181666 0.08731418
-0.07641103 -0.4620557 0.13588409 -0.094771504 -0.063717045 0.8324038 0.37872517 -0.017614322
-0.3099829 0.1234816 0.215338 -0.24905737 0.10855736 -0.18956256 0.20653333 0.063195296
-0.08946172 0.73996556 0.21878363 1.0083023 -0.22012375 0.14450015 0.14149132 -0.19886762
0.0054826 0.77740663 -0.61976355 -0.22479594 -0.5188132 0.06256967 0.34170538 -0.38803458
0.4994714 -0.26857486 -0.59329623 -0.01582085 0.19643807 0.06532344 0.29712757 -0.09336939
0.07139758 -0.13859756 0.40989187 0.044206545 0.119078524 0.21667147 0.06820521 0.2900865
0.34670985 0.020761464 0.049141347 0.4343221 0.17811237 0.23531115 -0.13755345 0.27784452
0.21658693 0.024092412 0.09373447 0.58052176 0.1460574 -0.1936239 -0.5287975 0.19800286
-0.0418083 0.40759465 -0.0041081067 0.010589573 -0.26383078 -0.053351168 -0.20511398 -0.33117095
0.18046741 -0.053897668 0.028511804 0.041276395 -0.7307024 -0.03480713 0.62575155 0.046650514
-0.008672899 -0.51267564 -0.17428924 -0.018649407 0.11677858 0.003229903 -0.35608828 -0.2985532
0.005375361 0.09379034 -0.3538258 -0.120633334 -0.3408207 0.06427961 0.23089425 -0.12010121
0.77476984 -0.4253206 0.092918925 0.060751267 -0.6338402 0.4550896 -0.0024764275 -0.027696803
-0.9711419 0.29935324 0.06754596 -0.054496475 0.6399766 0.0531899 0.24480627 0.067311265
-0.06296758 -0.04100868 -0.0043140515 0.5509989 -0.013819186 -0.18705684 0.01310175 0.11711047
0.80142486 0.13092053 -0.17146508 0.21809855 -0.5144782 -0.2734376 0.25436535 -0.10132651
0.30311847 -0.3358973 -0.24963306 -0.018024458 0.13204923 0.26149628 -0.13936912 -0.20690054
-0.563463 -0.20284916 0.3361188 -0.07728141 -0.25278053 0.19163686 0.120424196 0.026699586
0.11429208 0.009915601 0.21121232 -0.19557668 0.431704 -0.0094021605 0.09060176 -0.039885733
0.1373573 0.4726883 0.09295799 -0.19112766 0.16655302 -0.32107714 -0.32584733 0.3062135
0.13073477 0.30910212 -0.15301766 -0.17590821 -0.038532622 0.23116244 0.31110966 -0.08208592
-0.24510959 -0.48822555 -0.104946345 0.4535854 -0.04742446 -0.31413242 0.10164274 -0.27165735
-0.72538483 -0.24457404 -0.29358497 0.507337 -0.12804532 0.08164149 -0.17568941 0.54630977
-0.43857262 0.07779407 -0.019307625 0.076047495 -0.9089747 0.38825625 0.1551637 0.16657333
0.5413774 0.33114722 0.029062212 -0.09295369 -1.1585584 0.51764303 0.027651604 0.6272849

lstm.weight_hh_l0 f4 [80, 20]
00000000: d52f 413d c074 6c3f 80d7 94be c672 d6be
00000010: 2a86 30bf 1f18 18be 7261 2c3e 37d9 c6bf
00000020: d731 ca3e 13ca 783f 2472 9dbf ffd1 373f
00000030: 48f2 1abd 5bac 7fbf 9714 323f 21b9 d8be
00000040: 1e85 31be 5813 d53f 89a2 07be 3e8a 88bf
00000050: 68e9 6cbf e156 503e c9dc a93f 62a4 073f
00000060: 4dcf de3d b39d 13bd b55a 39be 1a10 8dbe
00000070: 8750 82be 5af5 233f 97f6 143f f8c6 b03e
00000080: b8b4 99bf e117 8d3e 82dc e9bf 07c4 81be
00000090: 0fe4 2f3f 2658 1f3f 2a42 6d3f aa94 083f
000000a0: 0ec6 6c3f 672e 2cbf 1a5c 50bf aee8 f93c
000000b0: 43c3 a93f e39a ebbe f1c8 233f 5d4e 66bf
000000c0: 8ec3 753f 6cb5 76bf 22e2 d53c 45fd 9cbf
000000d0: 5f1d a8bf 78bd 25c0 fe61 92bf 7f87 0f3e
000000e0: 929e 4fbd 0822 b4bf d204 a2bf cfd5 55bf
000000f0: 36dd 873e bff6 983f 561a 203f 18fe 3dbf
00000100: 20a6 133f a865 903d 9751 51be 69cd 99be
00000110: 2249 0740 d39f 1b3f 1f07 ff3e 9f87 c73e
00000120: ae26 23bf 2735 593f c6d7 b7bf b6c2 babd
00000130: 89a7 6b3e 9607 6abe bf76 b23f 84cf 773e
00000140: f07b 96bf 9962 1cbf 0aeb bcbf e518 64bf
00000150: 2a8a 35bf b390 92be f21e 233f eaa1 51bf
00000160: 3d13 b8bf 9f4a 80bf a1f6 2c3e 2bc9 59bd
00000170: 1d08 533e df37 cbbf ec3c 1bbf b591 8a3c
00000180: f000 90bf b982 1c3f d0c4 0e40 5e8c f1be
00000190: f72a 5c3f 4a1a 21bf 7c35 343e 5bc7 c93f
000001a0: 966e e0be 8319 a7bf d6c6 30bf 85eb dc3f
000001b0: 53e2 c83e c764 4d3d dc32 13c0 d94b 9d3e
000001c0: a536 c2be c7e3 873d ad18 2e3e e30e babf
000001d0: 47c7 7ebd 61fd e0bd 62ce 013c 35c2 8fbe
000001e0: 150c a63f f123 24bf 95c1 6b3e c98a 503e
000001f0: 0a62 9bbd 5ac4 c33f 7145 ce3f fd33 ee3f
00000200: 1d39 6cbd 200a d9bc 5d33 3cc0 f0d3 6fbf
00000210: abf8 32bf 964c ef3e 5394 103e c561 5dbf
00000220: 3858 ecbe d9f8 3abf 5ee4 c9be ab8e 0dbe
00000230: 6524 0d3e c4c5 0ac0 922a cbbe 7db0 ee3f
00000240: ec5a f63f cce3 353e 19f9 cc3e f1bd abbf
00000250: ea17 c9be 01f7 54be 5bd0 2cbf 30e3 0bbe
00000260: 60e5 26bf c27e cf3f b8d0 87bf a773 02bf
00000270: 623a 923e f053 81bf 1962 54bf 7be4 bfbe
00000280: eda8 903f d507 8fbe 0913 f5be 3ca2 52bf
00000290: e370 3d3f f1a4 4fbe 6a4d bd3e 28f8 efbe
000002a0: 4275 22bf b235 293f 0e2e 3d3f d23d 19bf
000002b0: 40d2 94bf e2e1 55bf edf9 a23f a5bd 6ebe
000002c0: e93e 50bf 9851 47bf 25de 863f afc9 3bbe
000002d0: a1a6 1b40 7be2 153f 87b1 673f fefa 603f
000002e0: 4c15 633f 1f61 ff3d 1e8b 503e 1749 13bd
000002f0: 3530 6a3e a6a9 2fbf 5059 503e b5ac c6bf
00000300: 829a cfbe 5e1f c6bf 6bec 99be 28ae 1ebf
00000310: 0595 cc3e 8de5 883e b5b1 193f 8331 a5bf
00000320: 6d88 7b3f 2ec0 643d 5377 e3be 9950 ee3d
00000330: 78c7 a53e cd11 4b3f 7a45 4fbf 16d2 a23e
00000340: 3c79 80bf 85f0 37bd 9762 a53f 5082 023f
00000350: e28e 51bf 31e3 383e 8498 ccbf 70c7 58bf
00000360: c5ce 43bf 7928 523e 32dc 4e3e d0a2 11c0
00000370: f103 1c3f 2cdf a43f 12f4 33bc c2b0 8bbf
00000380: 96ce 5bbe cd1a 9bbe 53dc 293e a1dc c6bf
00000390: ff9d 1ebe 1643 53be 953b 90be 7b65 04c0
000003a0: 4fb6 d3bf 6bff 05c0 15a2 8fbd cbb2 8bbf
000003b0: 337a 40bf 022b 11be 7c85 6d3f 43be c8bf
000003c0: fba0 c2bf e7c1 f8bf c651 4e40 af8f 1bbe
000003d0: 45e4 23c0 94da e0be 786c c73e 6007 a4be
000003e0: 2cd2 a7bf 7691 c2be b3c0 c43f 9744 a83e
000003f0: ad7e b93f 35f0 94bf 2dd0 6b3c ddc2 6dbe
0.047164757 0.92365646 -0.29070663 -0.4188444 -0.6895472 -0.14852951 0.16834047 -1.5535039
0.3949115 0.9718334 -1.2300458 0.71804804 -0.037828714 -0.9987237 0.6956267 -0.42328742
-0.17335936 1.6646528 -0.13245596 -1.0667188 -0.9254365 0.20345642 1.3270503 0.52985203
0.10879383 -0.036039066 -0.18101008 -0.27551347 -0.25452062 0.6404625 0.58188766 0.345268
-1.2008276 0.2755728 -1.8270419 -0.2534487 0.68707365 0.6224388 0.92679083 0.53351843
0.9248971 -0.67258304 -0.81390536 0.030506458 1.3262714 -0.46016607 0.6397849 -0.8996332
0.9600152 -0.9637058 0.026108805 -1.2264792 -1.3133963 -2.5896893 -1.1436155 0.14016531
-0.050688334 -1.4072886 -1.2657721 -0.8352937 0.26535958 1.1950301 0.62540185 -0.7421584
0.5767536 0.070506394 -0.2044128 -0.30039528 2.1138387 0.6079075 0.4981012 0.38970658
-0.63730896 0.8484673 -1.4362724 -0.091191694 0.23013128 -0.22854456 1.3942488 0.24200255
-1.1756573 -0.6108795 -1.4759228 -0.89100486 -0.70913947 -0.28626022 0.63719094 -0.81887686
-1.4380871 -1.0022773 0.16890956 -0.053170364 0.20608564 -1.5876426 -0.60639834 0.016915182
-1.1250286 0.61136967 2.2307625 -0.47177404 0.8600306 -0.6293074 0.17598528 1.5763963
-0.4383437 -1.305466 -0.690534 1.7259375 0.39235172 0.050144937 -2.2999792 0.3072193
-0.37932315 0.06635242 0.170016 -1.4535793 -0.062201764 -0.10985828 0.007922741 -0.28077856
1.2972437 -0.6411734 0.23023064 0.20365442 -0.07587059 1.5294297 1.6114942 1.8609616
-0.057671655 -0.026494086 -2.940635 -0.93682766 -0.6991069 0.46738118 0.14119081 -0.8647731
-0.46161056 -0.7303596 -0.39432043 -0.13823955 0.13783415 -2.1683207 -0.39680916 1.864761
1.9246497 0.17762679 0.40033796 -1.341734 -0.39276057 -0.2079735 -0.67505425 -0.13660884
-0.6519375 1.6210558 -1.0610571 -0.5095772 0.28560168 -1.0103741 -0.82962185 -0.37479004
1.1301552 -0.27935663 -0.47866085 -0.822788 0.74000376 -0.20277764 0.36973125 -0.46869016
-0.6346017 0.6609756 0.738984 -0.59859955 -1.1626663 -0.83547795 1.2732521 -0.23314531
-0.81345993 -0.7785888 1.0536543 -0.18338655 2.4320452 0.58548707 0.9050526 0.87882984
0.8870437 0.12469696 0.20365569 -0.035958376 0.22869952 -0.6861824 0.2034657 -1.5521456
-0.40547568 -1.5478323 -0.30063185 -0.6198449 0.39957443 0.26737633 0.60036784 -1.2905735
0.98255044 0.05584734 -0.44426975 0.116364665 0.32378745 0.79324037 -0.8096539 0.31800908
-1.0036998 -0.04490711 1.2920712 0.5098009 -0.81858647 0.18055417 -1.5984044 -0.8467932
-0.7648738 0.20523252 0.20201185 -2.2755623 0.60943514 1.2880607 -0.010983484 -1.0913317
-0.21465525 -0.30293885 0.16587953 -1.5536081 -0.15489958 -0.2063106 -0.28170457 -2.0686939
-1.6540011 -2.0937145 -0.070133366 -1.0913938 -0.7518646 -0.14176562 0.92781806 -1.5683063
-1.5205377 -1.9434174 3.223741 -0.1519153 -2.5608075 -0.43916762 0.38949943 -0.32036877
-1.3111014 -0.38001603 1.5371307 0.3286483 1.4491783 -1.1635805 0.014392895 -0.23218866

lstm.bias_ih_l0 f4 [80]
00000000: 06c8 d3bf 5196 afbf 7b07 89bf c4d7 07c0
00000010: 7f67 0dbf ca6e 283e 1f2b ff3a 8c4c da3e
00000020: d166 91bf 926b 6abf e53e 65bf 38d2 93bf
00000030: d7d7 20bd 25c0 a3be 5377 40bf 7b79 a6bf
00000040: 75b7 b8bf 195d 79bf a941 bebf c90b 6fbf
00000050: 8ab7 6b3f e34a d03f faf8 0b3f d451 f73f
00000060: 42d1 213f 3770 8b3e a451 2d3e c084 383f
00000070: 2e1c 393f ef13 dc3e 2563 9bbe 4c2e 183f
00000080: aac8 c73e 805d c3bf e141 073f 4e00 1e3f
00000090: 8cf8 953f 02df 223f 2821 b83f ba37 523e
000000a0: 15a6 8dbd c6ab a7be ab98 923e 947c adbe
000000b0: 1d78 48bd 8ebd 833f 4dac 4bbf 832a b73f
000000c0: 28e9 a5bd d812 84bd ab26 5cbf b615 ce3e
000000d0: 0863 903f 3d1a 6cbf 39d0 cebd f458 90bf
000000e0: 60bf 023f 1243 ecbd 6f58 8a3e af50 663e
000000f0: ab48 40bf db6a 363f 2ee1 39bf 18cc 003f
00000100: 5e80 81be 2ed2 d73c 4777 d0bd ba8f 643d
00000110: 6e95 a53d 7a0b b33d d8ff 66bf d239 fbbe
00000120: d56c b4be 2450 483b 38db 69bf be66 09bf
00000130: 28c5 813f a840 94bc 403a 3dbe 5c97 0abf
-1.6545417 -1.3717748 -1.0705408 -2.1225443 -0.5523605 0.16448513 0.0019467807 0.42636526
-1.1359502 -0.9157039 -0.89549094 -1.1548529 -0.03926834 -0.31982532 -0.75182074 -1.3005823
-1.4430987 -0.9740768 -1.4863788 -0.9337736 0.92076933 1.6272854 0.54676783 1.9321847
0.6320993 0.2723405 0.16925675 0.7207756 0.72308624 0.42983958 -0.3034908 0.59445643
0.39020282 -1.5262909 0.528349 0.61719215 1.1716475 0.6362153 1.4385118 0.2052907
-0.06916443 -0.3274824 0.286321 -0.33884108 -0.048942674 1.0292222 -0.79559785 1.4309849
-0.08101112 -0.06448907 -0.859965 0.4025094 1.1280222 -0.92227536 -0.10098309 -1.1277146
0.51073265 -0.1153623 0.27020594 0.22491716 -0.7511088 0.712568 -0.7260922 0.5031142
-0.2529325 0.026345339 -0.10179 0.05580113 0.08085142 0.08742423 -0.90234137 -0.4906755
-0.35239282 0.0030565346 -0.91350126 -0.536724 1.0138292 -0.018097237 -0.18479252 -0.54137206

lstm.bias_hh_l0 f4 [80]
00000000: 6175 cbbf 4e38 dfbf c4f7 99bf f472 0ac0
00000010: c0ee 60bf 07b3 bf3d 7f82 efbd fb3b ba3d
00000020: 3e1e 83bf 5007 5ebf 570a 89bf 87a2 89bf
00000030: 71f3 19be 3325 503d 3c2f 47bf fc6f a3bf
00000040: ccbd d5bf 4ca0 a4bf 997a debf dcb8 81bf
00000050: 8b33 823f a771 bd3f 876e 433f ee4e 0040
00000060: 8427 243f 505b 953e 4560 403e 4ead d03e
00000070: 2789 4c3f 5d25 233f 1f98 babe 7b13 f73e
00000080: 459d e73e 6c20 c7bf 73b6 b83e 3376 c23e
00000090: cba6 893f 2879 413f c072 bc3f 0847 433e
000000a0: bc00 063e 7d5d 44be b886 843e 0e07 fabd
000000b0: f14d a8be 12bd 8a3f a89b 6dbf ad8c b73f
000000c0: acff 62be 8b74 7bbe a90f 48bf b6b6 e63e
000000d0: 9368 6d3f 87db a3bf 1cd1 28be ae7b 88bf
000000e0: 7b7b 4c3f 6fae 41be 65bf f23d ce50 e5bb
000000f0: 43a7 f8be d064 fd3e a367 17bf cbde 013f
00000100: f37b 6dbe 2344 b4be 94ad 8dbe 6733 a6bc
00000110: fb88 073e 2b00 3bbe a9a3 5dbf 817d 65be
00000120: 4747 17be c7a7 43be 9ac5 70bf d1a3 0bbf
00000130: 0586 413f c55d 5ebd 0574 c7be e976 d1be
-1.5895196 -1.7439058 -1.2028737 -2.1632662 -0.87864304 0.09360319 -0.11694812 0.090934716
-1.0243604 -0.8672991 -1.070628 -1.0752724 -0.15034272 0.050816726 -0.7780645 -1.276855
-1.6698546 -1.2861419 -1.7381164 -1.013454 1.017198 1.4800309 0.76340526 2.0048175
0.64122796 0.29171228 0.18786724 0.4075722 0.7989678 0.63728887 -0.36444184 0.4825705
0.45237175 -1.5556769 0.36076698 0.37980804 1.0754026 0.75575495 1.4722519 0.19070065
0.13086218 -0.19176288 0.25884032 -0.12208377 -0.32871965 1.083895 -0.9281564 1.4339806
-0.22167844 -0.24556176 -0.78148896 0.45061272 0.9273769 -1.280137 -0.16486019 -1.0662744
0.79875916 -0.18914197 0.11852912 -0.006998158 -0.4856511 0.49490976 -0.5914251 0.5073058
-0.23191814 -0.35208234 -0.27671492 -0.020288182 0.13235848 -0.18261783 -0.8657785 -0.22411157
-0.14773284 -0.1910697 -0.94051516 -0.5454684 0.7559512 -0.054288644 -0.38955703 -0.40911034

head.fc1.weight f4 [100, 20]
00000000: 1c4c 65bc 04ef 9abd b522 d83b 3912 8a3d
00000010: 30d8 97bb d979 cdbd db65 0f3c e7db 6fc0
00000020: c67b 643d 2876 adbc bd7c 85be 53f2 7dbe
00000030: ba31 a0bc b908 51bd 49ad 76be 4e2e f93c
00000040: c168 ffbd 9e58 e43d 21fc 873d 01d8 ebbf
00000050: a4ef c0be 1e15 76bd be5c 4a3e 287a 933d
00000060: 1c15 5d3e 2f61 a6be 94b5 0f3e 62c8 0fbe
00000070: c416 bc3e c58a 88bd a35c 9d3e 6128 44bf
00000080: d758 463b 5d64 0e3e 35cc 0d3e 38ae db3f
00000090: 5f02 51be 223d 8dbc d5c5 24be e9f8 5a3f
000000a0: 41cd 613b d302 d1bb cba0 d93b 4bb6 333a
000000b0: 8274 d0bb 975e 9a3e ea49 8abe e8dc 5cc1
000000c0: c9f2 0abc 933d c0bb 70ac 823b 377a 11be
000000d0: ee1b b9bc c541 2fbc 304e 32bc 3b0d 08bb
000000e0: 9cc6 9c3c 16ee 5939 60c5 1cbb f6ec 3b3e
000000f0: 0a45 d23d 774a 7d3e 6564 dc3d ab64 93bf
00000100: 7f9f 6ebc 1518 b1be eab2 be3e f316 26bf
00000110: 34df 573e a653 0a3e ca94 073f 551e 823d
00000120: 09cc b1bc d0d8 e73d e3a8 4cbf a952 42bd
00000130: 86c1 e2bd b593 abbc 201d e03c 7e87 153e
00000140: 4881 923d a18a aeb9 9cb6 763c 141a 8bbd
00000150: 6ddf b9bd 25c2 5ebf d425 8c3f 097f 94c0
00000160: a52a debc 91f5 90bb 2524 323f f395 623f
00000170: 3068 1b3d ea9b 08be d4bb a5be ef98 953e
00000180: a0aa 0dbe 5a5f 113b b37c debb a9e2 3cbf
00000190: 1bd7 05be 5a5d feb9 a37e 6c3d 4b6c 2a3e
000001a0: a70f 043e 8366 debd b198 f53d 97c5 80be
000001b0: 26b9 883e 10f0 c83d e062 a33e 8a3d 9abe
000001c0: eda4 82be 1eda bfbd 7a9e 5e3d 18d8 ea3c
000001d0: 692f 06be 3684 753d 962d d03e 46dc 0b3f
000001e0: 9182 223d 2854 43be 443d 14bc 8bdf 0f3e
000001f0: e199 d23d a2ee 163d dd56 23bd 878e 473d
00000200: bf0c d33d fed0 c13d 4963 60bd d4a3 53c0
00000210: b110 85bc d57d 5fbc 538c ea3d 9345 8bbc
00000220: 2859 4dbd 9106 893d e10f c7bd 1646 8140
00000230: 455c 80bf f2b7 943d 66f8 423e 0e6e 03be
00000240: 39e7 cb3c 72ba 33c0 6c79 d63f c820 17c0
00000250: 98f8 41be 9b5a 28be 5f2c 0f40 0fd9 61c0
00000260: 83cd 1b3e 2cf2 0f3d c474 b43a 2ef2 0a40
00000270: 5f46 2e3e 2650 013d 5e90 863e 5c25 0940
00000280: 79ac a13f 6f2e 803d cb3f 0ebc 3b90 17be
00000290: 906c a4bc 7be6 23c0 5909 5f3f a2b6 47c0
000002a0: 54fe 0fbe b8a7 b63c 3c22 3ebe c376 20bf
000002b0: 3d06 fabe 69ac 01be d48d 56bc d59f 85be
000002c0: 38b4 9d3d f1a5 a2bd 5ee0 633e 5854 9c3f
000002d0: 727d a0bd cf83 0abe bb89 11be cd75 aabc
000002e0: a575 dbbc e93d 10be 07bf c53d 4084 40be
000002f0: 3c0c a5bd eac7 dbbd f2ea 863d 8aca 1bbe
00000300: a9a2 42be ece5 d03d 65f8 af3d c944 093e
00000310: bf9e 93bd d9b5 843c 136b 46bd 778a db3e
00000320: 8763 15be eb4b df3d 38dd fc3d 5e76 00be
00000330: 5786 d0bc 639a 55bd ef44 123e 176f 03be
00000340: 0204 c0bd de94 3fbe 0834 58be b56f cbbd
00000350: 9c2b cebd 7a45 c53d ed18 f13d 67a7 8c3d
00000360: e7d7 da3d b5aa f3bd c098 08bd d64e 8f3e
00000370: 16b4 fabc 952c 1dbd 8b3a debe 8cea 5dbe
00000380: 301b c33c 7f0b 82bd 3e68 783d 4484 3ebe
00000390: 6821 a7bd 27a5 a93d b138 853e bbd0 3abe
000003a0: 3112 b6bd d572 943e 91b1 a0be 78ed 413e
000003b0: fcb6 39be 0d71 02be a6ee 893f aef3 e83e
000003c0: ff63 f0be 1bd6 3c3e acf4 17bf 58f3 033d
000003d0: 09f8 10bd 0d01 70bf 3b85 3340 ffd4 a8be
000003e0: 4daa 8ebe b04f 903e 8914 a73f a799 dbbe
000003f0: 83fb ba3d c1d1 febb 0a43 61bd 76ef 4b3f
-0.013995197 -0.0756512 0.0065959343 0.06741757 -0.004633926 -0.10033006 0.008752312 -3.7477968
0.055782102 -0.021174505 -0.2607173 -0.2479947 -0.019554961 -0.05103371 -0.2408954 0.030417588
-0.12471152 0.11149715 0.06639887 -1.8425294 -0.3768283 -0.060078733 0.19761941 0.07201034
0.21590084 -0.3249602 0.1403411 -0.14041284 0.3673612 -0.06667093 0.3073474 -0.76624113
0.0030265355 0.13905473 0.1384743 1.7162542 -0.20411061 -0.017241064 -0.16091092 0.85536057
0.0034454616 -0.0063785105 0.0066414825 0.0006855472 -0.006361545 0.3015029 -0.27009517 -13.803932
-0.008480736 -0.005866715 0.0039878413 -0.14206778 -0.022596326 -0.010696833 -0.010882899 -0.002075984
0.019137673 0.00020783427 -0.0023921356 0.18352112 0.102670744 0.24735437 0.10761336 -1.1515096
-0.014564394 -0.34588686 0.37245876 -0.6487877 0.21081239 0.13508472 0.5296141 0.063534416
-0.021703737 0.113206506 -0.799452 -0.047442112 -0.11072068 -0.020944456 0.027357638 0.14602467
0.07153565 -0.00033291153 0.015058186 -0.067920834 -0.09075818 -0.8701499 1.0949044 -4.640507
-0.027119944 -0.004423805 0.695864 0.88510054 0.037941158 -0.13340726 -0.32369864 0.29218242
-0.1383462 0.0022182078 -0.0067897676 -0.73783356 -0.13070337 -0.00048516208 0.057737958 0.16642873
0.12896596 -0.10859396 0.11992014 -0.2515075 0.26703757 0.09811413 0.31911373 -0.30125076
-0.25516453 -0.093677744 0.054350354 0.028667495 -0.13104023 0.05994054 0.4065978 0.54632986
0.0396753 -0.19075072 -0.00904781 0.14050119 0.10283256 0.03684867 -0.03987776 0.04871991
0.103051655 0.0946369 -0.054782186 -3.3068743 -0.01624331 -0.013640841 0.11452546 -0.017000949
-0.050133854 0.066907056 -0.097198255 4.0398054 -1.0028158 0.07261647 0.19040069 -0.12834951
0.024890529 -2.8082547 1.6755805 -2.3613758 -0.18942487 -0.16440813 2.2370832 -3.5288732
0.15215115 0.035143062 0.0013767709 2.1710315 0.17019032 0.031570576 0.26282018 2.1429052
1.263076 0.062588565 -0.008682202 -0.14801113 -0.020071298 -2.5609424 0.8712364 -3.120522
-0.14061862 0.022296771 -0.18567747 -0.62681216 -0.48832884 -0.12663426 -0.013095338 -0.26098505
0.077003896 -0.07941807 0.22253558 1.221324 -0.07836427 -0.13526843 -0.14212696 -0.020808125
-0.026789496 -0.14086117 0.09655576 -0.1880045 -0.08058974 -0.1073149 0.06587781 -0.15213981
-0.19007362 0.10200104 0.08592299 0.13405146 -0.07208013 0.016199993 -0.048441958 0.42879078
-0.14588748 0.10903152 0.12346882 -0.12545153 -0.025454683 -0.052149188 0.14284109 -0.12835346
-0.093757644 -0.18709132 -0.21113598 -0.09933416 -0.100669116 0.09632392 0.11772332 0.06867867
0.10685711 -0.11897794 -0.0333488 0.27989835 -0.03060345 -0.038372595 -0.4340404 -0.21671504
0.023816675 -0.06349849 0.060646288 -0.18605143 -0.081606686 0.082834534 0.26019815 -0.18243687
-0.088901885 0.2899386 -0.31385472 0.18938243 -0.18136209 -0.12738438 1.0775955 0.45498413
-0.4695129 0.1844105 -0.59357715 0.032214493 -0.035392795 -0.93751603 2.8050067 -0.32975003
-0.27864304 0.28185797 1.3053142 -0.42890665 0.09130003 -0.0077764695 -0.054995574 0.79662263

head.fc1.bias f4 [100]
00000000: 2238 97bf 5355 70bf 0324 353e 8782 a2bf
00000010: d687 a5bf 6f03 48bf 1f13 573d d1b4 08be
00000020: f432 58bf 849d 48bf a347 4bbf 390f f7be
00000030: 96aa 9ebf 85d3 103d 518b 70bf 5ca1 b8bf
00000040: fba9 69bf 065b 7ebf 5233 99bf a8b3 d43c
00000050: 8253 50bf 7f2e 30be ab19 35bf 3da8 85bf
00000060: 71c3 ab3e 17f2 b6bf cc23 3cbf 4a0e 7dbf
00000070: 0099 b73c 01e5 88bf cb06 1ebf 2e1c afbf
00000080: 869d 55bf 1e51 29bf 9acb 633e b4a2 52bf
00000090: 00f0 46bf 3eb5 35bf 6b67 48be 1e79 38bf
000000a0: f269 3abf b963 12bf db4b b1bf c079 25bf
000000b0: 6439 aabf 04d0 0e3e 3784 29bf 9222 3bbf
000000c0: d151 f23c 9562 05bf 01ba 2bbf 10f6 29bf
000000d0: 2632 58be a744 c73d 16fa 33bd 8ab2 6cbf
000000e0: bddc 8fbf 63fd f53b 6e7f 8dbf 1656 45be
000000f0: feb5 06bf 0fd4 90bf ef4f 26bf 7a3d 74be
00000100: 0c18 55bf 5893 47bf c081 bb3e 3f9f 92bf
00000110: 2867 1ebe 1af9 4bbf 2bf3 64bf acdc c93e
00000120: 2bce abbf 6b5e 513e e730 ecbf 406f 87bf
00000130: 1ef5 75bf 33dc e5be b201 2cbf c106 4dbf
00000140: a808 f33e e532 19bf 965d a33b 3a9f 88bf
00000150: 67ae 8b3e 2bd0 46bf f456 54bf 349c 55bf
00000160: b6a5 76bf cabc 7dbf 3982 04bf 38b5 603e
00000170: a113 72bf b02b 1abf ea3a 8bbf 6be0 df3e
00000180: f994 ca3e 405e 79bf 2e1c 32bf 5ee6 52bf
-1.1814005 -0.93880194 0.17689519 -1.2696084 -1.2932079 -0.7813024 0.05250847 -0.13350226
-0.8445275 -0.7836535 -0.79406184 -0.482538 -1.2395809 0.03535797 -0.9396258 -1.4424243
-0.91274995 -0.9935764 -1.1968787 0.025964573 -0.8137742 -0.17205237 -0.7074229 -1.0441967
0.33547547 -1.429263 -0.7349212 -0.9884993 0.022411823 -1.0694886 -0.61729115 -1.3680475
-0.83443487 -0.661394 0.22245637 -0.82279515 -0.7770996 -0.7097968 -0.19570701 -0.7205981
-0.7281791 -0.57183415 -1.3851274 -0.646389 -1.3298764 0.13946539 -0.6621737 -0.73099625
0.029580029 -0.5210355 -0.67080694 -0.66391087 -0.2111288 0.09729891 -0.043939672 -0.9245993
-1.1239239 0.0075070127 -1.1054513 -0.1927112 -0.5262145 -1.1314715 -0.6496572 -0.23851576
-0.8323982 -0.77959204 0.3662243 -1.1454848 -0.15469038 -0.79676974 -0.89433545 0.39426172
-1.3422292 0.20446174 -1.8452424 -1.0580826 -0.96077144 -0.4489456 -0.67190087 -0.8008843
0.47467542 -0.59843284 0.0049855215 -1.0673592 0.27281496 -0.7766139 -0.8294518 -0.8344147
-0.96346605 -0.99116194 -0.51761204 0.2194413 -0.945612 -0.6022291 -1.0877354 0.43725905
0.39566782 -0.9740944 -0.6957425 -0.8238276

head.fc2.weight f4 [30, 100]
00000000: 0e1b d13f d57b 95bf cdf6 c43f 71f2 9b3f
00000010: 91e4 6b3f 7c60 0f3f e2bd 45c0 dfe4 0740
00000020: be74 68bd 38d3 60bf 1aa8 34bf 6649 9bbf
00000030: f168 8b3e 37cd cf3e e076 0fbf 3ca2 743f
00000040: 0584 26be c047 223f 3eec e2be 28f3 9f3e
00000050: 6243 1b3f 38ac a23f 6d6e 7a3f 5463 fa3f
00000060: 56d6 273e ca8d 1f40 0224 6f3c 9160 a83f
00000070: 7e55 af3c a5b6 1f3e 29ff febf adc9 09c0
00000080: 3f56 1e3f 01b4 c6bf 7576 323f 44dc f5bc
00000090: 457e 053f eb38 b63f c14d 60bf f214 90bd
000000a0: 7bad f2be 5394 b8bc 8dc7 ff3f 0ce5 a93f
000000b0: c951 a53f cd06 8abe f1ee 3abf a5ba fabe
000000c0: 6238 c33f aa9f 033f d70e 13c0 831c 1d3f
000000d0: 18b5 713d b01e 803f 279c 6b3f cd72 213f
000000e0: ec5a f5be 2c74 bb3e 79b0 583f 3326 813f
000000f0: 5eb6 343f 33bf 07c0 9946 ca3f 7035 68be
00000100: 0965 433f 6b21 ccbe c519 3340 00db 59bf
00000110: 04fd c2bf bfdb a73f 6f14 523f e635 87be
00000120: 1ad6 0a3f 329e 153f 538c d73f 74a3 813f
00000130: 5fba 943e 2345 3abf 7cad b0bf e91e fa3d
00000140: 2ed3 7f3e da21 e23f ecaf 8b3e de0a bbbf
00000150: 049d 843f 7b18 d2be f4fb c5be beeb 513f
00000160: 4c38 4e3f 0639 86c0 c623 ca3e 3ca1 193f
00000170: 87b3 0fbf 9ea2 74bd d586 833f 0024 c53e
00000180: a28a 1b3f c3fe bebe e9af ffbe 54f8 bbba
00000190: 6fe3 a73d e979 82be 44d0 69be 8f8c 853d
000001a0: bb66 823c adf9 2cbe 3ff5 833b 7db7 2e3e
000001b0: a6b9 453e 22bd b5bd 2284 6dbd 7115 1b3d
000001c0: d91f f43c 90df 133c 842e 4a3e edf4 5abe
000001d0: fc61 263e f622 eebc 98bc 2a3e a1ab 85be
000001e0: adcb fb3d a27c cabd 4eee 8cbe 4f42 0dbe
000001f0: 1b00 3d3f 9a40 973e 71d8 a33c a5b9 603e
00000200: fdaa 63be d0d7 a7bb be5f 29bc 936f d53d
00000210: bb3f 653e d784 873d 2803 1fbd e4ca 84be
00000220: af9c 86be 68e3 b13e 0aff f43d 067d c4be
00000230: b5bf d5bd a682 0fbc 7d33 3abe 457e 163e
00000240: 0073 c33e f223 883d f08e d73d b962 f1bc
00000250: 05f1 ba3d e8e4 cb3d 5b36 6dbe 4fb1 503b
00000260: 0693 5c3c 7dd1 8dbe c1a7 9b3e 29e9 cb3e
00000270: 55b3 2dbf 5046 153f cf4a 91be b1d6 7b3e
00000280: e50f ebbc 9c07 acbe 4451 4d3e 59bf 24bd
00000290: 8ade 553d 41dd 783d 26e2 933d d437 a5be
000002a0: e796 43be 0269 9bbe c6be 10bf a600 083e
000002b0: 8b7b 8ebd a669 72be 579c 793f aca5 3dbe
000002c0: 6b98 d3be eef1 d93d 37d3 52be cf21 65bd
000002d0: e818 9dbd eeb5 0b3d f047 b1be 2c50 493e
000002e0: b7dd ccbe 480e 4f3e d85a b13d 6d20 123f
000002f0: 2af5 75be 481b 4bbe a885 0abc 8c2d bb3e
00000300: f29f 70be 460d 63bd 6a44 a7be e06d 133e
00000310: 1ee5 b2bd b1d5 c9be 7feb e8bd 579b adbd
00000320: 2fd7 da3e ac13 873d 905c e9bd 4dd8 843e
00000330: 206a 9d3e f18c 62be df72 30bd e018 0abc
00000340: 9b7e 813d 0688 6f3d 2050 193b 47d9 a1bd
00000350: 91eb 9bbe a25d a7bd e4b5 383d 7c20 063e
00000360: 10dc a43d c277 963e a558 823e a5aa 18be
00000370: 6a32 693d a0f7 b23e fa1f 27be bbbc b1bd
00000380: d7f6 70bd 7df6 8f3e fd6a ddbc 5c00 243d
00000390: 018b 1bbe 629e bcbd ce09 833d 9e5e 183d
000003a0: a8d8 8c3e 8ced 3e3e b4ad 573d 13ce 063e
000003b0: 29f8 efbd 59b9 063e 8f83 febc 24ba 503e
000003c0: 24ff d73c 7b7c 7fbe 9c3c 18be 28d6 b7be
000003d0: a42c 233f 440a 703e 44cc adbd 2bc5 a7bc
000003e0: 60ef 7a3d cb44 653e 90d1 89be 85d2 0abd
000003f0: 1a8c 8a3e bbdf 05be 7b4b 663e 95f7 643e
1.6336381 -1.1678416 1.5387818 1.2183362 0.9214564 0.560066 -3.0897145 2.1233442
-0.05675196 -0.87822294 -0.70569 -1.2131774 0.272285 0.40586254 -0.56040764 0.9556005
-0.16261299 0.6339073 -0.44320863 0.312402 0.60649693 1.2708807 0.97824746 1.9561563
0.16390356 2.493029 0.014595987 1.315447 0.02140307 0.15597017 -1.9921619 -2.1529343
0.6185035 -1.5523683 0.69712 -0.030012257 0.52145797 1.423612 -0.87618643 -0.07035245
-0.4739798 -0.022531664 1.9982773 1.3273025 1.2915584 -0.26958314 -0.73020846 -0.48970523
1.5251582 0.51415503 -2.2977808 0.6137163 0.059010595 1.0009365 0.92035145 0.630658
-0.4792093 0.3661207 0.84644276 1.0089782 0.7059077 -2.1210449 1.5802795 -0.22676635
0.7632604 -0.39869246 2.7984478 -0.8509979 -1.5233464 1.3113936 0.8206243 -0.2640831
0.54232943 0.5844451 1.6839699 1.0128007 0.2904844 -0.72761744 -1.3802943 0.12212927
0.24982902 1.7666581 0.27282655 -1.4612691 1.0360417 -0.41034302 -0.38668787 0.8200034
0.8055465 -4.194461 0.39480418 0.6001165 -0.5613331 -0.059725396 1.0275522 0.38504028
0.6075841 -0.37303743 -0.49938896 -0.0014340975 0.081976764 -0.25483635 -0.22833353 0.0652095
0.015918126 -0.16892119 0.0040270383 0.17062183 0.193091 -0.08873965 -0.05798734 0.037862245
0.029800342 0.009025469 0.19744307 -0.21382494 0.16248316 -0.029069405 0.16673505 -0.26107505
0.122947074 -0.09887053 -0.27525562 -0.13794826 0.73828286 0.29541475 0.020000668 0.21945818
-0.22233196 -0.0051221624 -0.010337768 0.10421672 0.22387592 0.06617134 -0.03882137 -0.25936043
-0.26291415 0.3474381 0.11962707 -0.38376635 -0.10436956 -0.008759176 -0.18183704 0.14696606
0.38173676 0.06647481 0.1052531 -0.02946602 0.09128002 0.0995577 -0.23165266 0.0031843965
0.0134627875 -0.2769889 0.30401424 0.39826325 -0.67851764 0.58310413 -0.28377387 0.24593617
-0.028694103 -0.33599555 0.20050532 -0.040221546 0.052214183 0.06075788 0.07220869 -0.32269156
-0.19100533 -0.30353552 -0.565411 0.13281497 -0.06957158 -0.23673114 0.9750418 -0.1852023
-0.41327223 0.106418476 -0.20588385 -0.055940446 -0.07670766 0.03410905 -0.34625196 0.1965949
-0.40012905 0.20220292 0.08659905 0.5708073 -0.24019304 -0.19834626 -0.008454718 0.36558187
-0.23498514 -0.05543258 -0.32669383 0.14397383 -0.08735107 -0.39420846 -0.11373042 -0.08476894
0.42742297 0.06595549 -0.11394608 0.25946274 0.3074503 -0.22124077 -0.0430783 -0.008428782
0.06322976 0.05847933 0.0023393705 -0.079027705 -0.3045316 -0.08172156 0.04509534 0.1309833
0.08049786 0.29388243 0.25458255 -0.14908846 0.056932844 0.34954548 -0.16320792 -0.086785756
-0.058829155 0.28117743 -0.027028555 0.040039405 -0.15189745 -0.092098966 0.063983545 0.03719961
0.27509046 0.18645304 0.05265589 0.13164549 -0.11717255 0.13156642 -0.031068591 0.20383507
0.026366778 -0.2494983 -0.1486687 -0.35905576 0.6373999 0.23441416 -0.08486226 -0.02047976
0.061263442 0.22389524 -0.26917696 -0.033892173 0.27060014 -0.13073628 0.22489731 0.2236007

head.fc2.bias f4 [30]
00000000: 5aae 8e3f 7186 bdbd 76d5 66be 652f f9bd
00000010: e19a abbd 1b56 b9be e16b a1bc 2e25 30bd
00000020: f742 a13e be0f a3be 3278 013f f66f 01c0
00000030: 705e 15c0 8e4a 17c0 fa5a d7bf 5944 24c0
00000040: d424 bfbf a625 89bf d522 e0be b7ec 44c0
00000050: 8922 76c0 1a13 af3f e6d8 c93e 2551 1f40
00000060: e0d0 14bf a963 e2be aa7f dabd 02ed febf
00000070: aa63 3ec0 6f10 aa3f
1.1146958 -0.09254158 -0.22542366 -0.12167243 -0.0837915 -0.36198506 -0.019704761 -0.043004207
0.31496403 -0.31847948 0.5057403 -2.0224586 -2.333889 -2.3639255 -1.6824639 -2.5666716
-1.4933114 -1.0714614 -0.43776575 -3.076948 -3.8458579 1.3677704 0.39423293 2.4893277
-0.5813122 -0.4421666 -0.10668881 -1.9916079 -2.974833 1.3286265
