Project-Run/run_cudalstm_gmm_model/model_epoch018.pt (torch, 40907 bytes, 8 tensors)

lstm.weight_ih_l0 f4 [80, 33]
0.15647066 -0.23941958 0.12263743 0.4753674 0.4538511 -0.083819225 0.20327947 -0.084270395
-0.20836325 0.24407616 -0.005241726 -0.30590218 0.06658185 0.031984624 0.07367834 0.023405496
0.14413634 -0.04007675 0.2790424 -0.12832792 0.008683646 -0.018068139 -0.0016693645 0.066839725
-0.04629007 -0.01578919 -0.16970274 0.19544393 0.08223704 -0.10274877 -0.06086872 -0.2851888
0.14929196 0.17014943 0.10321901 0.41868708 -0.16764748 -0.006025969 -0.09710563 -0.022230232
0.064673394 0.3092841 -0.1447654 0.009961981 0.08831213 -0.006825934 -0.1491315 -0.06788408
-0.41110528 0.15627961 -0.052305825 -0.2759146 0.10323287 0.041868113 -0.0058756215 -0.08312598
-0.22505651 -0.13022548 0.10022611 -0.024082262 0.013507872 0.4426236 0.09732573 0.012201964
-0.006023776 -0.007869811 0.4110096 -0.21520458 0.04382373 -0.010414757 0.23284493 -0.077744015
-0.080817275 -0.14390461 0.16461688 0.3480887 -0.25143415 0.28675342 0.100840315 0.030552205
0.04405198 0.31178343 -0.13212144 -0.30177286 -0.26273754 -0.21370864 0.23072372 0.24102427
0.32417342 -0.25678146 -0.23120616 -0.14554955 0.04115931 0.18502752 0.09557907 0.16612063
-0.049975697 -0.046580233 0.2618908 -0.009252372 0.06294765 0.277617 0.05815357 0.22485873
0.21742296 0.12731668 -0.0676745 0.15017045 -0.0015104746 0.16837926 -0.13736744 0.15603079
0.10443609 -0.008003392 -0.052707054 0.17383395 0.016294146 -0.18462901 -0.16172776 0.10819816
-0.0495828 0.20726722 0.09181642 -0.1504084 -0.091644764 -0.16951144 -0.035650253 -0.23682818
0.3768784 0.10793436 -0.006043816 0.21210456 0.19896536 0.18336354 0.16222022 0.08538901
-0.11042241 -0.38504478 -0.24502274 0.020957569 0.069832824 -0.33191824 0.07594855 0.0536266
0.060275786 0.007614259 0.041144334 0.0588703 -0.3078353 0.08071426 0.117101826 -0.101970054
0.064514 -0.14112604 -0.12826641 0.13293768 -0.21880113 0.30522317 0.02680105 -0.011190646
-0.58043873 0.012544491 0.034421455 0.22658633 0.12666959 0.18864222 -0.11476807 0.1127167
-0.01711097 0.25701845 -0.10417772 0.22146906 0.027011886 -0.1397974 -0.015233086 0.05557005
0.13892074 -0.11917674 -0.024162633 0.03861981 -0.1725918 0.16721848 -0.112088315 0.14672093
0.0076295924 0.0889089 -0.08380855 0.076657645 -0.07761722 0.0019757452 -0.10876006 -0.082124695
-0.15953961 -0.077643014 0.051524967 -0.08448477 0.020127205 0.05040936 0.12412105 0.004991453
0.1572701 -0.023797283 0.20131694 0.14739901 0.047236025 -0.0426318 0.067955874 -0.091794014
-0.08374566 0.102017365 -0.13656203 -0.09602424 -0.0004555603 -0.0056163245 0.19752064 -0.09219795
0.06826962 -0.060261086 -0.023272054 -0.1361247 0.010505931 0.08227853 -0.0778506 -0.14166583
-0.087531745 -0.09920869 0.011606267 0.079357825 -0.07154186 -0.091990456 -0.099513 0.15483086
-0.21845312 0.13393223 0.10347175 0.21581388 -0.020074958 -0.053329725 -0.11324418 0.22899905
-0.0690479 0.025242273 -0.26113757 -0.15683252 -0.093169935 0.07964523 0.015953254 -0.083247826
-0.007660537 0.031533383 -0.065117106 0.029235281 -0.34188786 0.0050944006 -0.14268698 0.24783528
00000000: d839 203e 682a 75be 5529 fb3d 5b63 f33e
00000010: 2c5f e83e 6aa9 abbd 7e28 503e f595 acbd
00000020: 2d5d 55be 1aef 793e c9c2 abbb 369f 9cbe
00000030: 115c 883d 4f02 033d abe4 963d e2bc bf3c
00000040: 7a98 133e 8527 24bd a5de 8e3e 6568 03be
00000050: da45 0e3c a203 94bc 94ce daba 44e3 883d
00000060: a89a 3dbd 5558 81bc 8ec6 2dbe 7422 483e
00000070: e56b a83d f26d d2bd 7b51 79bd 4404 92be
00000080: fedf 183e a73b 2e3e 7d64 d33d 275e d63e
00000090: c8ab 2bbe 7e75 c5bb 51df c6bd 2d1c b6bc
000000a0: 7c73 843d 7c5a 9e3e 623d 14be 9437 233c
000000b0: fddc b43d 16ac dfbb eeb5 18be cf06 8bbd
000000c0: 647c d2be c307 203e a23e 56bd ae44 8dbe
000000d0: c16b d33d e67d 2b3d 4988 c0bb f43d aabd
000000e0: 3775 66be d459 05be 5943 cd3d 2a48 c5bc
000000f0: 1f50 5d3c 8f9f e23e b652 c73d bfea 473c
00000100: 1863 c5bb 61f0 00bc da6f d23e 975e 5cbe
00000110: 8380 333d a8a2 2abc e76e 6e3e 4138 9fbd
00000120: 8783 a5bd bb5b 13be 5491 283e af38 b23e
00000130: fabb 80be 58d1 923e 5e85 ce3d 9e48 fa3c
00000140: d96f 343d 14a2 9f3e d84a 07be f981 9abe
00000150: 8985 86be 70d6 5abe d742 6c3e 11cf 763e
00000160: 0ffa a53e dc78 83be 4fc1 6cbe f10a 15be
00000170: aa96 283d db77 3d3e f6be c33d 871b 2a3e
00000180: 51b3 4cbd eaca 3ebd 8d16 863e 4397 17bc
00000190: b3ea 803d d123 8e3e 7032 6e3d 5e41 663e
000001a0: 20a4 5e3e 4e5f 023e ee98 8abd 48c6 193e
000001b0: 1efb c5ba 9d6b 2c3e 0daa 0cbe 89c6 1f3e
000001c0: 97e2 d53d a920 03bc 5ae3 57bd 8701 323e
000001d0: 4d7b 853c 630f 3dbe f69b 25be ff96 dd3d
000001e0: 5617 4bbd dc3d 543e 3f0a bc3d a904 1abe
000001f0: 40b0 bbbd 6894 2dbe 0006 12bd 1683 72be
00000200: 35f6 c03e b10c dd3d 340b c6bb f031 593e
00000210: 93bd 4b3e a7c3 3b3e 0f1d 263e 6fe0 ae3d
00000220: 2525 e2bd 9724 c5be 3ee7 7abe 35af ab3c
00000230: 8304 8f3d 30f1 a9be ea8a 9b3d 91a7 5b3d
00000240: bee3 763d 0981 f93b f686 283d fc21 713d
00000250: 979c 9dbe 854d a53d 15d3 ef3d add5 d0bd
00000260: eb1f 843d 5883 10be 4558 03be d120 083e
00000270: 670d 60be 3646 9c3e e08d db3c f958 37bc
00000280: a297 14bf 6987 4d3c 83fd 0c3d 3f06 683e
00000290: acb5 013e 6d2b 413e 860b ebbd 03d8 e63d
000002a0: 4e2c 8cbc ec97 833e 215b d5bd c9c8 623e
000002b0: 0848 dd3c 0d27 0fbe 3294 79bc 6c9d 633d
000002c0: 3d41 0e3e ef12 f4bd b7f0 c5bc ce2f 1e3d
000002d0: e8bb 30be 523b 2b3e 8f8e e5bd 033e 163e
000002e0: a901 fa3b df15 b63d d1a3 abbd affe 9c3d
000002f0: c7f5 9ebd 817b 013b 98bd debd fe30 a8bd
00000300: 5a5e 23be 4d03 9fbd d80b 533d 5a06 adbd
00000310: cfe1 a43c 0c7a 4e3d 2d33 fe3d 588f a33b
00000320: 6a0b 213e 85f2 c2bc 0726 4e3e c4ef 163e
00000330: 907a 413d af9e 2ebd 732c 8b3d 80fe bbbd
00000340: d882 abbd 7bee d03d ebd6 0bbe 5ba8 c4bd
00000350: 45d8 eeb9 2509 b8bb da42 4a3e 47d2 bcbd
00000360: f1d0 8b3d 54d4 76bd 09a5 bebc 4664 0bbe
00000370: 1221 2c3c a581 a83d 2370 9fbd d910 11be
00000380: d843 b3bd ed2d cbbd 3628 3e3c 5b86 a23d
00000390: 8a84 92bd 7e65 bcbd 79cd cbbd fb8b 1e3e
000003a0: 2db2 5fbe 8825 093e ffe8 d33d 50fe 5c3e
000003b0: 3d74 a4bc 4570 5abd 91ec e7bd ba7e 6a3e
000003c0: fc68 8dbd e2c8 ce3c d3b3 85be b498 20be
000003d0: e1cf bebd 0a1d a33d 66b0 823c d67d aabd
000003e0: 3e05 fbbb 2629 013d 1e5c 85bd d47e ef3c
000003f0: ed0b afbe eeee a63b 891c 12be 88c8 7d3e

lstm.weight_hh_l0 f4 [80, 20]
0.3099405 0.4641854 0.3842049 -0.40826455 0.06892823 -0.2643124 0.41324735 -1.0579511
0.64635307 0.47875345 0.038430978 0.28666592 -0.2578445 -0.13319412 0.58608645 0.46275428
-0.046670195 0.36252257 0.4046776 -0.7086969 -0.040248413 -0.21973947 -0.06865466 0.5973487
0.21351068 -0.55282813 0.17052041 -0.1975004 0.45078334 -0.040475186 0.44145617 -0.4394858
-0.9668118 0.56462103 0.28570455 0.16892338 0.024761308 -0.3346991 0.8046225 0.03960598
0.98194003 0.05360844 -0.18471645 -0.27447802 0.12042192 -0.30198294 0.6251715 -0.65501326
0.20044744 -0.42568395 -0.06440006 -0.5926712 -0.7907888 -1.1469722 -0.42244753 0.41354066
0.30166966 -0.6786259 -0.03378642 -0.7127143 0.90684557 0.64291364 0.44305322 0.034426115
0.6317834 -0.15656523 0.10490306 -0.5255847 1.2940747 0.64761734 0.13905117 -0.05162445
-0.2319817 0.53977036 -0.5059549 -0.11279722 -0.30560422 -0.019985873 0.8719899 -0.22125389
-0.17132267 -0.4244568 -0.5406425 -0.37290236 -0.23641995 -0.066295855 0.6090201 -0.7132022
-0.43533516 -0.36317852 0.18382613 0.30453572 -0.5148367 -0.3038333 0.21599682 0.11664413
-0.4836812 0.052326273 0.6634014 0.095252156 0.1399224 -0.26814362 -0.6455418 0.17724194
-0.26878396 -0.10908308 -0.35689536 0.40481853 0.3815696 0.49368197 -0.49686235 0.6557053
0.20677629 -0.86014485 0.06191292 -0.75263137 -0.24685618 0.3800011 -0.2111398 -0.15078342
0.10593164 0.031646326 -0.6696378 -0.051180728 0.2774645 0.57566375 -0.08528228 0.42742574
0.3611821 0.6432123 -0.67672646 -0.051297568 -0.11713609 -0.4317347 -0.17990243 -0.81071836
-0.62799 0.5124239 0.07574426 -0.15867507 -0.15388227 -0.4511368 -0.21596432 0.74986607
0.76350427 0.18858965 0.2150789 -0.04729567 -0.012537676 0.44243428 -0.18852367 -0.501779
-0.024169125 -0.0887398 -0.26527745 -0.44812027 -0.29590085 0.3525134 -0.71818924 0.2768332
0.31778187 -0.054158308 -0.46212438 -0.25682488 0.6537453 -0.10896808 0.41605487 -0.3939365
-0.15165961 -0.3160479 0.16274902 -0.090422586 -0.63659024 -0.12912439 1.0574888 -0.119482286
-0.20700419 -0.073383525 0.19372046 -0.36492476 0.67895716 0.42482972 0.5721376 0.13695046
-0.19259219 0.025900552 0.24475856 -0.1309014 0.3098493 0.23944859 -0.076102175 0.06344376
-0.42307457 -0.98894125 -0.2439547 -0.1749825 0.07421359 0.48280212 -0.062472712 -0.36693844
0.22406681 -0.115335256 -0.3331981 0.036668327 0.0953615 0.22450931 -0.07450532 -0.15561424
-0.15064028 0.19452734 -0.057218224 0.15599792 0.0013382033 -0.2105664 -0.4176879 -0.13137408
-0.7464828 0.21236034 0.067415215 -0.7956584 0.27333164 0.52383476 0.3401987 -0.64668894
0.11484538 -0.028084805 0.070566535 -0.3906651 0.26451796 0.17863518 0.15393445 0.096617974
-0.63029546 -0.56569725 -0.4198405 -0.36156723 -0.5064806 0.06069265 0.48054898 -0.86625826
-0.76850045 -0.014037263 0.17598599 -0.40918994 -1.1197876 -0.3454382 0.3198915 -0.35279602
-0.37059656 -0.29398397 0.6049131 0.8609995 0.74177366 -0.46271417 -0.41553274 -0.08486767
00000000: 85b0 9e3e b5a9 ed3e 81b6 c43e 0d08 d1be
00000010: 3e2a 8d3d f453 87be 2895 d33e f16a 87bf
00000020: 6577 253f 2c1f f53e cd69 1d3d e0c5 923e
00000030: 3204 84be 0a64 08be c309 163f 21ee ec3e
00000040: 3f29 3fbd 8f9c b93e e731 cf3e 296d 35bf
00000050: 85db 24bd 6203 61be d09a 8cbd d8eb 183f
00000060: 8ba2 5a3e 2586 0dbf e79c 2e3e 8b3d 4abe
00000070: 13cd e63e 4fc9 25bd 8b06 e23e 4804 e1be
00000080: fa80 77bf 018b 103f de47 923e 40fa 2c3e
00000090: 3ad8 ca3c ae5d abbe bdfb 4d3f e139 223d
000000a0: 6c60 7b3f 8694 5b3d 4f26 3dbe 6288 8cbe
000000b0: c59f f63d 829d 9abe 3d0b 203f f3ae 27bf
000000c0: 1842 4d3e 3ff3 d9be 2ee4 83bd 4db9 17bf
000000d0: 2371 4abf fccf 92bf 0b4b d8be 9abb d33e
000000e0: 7274 9a3e 6dba 2dbf a163 0abd 7274 36bf
000000f0: 0827 683f fd95 243f dfd7 e23e 6602 0d3d
00000100: 8fbc 213f a352 20be 6ad7 d63d b88c 06bf
00000110: 3da4 a53f 40ca 253f 6e63 0e3e 2974 53bd
00000120: 9c8c 6dbe 642e 0a3f 4386 01bf 3b02 e7bd
00000130: 2878 9cbe 6ab9 a3bc bb3a 5f3f 6190 62be
00000140: 366f 2fbe 6752 d9be 8c67 0abf 0fed bebe
00000150: 1218 72be 1fc6 87bd bee8 1b3f 6b94 36bf
00000160: 40e4 debe 89f2 b9be eb3c 3c3e 1bec 9b3e
00000170: 57cc 03bf 0a90 9bbe 452e 5d3e 1ee3 ee3d
00000180: 10a5 f7be 1354 563d add4 293f 9013 c33d
00000190: d147 0f3e 1f4a 89be 3a42 25bf e97e 353e
000001a0: 0d9e 89be f366 dfbd fdba b6be 6044 cf3e
000001b0: 175d c33e e2c3 fc3e be64 febe 4ddc 273f
000001c0: 2abd 533e 7432 5cbf 6798 7d3d 73ac 40bf
000001d0: dec7 7cbe 818f c23e 0835 58be f866 1abe
000001e0: b0f2 d83d 949f 013d 626d 2bbf e2a2 51bd
000001f0: d40f 8e3e b35e 133f 7aa8 aebd 8cd7 da3e
00000200: dcec b83e 90a9 243f f23d 2dbf 661d 52bd
00000210: 0ce5 efbd 550c ddbe 5838 38be 3d8b 4fbf
00000220: f4c3 20bf 362e 033f ce1f 9b3d b87b 22be
00000230: 5093 1dbe 67fb e6be c025 5dbe 39f7 3f3f
00000240: 0475 433f a51d 413e a53d 5c3e 1bb9 41bd
00000250: d36a 4dbc bf86 e23e 590c 41be 9774 00bf
00000260: 54fe c5bc 36bd b5bd 72d2 87be 0570 e5be
00000270: 5180 97be a37c b43e 40db 37bf 15bd 8d3e
00000280: 4eb4 a23e 1ad5 5dbd 919b ecbe 8d7e 83be
00000290: da5b 273f a82a dfbd 2505 d53e 0cb2 c9be
000002a0: a84c 1bbe 08d1 a1be aea7 263e 7a2f b9bd
000002b0: 94f7 22bf 2f39 04be cb5b 873f 21b3 f4bd
000002c0: e8f8 53be 1a4a 96bd a85e 463e 6bd7 babe
000002d0: 23d0 2d3f 4883 d93e 9c77 123f be3c 0c3e
000002e0: e336 45be 652d d43c fda1 7a3e 040b 06be
000002f0: 91a4 9e3e 0332 753e 75db 9bbd cdee 813d
00000300: 3b9d d8be 412b 7dbf 43cf 79be 9d2e 33be
00000310: 4bfd 973d d731 f73e 63e3 7fbd 5bdf bbbe
00000320: c571 653e e434 ecbd f198 aabe 8731 163d
00000330: e44c c33d c5e5 653e 3f96 98bd 5759 1fbe
00000340: 7241 1abe 2d32 473e a85d 6abd ebbd 1f3e
00000350: a766 af3a b89e 57be 30db d5be ed86 06be
00000360: 7f19 3fbf fd74 593e fd10 8a3d 45b0 4bbf
00000370: 20f2 8b3e 091a 063f 862e ae3e 688d 25bf
00000380: 0e34 eb3d 1b12 e6bc 3085 903d 4205 c8be
00000390: e66e 873e 24ec 363e fea0 1d3e a5df c53d
000003a0: 0b5b 21bf 89d1 10bf 56f5 d6be 571f b9be
000003b0: b6a8 01bf db98 783d 840a f63e 1ac3 5dbf
000003c0: 72bc 44bf 8cfc 65bc ac35 343e 5881 d1be
000003d0: 3355 8fbf 47dd b0be d2c8 a33e aea1 b4be
000003e0: d5be bdbe 1185 96be 96db 1a3f 776a 5c3f
000003f0: e1e4 3d3f dfe8 ecbe b5c0 d4be 1acf adbd

lstm.bias_ih_l0 f4 [80]
-0.8108963 -0.5427832 -0.335365 -1.3936542 -0.20335011 0.1199545 0.3412563 0.14745614
-0.47144353 -0.55540854 -0.28847486 -0.3469273 0.22033441 -0.3207292 -0.34032723 -0.30225137
-0.4659596 -0.3606794 -0.64449966 0.24172822 0.5969064 0.83293587 0.26348057 1.5127339
0.37690696 0.04325498 -0.22177216 0.66164166 0.39490744 0.040790718 -0.18095948 0.083335795
0.3818076 -0.43019974 0.34760153 0.23804735 0.5181309 0.16210508 0.6361069 0.12712678
-0.053122036 -0.16065334 0.22953932 -0.06628048 -0.15714592 0.35297787 -0.21638401 0.4614128
-0.062681705 0.02502979 -0.29434422 0.17876188 0.30790147 -0.23043633 0.05710304 -0.36589152
-0.0037588263 0.07170236 0.05718482 0.24270782 -0.47264802 0.30708063 -0.22649296 0.22780348
-0.042334974 0.31295872 0.2897932 0.08850744 -0.2094396 0.11343568 -0.17487697 -0.25837266
-0.039114952 0.12880097 -0.29328525 -0.1273187 0.48199555 0.121427014 0.018829143 0.035158154
00000000: e696 4fbf d7f3 0abf f6b4 abbe 4363 b2bf
00000010: 033b 50be b4aa f53d 25b9 ae3e befe 163e
00000020: 0c61 f1be 412f 0ebf fab2 93be 74a0 b1be
00000030: 589f 613e 9e36 a4be 5f3f aebe b1c0 9abe
00000040: 4292 eebe f8aa b8be eefd 24bf 9a87 773e
00000050: dcce 183f 493b 553f ede6 863e 44a1 c13f
00000060: f3f9 c03e 222c 313d 3e18 63be 5961 293f
00000070: 4f31 ca3e 2b14 273d 714d 39be f5ab aa3d
00000080: 497c c33e 2443 dcbe d4f8 b13e afc2 733e
00000090: 3aa4 043f e0fe 253e e7d7 223f 862d 023e
000000a0: 7e96 59bd 4f82 24be 5b0c 6b3e 0fbe 87bd
000000b0: dcea 20be 84b9 b43e c593 5dbe 4c3e ec3e
000000c0: 445f 80bd 460b cd3c 49b4 96be 5b0d 373e
000000d0: 43a5 9d3e 80f7 6bbe e1e4 693d 2256 bbbe
000000e0: a456 76bb b0d8 923d a13a 6a3d 6688 783e
000000f0: ecfe f1be ac39 9d3e c5ed 67be 5145 693e
00000100: 7067 2dbd 203c a03e c65f 943e 6443 b53d
00000110: 5677 56be f750 e83d f312 33be 6c49 84be
00000120: 0037 20bd 67e4 033e 7c29 96be d55f 02be
00000130: 1fc8 f63e baae f83d 933f 9a3c ff01 103d

lstm.bias_hh_l0 f4 [80]
-0.7458745 -0.91491514 -0.46769935 -1.4343742 -0.52963686 0.049072158 0.22235982 -0.1879741
-0.35985503 -0.5070039 -0.46360177 -0.2673455 0.109261334 0.049915664 -0.36656988 -0.27852303
-0.69271976 -0.6727377 -0.8962349 0.1620503 0.69332963 0.68568486 0.48012558 1.5853599
0.3860359 0.06262734 -0.20316246 0.34844318 0.47079328 0.24823855 -0.24191324 -0.028550405
0.44397646 -0.45958334 0.18001434 0.00066212506 0.42188683 0.28164503 0.6698464 0.11253645
0.14690518 -0.024932738 0.20205832 0.15047579 -0.43692014 0.40765026 -0.3489449 0.46440685
-0.20334975 -0.15604293 -0.21586917 0.22686441 0.107250564 -0.58829886 -0.006774154 -0.30444953
0.28426954 -0.0020755285 -0.09449228 0.010794004 -0.20719162 0.08941607 -0.09182801 0.23199417
-0.021319896 -0.06546843 0.11486508 0.012417115 -0.15793294 -0.15660648 -0.13831343 0.008190221
0.16554362 -0.0653233 -0.32029924 -0.13606325 0.22411853 0.085236 -0.18593195 0.16741891
00000000: a2f1 3ebf e137 6abf 4a76 efbe 9399 b7bf
00000010: 4896 07bf e3ff 483d 4bb2 633e 487c 40be
00000020: eb3e b8be 02cb 01bf 365d edbe 82e1 88be
00000030: 68c4 df3d 5e74 4c3d 0caf bbbe 929a 8ebe
00000040: 1556 31bf 8a38 2cbf a76f 65bf 84f0 253e
00000050: 0d7e 313f 0b89 2f3f 05d3 f53e 13ed ca3f
00000060: 7fa6 c53e c342 803d d209 50be 2567 b23e
00000070: d10b f13e 3f32 7e3e 1bb8 77be 8ae2 e9bc
00000080: e250 e33e 824e ebbe ae55 383e 7692 2d3a
00000090: 8d01 d83e c733 903e 0e7b 2b3f 8379 e63d
000000a0: 506e 163e be3f ccbc 60e8 4e3e 5316 1a3e
000000b0: ffb3 dfbe 89b7 d03e e8a8 b2be bcc6 ed3e
000000c0: eb3a 50be b8c9 1fbe cf0c 5dbe 254f 683e
000000d0: 2fa6 db3d c19a 16bf b9f9 ddbb cfe0 9bbe
000000e0: c78b 913e 9705 08bb 2b85 c1bd 56d9 303c
000000f0: 0a2a 54be c61f b73d 5310 bcbd e18f 6d3e
00000100: 10a7 aebc 5014 86bd 623e eb3d 2871 4b3c
00000110: 2cb9 21be 735d 20be 09a2 0dbe 4730 063c
00000120: 4484 293e 39c8 85bd 43fe a3be 2a54 0bbe
00000130: 547f 653e 3690 ae3d f264 3ebe dd6f 2b3e

head.fc1.weight f4 [100, 20]
-0.060846183 -0.0049554063 0.034861304 -0.02427333 -0.019621262 0.39139217 0.045751713 -0.15449512
0.012345863 -0.0089981705 0.028367836 0.0331081 -0.020921439 -0.058686595 -0.06445933 0.36767128
-0.0008836518 -0.02691424 0.05703563 -0.6523127 0.058048308 -0.0023538612 0.026729407 -0.014373008
-0.012319885 -0.072218835 -0.056958605 0.28192663 -0.024357107 0.017429108 0.045083106 -0.0065260935
0.01621235 -0.049685456 0.0022764718 1.3734089 0.017128717 -0.047695734 0.037519895 0.07060577
0.011862954 -0.015259431 -0.0013614871 0.011205934 -0.005200984 0.119308926 -0.21752413 -1.4911215
0.0020878764 0.006210682 0.091569446 -0.004017797 -0.01676171 0.0018454439 0.03483464 -0.20512143
0.01930817 0.024470655 -0.020210642 0.09756304 -0.080294736 -0.04719769 -0.07033554 -0.39610454
0.039541423 -0.12126819 0.026708243 -0.020635808 -0.0751754 0.024732295 0.08479913 0.016293464
-0.026669022 0.06793717 -0.026923181 0.06373836 -0.02663452 0.007920663 -0.048435815 0.04515604
0.18536897 -0.024373956 0.10364642 -0.06713595 0.04796563 -0.047890868 -0.17687497 -0.22500376
-0.05569138 0.0035033976 -0.04420827 0.26496425 0.013404807 -0.06289274 0.014572741 0.03924203
0.010394377 -0.094542064 0.0003399201 -0.44538447 0.12190825 0.02034961 0.08564593 -0.027590757
0.015824676 0.23982126 0.07790194 -0.08703268 -0.029841324 -0.007469017 0.11274757 -0.121324025
0.042130984 -0.09937054 0.02349884 -0.28164276 0.04796121 -0.14089057 0.08195876 0.17689782
-0.08807927 -0.16603817 0.07445688 0.14537853 0.074576534 0.022686454 -0.03952628 0.007754125
0.050276257 0.32097274 -0.06519236 -1.4074891 -0.009577797 0.0687268 0.0482168 -0.03160694
-0.016998021 0.07349412 -0.042230234 0.38707072 -0.75484705 0.056463648 0.07371024 -0.07436127
-0.04856195 -0.21942075 0.18031457 -0.21277569 -0.05142269 0.030852303 0.43774322 -0.8738387
0.058707315 -0.08551654 0.01539218 0.13445114 0.06252272 -0.1611151 0.055398423 0.6562018
0.5152784 -0.022755079 -0.08829032 0.05996172 0.03954914 -0.1997386 0.21884567 -0.27207246
-0.103215806 0.003071814 0.0664141 -0.13190348 0.010617561 -0.047528457 0.15483859 0.09239836
-0.024232151 -0.098859906 -0.02364929 0.009112272 0.046963148 0.08779908 0.0858854 0.06608651
-0.019169645 -0.02753473 -0.015505507 -0.15656553 -0.19793136 0.0069023077 0.17806661 -0.08388476
-0.1799565 0.11102433 0.028420042 0.11123068 0.016975401 0.0082960855 -0.052341428 0.37460804
-0.045032866 0.08266429 0.076360986 -0.036928635 -0.013808138 -0.022661725 0.010561567 -0.03775471
-0.10034261 -0.08581661 -0.5478129 0.028333345 0.0011409462 -0.0786332 0.042390034 0.03149542
0.048408825 -0.036667734 0.062000055 0.489709 0.112459555 -0.07178486 0.14289965 -0.021400778
-0.12682582 -0.052765112 0.071237214 -0.03353265 -0.09150024 -0.002802191 0.06360173 -0.18846509
0.049924623 -0.04698837 0.0797222 0.07598271 0.26477912 -0.15328376 0.10847772 0.12550962
0.046587296 -0.0006037672 -0.004462987 0.005637588 -0.0048152297 -0.087489575 1.6599585 -0.049169417
0.021041926 0.011421619 1.3719372 -0.075081356 0.0014978767 -0.04914689 0.00092555076 0.0013542594
00000000: d939 79bd f660 a2bb baca 0e3d ddd8 c6bc
00000010: c5bc a0bc 8e64 c83e 2666 3b3d f833 1ebe
00000020: 4d46 4a3c 106d 13bc aa63 e83c 5c9c 073d
00000030: 7063 abbc 5b61 70bd 4103 84bd 693f bc3e
00000040: dea4 67ba 417b dcbc 319e 693d f7fd 26bf
00000050: 10c4 6d3d 3d43 1abb a1f7 da3c c47c 6bbc
00000060: 58d9 49bc 78e7 93bd 6d4d 69bd b058 903e
00000070: 8e88 c7bc 7dc7 8e3c 10a9 383d d7d8 d5bb
00000080: c3cf 843c fa82 4bbd dc30 153b ddcb af3f
00000090: 8651 8c3c 9a5c 43bd 76ae 193d c299 903d
000000a0: d65c 423c b102 7abc ed73 b2ba 1899 373c
000000b0: 046d aabb 3d58 f43d a5be 5ebe 12dd bebf
000000c0: c1d4 083b fa82 cb3b c388 bb3d b9a7 83bb
000000d0: db4f 89bc d2e2 f13a c4ae 0e3d 5a0b 52be
000000e0: 2b2c 9e3c af76 c83c ca90 a5bc 22cf c73d
000000f0: 9171 a4bd 5d52 41bd 140c 90bd 37ce cabe
00000100: 30f6 213d 755b f8bd 3fcb da3c 6d0c a9bc
00000110: 8ff5 99bd 629b ca3c 2bab ad3d df79 853c
00000120: fe78 dabc a522 8b3d 018e dcbc 4289 823d
00000130: a330 dabc abc5 013c a264 46bd 8af5 383d
00000140: 5dd1 3d3e e4ab c7bc 9344 d43d 937e 89bd
00000150: 9c77 443d 3729 44bd b61e 35be 6367 66be
00000160: a51c 64bd 4299 653b bb13 35bd 65a9 873e
00000170: d69f 5b3c e9cd 80bd 82c2 6e3c 40bc 203d
00000180: 2d4d 2a3c 459f c1bd 4e37 b239 6f09 e4be
00000190: 08ab f93d 3ab4 a63c 2267 af3d 0306 e2bc
000001a0: c0a2 813c b493 753e 0d8b 9f3d 313e b2bd
000001b0: cb75 f4bc a8be f4bb 33e8 e63d bb78 f8bd
000001c0: 8a91 2c3d c882 cbbd a480 c03c 7b33 90be
000001d0: f972 443d 9e45 10be ffd9 a73d b424 353e
000001e0: e862 b4bd e905 2abe d97c 983d 1cde 143e
000001f0: 95bb 983d f1d8 b93c 4fe6 21bd 5116 fe3b
00000200: 7aee 4d3d 8a56 a43e 9283 85bd 9a28 b4bf
00000210: 31ec 1cbc a3c0 8c3d fb7e 453d 4776 01bd
00000220: 6f3f 8bbc 1684 963d 9cf9 2cbd 222e c63e
00000230: a83d 41bf 6d46 673d 65f5 963d b94a 98bd
00000240: e5e8 46bd d5af 60be 62a4 383e dfe1 59be
00000250: 99a0 52bd f8bd fc3c e11f e03e e5b3 5fbf
00000260: 1577 703d 4c23 afbd 7b2f 7c3c 8fad 093e
00000270: e90b 803d 5bfb 24be 75e9 623d d7fc 273f
00000280: 49e9 033f dc68 babc 8ed1 b4bd 6c9a 753d
00000290: 47fe 213d 4788 4cbe 1419 603e 154d 8bbe
000002a0: cf62 d3bd 7d50 493b 1e04 883d b511 07be
000002b0: 47f5 2d3c 33ad 42bd 028e 1e3e 5a3b bd3d
000002c0: 8182 c6bc 1077 cabd 28bc c1bc a44b 153c
000002d0: 6e5c 403d 01d0 b33d afe4 af3d 5d58 873d
000002e0: a909 9dbc 8490 e1bc cf0a 7ebc b752 20be
000002f0: 85ae 4abe c12c e23b 1857 363e c6cb abbd
00000300: 8446 38be b960 e33d 26d1 e83c e9cc e33d
00000310: ff0f 8b3c 4eec 073c f763 56bd a0cc bf3e
00000320: 6274 38bd e54b a93d 2663 9c3d 7b42 17bd
00000330: 873b 62bc 15a5 b9bc 6c0a 2d3c afa4 1abd
00000340: 6d80 cdbd 9ec0 afbd 773d 0cbf 551b e83c
00000350: cd8b 953a 710a a1bd 2ca1 2d3d 5701 013d
00000360: 5548 463d e830 16bd c5f3 7d3d 23bb fa3e
00000370: 3251 e63d f103 93bd 4954 123e af50 afbc
00000380: a1de 01be 3b20 58bd d1e4 913d 8859 09bd
00000390: 7a64 bbbd f7a4 37bb a041 823d fefc 40be
000003a0: c37d 4c3d e176 40bd 6545 a33d d39c 9b3d
000003b0: 2191 873e 6bf6 1cbe 9129 de3d 9885 003e
000003c0: 52d2 3e3d 2246 1eba 403e 92bb 84bb b83b
000003d0: 13c9 9dbb bc2d b3bd 8579 d43f df65 49bd
000003e0: 1e60 ac3c be21 3b3c a39b af3f 41c4 99bd
000003f0: 6754 c43a 404e 49bd a9a0 723a 6881 b13a

head.fc1.bias f4 [100]
-0.42490187 -0.019041633 0.23460074 -0.14534058 -0.31027806 -0.1864378 0.056262173 -0.02348174
-0.11044255 -0.161825 -0.29588914 0.219486 0.1328408 0.28979564 -0.24293034 -0.40984794
0.097533226 -0.07274495 -0.11295464 -0.035529274 -0.07885474 0.19984691 -0.029443288 -0.10856376
0.3444646 -0.3974029 0.05417977 -0.34750643 -0.029669873 0.092854574 -0.10662482 -0.4663225
-0.06674229 -0.2927861 0.11212476 0.16987278 0.018941991 -0.2220671 0.25555125 0.021231826
0.16268231 0.27168646 -0.59510905 -0.056276936 -0.12504482 0.13424064 -0.09248202 -0.014973259
0.011936306 0.23046233 0.32843515 0.23123492 0.40998414 0.11456221 -0.12924609 -0.07677221
-0.033336118 -0.015259647 -0.26866782 -0.42198014 0.34553036 0.12767096 0.18482155 0.03341065
0.13568747 0.07665187 0.1792101 -0.07123679 -0.15008117 0.067849874 0.22124732 0.17337829
0.015658753 0.1611 -0.3561177 -0.011074272 0.0029408429 0.050274108 -0.07684269 -0.0793618
0.46289715 -0.12353659 0.43842953 -0.19734354 0.17931235 -0.13617142 0.12287386 -0.23438893
-0.14990728 -0.1353531 0.121647246 0.20517237 0.047851983 -0.022758797 -0.2838061 0.38500267
0.34114414 0.11597799 -0.10255259 -0.16119981
00000000: bd8c d9be 33fd 9bbc 2d3b 703e 29d4 14be
00000010: c4dc 9ebe 8de9 3ebe 2a73 663d c75c c0bc
00000020: b42f e2bd 74b5 25be c87e 97be f0c0 603e
00000030: 6b07 083e 1860 943e bbc2 78be 97d7 d1be
00000040: 80bf c73d 4efb 94bd c354 e7bd 2587 11bd
00000050: 987e a1bd aba4 4c3e 0d33 f1bc ad56 debd
00000060: aa5d b03e 6578 cbbe 9beb 5d3d 5dec b1be
00000070: 3c0e f3bc 8a2a be3d 1d5e dabd d3c1 eebe
00000080: 2fb0 88bd 0fe8 95be aba1 e53d 21f3 2d3e
00000090: 3c2c 9b3c 8f65 63be 9dd7 823e 5eee ad3c
000000a0: 3196 263e 7d1a 8b3e 1159 18bf a582 66bd
000000b0: c00b 00be 6176 093e 3767 bdbd 6652 75bc
000000c0: 7f90 433c 51fe 6b3e a728 a83e d9c8 6c3e
000000d0: 71e9 d13e 989f ea3d 1659 04be c03a 9dbd
000000e0: 748b 08bd 9903 7abc d48e 89be c80d d8be
000000f0: 5be9 b03e 2dbc 023e dc41 3d3e 9bd9 083d
00000100: a8f1 0a3e a8fb 9c3d da82 373e 98e4 91bd
00000110: e1ae 19be e0f4 8a3d a88e 623e 148a 313e
00000120: c946 803c 66f7 243e 0f55 b6be dd70 35bc
00000130: 28bb 403b 39ec 4d3d b35f 9dbd 7088 a2bd
00000140: db00 ed3e c000 fdbd d679 e03e 6d14 4abe
00000150: a89d 373e 8570 0bbe 4aa5 fb3d a703 70be
00000160: 4b81 19be 019a 0abe 3122 f93d b518 523e
00000170: 7100 443d a870 babc 084f 91be 121f c53e
00000180: 72aa ae3e de85 ed3d 1807 d2bd 9011 25be

head.fc2.weight f4 [30, 100]
0.3258723 -0.50899583 0.69240314 0.45642102 0.091550335 0.5981794 -2.4621012 0.8598868
0.39340538 -0.054456774 -0.034388352 -0.2950841 -0.26745683 0.103185356 -0.2023029 0.61948276
0.16736555 0.040963713 0.10636814 0.7971328 0.8331824 0.98198426 0.649637 1.3004254
0.08698579 0.88117033 -0.0731087 1.1604768 0.62936324 0.72491014 0.08633733 0.15521103
0.88051367 -0.19635946 0.21121171 0.8093951 0.30786365 -0.60719454 0.06835655 -0.119632326
-0.21679136 -0.008828495 0.5825316 1.1814265 0.39994416 0.009972951 -0.18614803 -0.081591405
0.41977766 0.2956265 0.093117714 0.6030868 0.061030883 0.46738204 0.24458912 0.2869961
0.3687909 0.08114675 1.1843017 1.3498962 0.27085373 -1.5660435 0.63207877 0.31227636
0.6392628 0.12233692 0.8847711 -0.10088258 0.03459201 1.1526606 0.71573615 -0.045328826
0.40501487 0.09158179 0.28416452 0.09356834 0.4922021 -0.062321164 -0.5396613 0.29831183
0.0016888073 0.7322645 -0.04012799 -0.39693168 -0.028743457 0.099303536 -0.39513582 0.5829327
0.92615986 -1.8066602 0.55733806 0.6835132 0.11852641 0.25666478 0.46537796 0.09126913
0.50384885 0.25157723 0.020715907 -0.08867808 0.10508481 -0.07633259 -0.10517363 0.1321394
0.014973571 0.13758688 -0.077280365 0.02017858 0.31821772 -0.102733694 -0.063143596 -0.04587864
-0.33425188 0.15292956 0.1339548 0.09779253 0.121330574 -0.025658287 -0.010591814 -0.20118244
-0.03250526 -0.112096734 -0.05459451 0.047483504 0.27991423 -0.27118388 -0.08117766 0.13059382
-0.14612043 0.0023985968 -0.03353163 0.23374574 0.013744233 0.08159999 -0.19432196 0.10920809
0.108531654 0.10487026 0.08649263 -0.40421405 -0.0137446625 -0.04067231 0.19000567 -0.067081645
0.51661426 0.1683466 -0.25981256 -0.021217067 0.09602858 0.12602536 0.021571364 -0.05874739
-0.016261317 -0.3284056 0.20585626 0.069769226 -0.04384557 0.9895555 0.015937978 -0.16901092
-0.049737055 -0.0072895866 0.105656624 -0.17495252 0.03827003 -0.026931837 -0.005866299 -0.024855345
-0.20138428 -0.075702846 0.16282442 0.07711352 0.15196766 -0.31600025 0.17491916 0.08887514
-0.14843737 0.02847914 -0.11978907 -0.10446453 -0.006946019 -0.015918348 -0.034215 -0.17816271
-0.34698108 0.027059367 -0.02450929 0.3981646 0.11019652 -0.053864278 0.018190982 0.17491975
-0.18054697 -0.004134747 -0.015152902 0.07519564 -0.36939374 -0.015119085 -0.029898243 -0.13071951
0.43989244 -0.12506253 -0.007077066 -0.14323762 0.13790537 0.25744233 -0.11231316 0.1172518
0.1279033 0.18147804 0.10104544 0.027156252 -0.19102025 -0.033096187 0.10450254 -0.008803899
0.07070946 -0.19405706 -0.12382489 -0.1531297 -0.004396946 -0.42089736 0.014324576 -0.023907274
0.06168331 -0.027672112 -0.01991527 0.17161387 -0.10975505 0.074659295 -0.02782712 0.18679485
-0.025490843 0.1857926 -0.102085665 0.11539862 0.04973888 0.2897574 0.115136325 -0.55064684
0.031456366 -0.05021412 -0.13761838 -0.15156235 0.1781385 0.04442868 -0.19660202 -0.11153256
0.015311385 -0.013003201 0.013361983 -0.101171054 -0.032959342 -0.2427128 0.13056722 -0.12679815
00000000: bcd8 a63e 8d4d 02bf 5541 313f 04b0 e93e
00000010: be7e bb3d 4922 193f 1193 1dc0 8b21 5c3f
00000020: 6e6c c93e 110e 5fbd cdda 0cbd 4315 97be
00000030: 1af0 88be d852 d33d 7e28 4fbe 6c96 1e3f
00000040: e061 2b3e 91c9 273d 8ad7 d93d e510 4c3f
00000050: 714b 553f 5263 7b3f 9c4e 263f 5774 a63f
00000060: 9b25 b23d 6194 613f 04ba 95bd 818a 943f
00000070: f31d 213f b693 393f a0d1 b03d a4ef 1e3e
00000080: 5869 613f 7412 49be e247 583e 8434 4f3f
00000090: 4ea0 9d3e 1a71 1bbf 85fe 8b3d cb01 f5bd
000000a0: 8efe 5dbe 64a5 10bc ca20 153f fc38 973f
000000b0: 7bc5 cc3e 9765 233c 979d 3ebe 6519 a7bd
000000c0: 19ed d63e 5b5c 973e 80b4 be3d e663 1a3f
000000d0: 85fb 793d b34c ef3e 9275 7a3e 27f1 923e
000000e0: 29d2 bc3e 4430 a63d 3397 973f 66c9 ac3f
000000f0: 57ad 8a3e 1d74 c8bf eacf 213f b0e2 9f3e
00000100: baa6 233f c78b fa3d 5c80 623f 879b cebd
00000110: 5ab0 0d3d 628a 933f 7c3a 373f b8aa 39bd
00000120: 1c5e cf3e 3c8f bb3d 037e 913e c2a0 bf3d
00000130: ea01 fc3e 7a44 7fbd 3e27 0abf 54bc 983e
00000140: f85a dd3a b075 3b3f 3f5d 24bd a13a cbbe
00000150: 6677 ebbc a75f cb3d 3e4f cabe 143b 153f
00000160: d018 6d3f a440 e7bf b5ad 0e3f b9fa 2e3f
00000170: f9bd f23d 9169 833e 0546 ee3e 4feb ba3d
00000180: 3dfc 003f bbce 803e 68b4 a93c da9c b5bd
00000190: b436 d73d 4354 9cbd 4665 d7bd 8d4f 073e
000001a0: b553 753c 93e3 0c3e 2b45 9ebd 8d4d a53c
000001b0: 6fed a23e 0b66 d2bd 6e51 81bd 3eeb 3bbd
000001c0: 1023 abbe 9199 1c3e 722b 093e 7347 c83d
000001d0: 2a7c f83d 5431 d2bc 4a89 2dbc c502 4ebe
000001e0: 3c24 05bd f992 e5bd 7e9e 5fbd 107e 423d
000001f0: eb50 8f3e 9dd8 8abe 7940 a6bd 63ba 053e
00000200: 98a0 15be c731 1d3b 7658 09bd 0b5b 6f3e
00000210: 7e2f 613c e51d a73d 56fc 46be 7ea8 df3d
00000220: d845 de3d 38c6 d63d 0c23 b13d 25f5 cebe
00000230: 4b31 61bc 0298 26bd d990 423e 1a62 89bd
00000240: d540 043f 0d63 2c3e 2706 85be 6acf adbc
00000250: a2aa c43d cb0c 013e 6eb6 b03c 1aa1 70bd
00000260: 7436 85bc c724 a8be fccb 523e 2be3 8e3d
00000270: 6a97 33bd 8253 7d3f 5d90 823c 3311 2dbe
00000280: 15b9 4bbd 7cdd eebb 8062 d83d c126 33be
00000290: 09c1 1c3d 28a0 dcbc 153a c0bb 709d cbbc
000002a0: ae37 4ebe 180a 9bbd 72bb 263e b1ed 9d3d
000002b0: 699d 1b3e c9ca a1be 021e 333e 2b04 b63d
000002c0: f7ff 17be 164d e93c f953 f5bd 80f1 d5bd
000002d0: 6e9b e3bb 3267 82bc 0725 0cbd 4970 36be
000002e0: 81a7 b1be 9bab dd3c b5c7 c8bc 3bdc cb3e
000002f0: b7ae e13d caa0 5cbd 4105 953c 2a1e 333e
00000300: 4ee1 38be c67c 87bb e143 78bc 2c00 9a3d
00000310: 2d21 bdbe 0ab6 77bc 29ed f4bc 56db 05be
00000320: 9539 e13e 6410 00be bce6 e7bb e2ac 12be
00000330: 1137 0d3e 7bcf 833e 7104 e6bd b621 f03d
00000340: 15f9 023e 61d5 393e e9f0 ce3d ca76 de3c
00000350: d09a 43be de8f 07bd 6d05 d63d 3b3e 10bc
00000360: 1fd0 903d e5b6 46be e797 fdbd 08ce 1cbe
00000370: 4214 90bb dc7f d7be a0b1 6a3c 30d9 c3bc
00000380: a3a7 7c3d a0b0 e2bc 5925 a3bc 8cbb 2f3e
00000390: 41c7 e0bd f9e6 983d b3f5 e3bc 2647 3f3e
000003a0: 2cd2 d0bc 6a40 3e3e 4a12 d1bd 1d56 ec3d
000003b0: ffba 4b3d 155b 943e 98cc eb3d 31f7 0cbf
000003c0: 64d8 003d 52ad 4dbd d5eb 0cbe 2933 1bbe
000003d0: f069 363e d9fa 353d 0a52 49be 2f6b e4bd
000003e0: 9adc 7a3c 610b 55bc 38ec 5a3c c532 cfbd
000003f0: 6000 07bd b489 78be 6ab3 053e 60d7 01be

head.fc2.bias f4 [30]
0.303858 -0.02146596 0.029391369 -0.004629445 0.08740862 -0.19338812 0.09189331 -0.09693747
-0.031685963 -0.077993006 0.19676945 -0.40851995 -0.39039925 -0.53109473 -0.47195798 -0.5805118
-0.24499975 -0.28712285 -0.09442385 -0.7540886 -1.0324221 0.56095505 0.12219613 0.5549403
0.15191396 -0.22400542 0.1237742 -0.41362512 -0.83398443 0.612802
00000000: 4793 9b3e 62d9 afbc 2bc6 f03c 99b2 97bb
00000010: 4a03 b33d 8907 46be 8f32 bc3d 2787 c6bd
00000020: 24c9 01bd ccba 9fbd ee7d 493e 8729 d1be
00000030: 69e2 c7be d3f5 07bf 7aa4 f1be 6c9c 14bf
00000040: 37e1 7abe c401 93be 4b61 c1bd f30b 41bf
00000050: 6826 84bf c09a 0f3f f741 fa3d 9110 0e3f
00000060: 558f 1b3e ad61 65be 547d fd3d acc6 d3be
00000070: 0180 55bf 98e0 1c3f
