Project-Run/run_cudalstm_gmm_model/model_epoch021.pt (torch, 40907 bytes, 8 tensors)

lstm.weight_ih_l0 f4 [80, 33]
00000000: f774 423e bdd3 73be f1a6 c43d a20f 003f
00000010: 3d23 db3e 7993 c4bd 41b3 513e ecd9 afbd
00000020: cb25 5bbe ff01 623e 9717 763c ea79 a5be
00000030: a27c 743d 6442 523d 5332 af3d a972 493c
00000040: 425c 293e 7897 86bd 588e a43e c2fa d7bd
00000050: f03f eeba b249 9fbc 6179 22bc a85f b43d
00000060: 9fca 96bc ec65 91bc 4ad5 39be 072b 2c3e
00000070: a49d 9a3d 2010 bfbd c87a 1bbd 207c 86be
00000080: 77dc 1b3e 4edb 1d3e be71 ee3d 0c03 dd3e
00000090: 3fda 16be be1b 38bd d9ab b8bd 4857 a3bc
000000a0: f07b ca3d f36e a23e 6bf9 33be fb84 9d3c
000000b0: 4f9f 873d 70d5 7e3c 86c2 1dbe 3976 9fbd
000000c0: de5a cfbe e182 1c3e 92e7 5cbd b8df 83be
000000d0: 6899 023e 8fa9 3c3d 136d 3ebd f5cb 85bd
000000e0: 418e 5bbe 967a 37be f823 be3d 0a55 03bd
000000f0: 7fff a63c 63a3 f33e e5df a33d 359a 413c
00000100: 0239 e6bb 7356 323b 92a8 d13e be76 85be
00000110: 5ba9 bb3d e5a8 13bd 878d 4f3e c123 b9bd
00000120: e88d b2bd 936d 13be a8a9 193e a557 be3e
00000130: 0c58 89be c8e7 8c3e 2d8c c73d 966c a53c
00000140: aec5 f53c ea69 ac3e f170 1cbe bc37 b5be
00000150: 138e 87be 201e 42be 0332 833e 1c19 523e
00000160: b05d ac3e c97a 90be f2ca 71be 1fc4 24be
00000170: add5 b43c e2d6 453e 7646 af3d 52b1 2d3e
00000180: 887f 07bd e742 3cbd b750 8f3e bdc3 7bba
00000190: 8955 8f3d 356c 893e 03e5 703d de6b 6b3e
000001a0: e798 6c3e f946 f13d ed15 9cbd 8619 203e
000001b0: 5628 4a3c 305a 423e c7b0 24be 0949 203e
000001c0: abd4 c93d f4e3 f03a f753 38bd 2566 553e
000001d0: 2d47 8d3c 9f8d 37be 5a57 36be 249f e33d
000001e0: 8796 89bd e0f1 5f3e 9c8c e93d 8cf3 20be
000001f0: 6189 b8bd f47c 15be 4602 51bd f81f 69be
00000200: 7f52 c33e e01c a23d 509f e7bb c31a 5a3e
00000210: a7f7 203e 8fc7 0c3e 24d3 413e 52c6 a93d
00000220: 87d3 ecbd 26c8 cabe 8ecc 64be a82b 863c
00000230: 39c0 973d 965c b0be 04a0 a63d 6568 c93c
00000240: 727e 433d 798f 3a3c f431 413d 0d38 983d
00000250: 8196 9fbe fb03 9d3d ba39 d63d 1221 b3bd
00000260: f4c4 b43d 69ab 2bbe c80b 07be 6c80 103e
00000270: 54c7 66be 0f8a 9e3e f924 b83c c7b4 5f3b
00000280: c914 1bbf d10e ed3c 55b3 e93c d27a 753e
00000290: 1f91 173e e68f 2b3e 50b3 c1bd 49da 1e3e
000002a0: f702 babc de05 863e dc64 92bd 51bd 843e
000002b0: 05d9 083d 06d6 1ebe faa2 1b3c fa3f 653d
000002c0: 67e8 5a3e 1cbe cdbd 5606 b7bb 711e 143d
000002d0: 37fd 5cbe 9603 123e 8086 01be c3d9 163e
000002e0: 962b b73c 3ac8 953d 9fc7 94bd b3f2 373d
000002f0: f336 93bd e8f8 313d 230a a1bd cdba bebd
00000300: f0e8 28be 417c 47bd e222 863d 173e 77bd
00000310: e873 55bc 69ac fa3c d36f 273e ee0e dbbc
00000320: dd71 373e 8197 8cbd cc70 6d3e 609d 1d3e
00000330: 8f20 b63d b01b 36bd 6c77 753d 9a04 a7bd
00000340: bc6d 95bd be76 f23d d611 1fbe d755 03be
00000350: 8adb 123c 2ee3 c7bc 3d66 2d3e c444 0dbd
00000360: 0288 b63d 54d6 46bd b852 48bd 9789 1ebe
00000370: c343 a63b 096c 033e 80e6 62bd f7e7 febd
00000380: c6fe bfbd 1fa4 f7bd 4280 793c 1f48 5a3d
00000390: ed5e 51bd 3ddc dabd a31a b4bd 21da 4f3e
000003a0: ed97 56be 42c6 c03d 7dc3 173e d138 563e
000003b0: 7f6b 71bd 7fd7 0dbd 06b2 fdbd 3193 663e
000003c0: b7a1 e6bd 4ce0 6e3d 84f6 91be 1276 eabd
000003d0: ced7 0ebe 3821 e63d 49d8 173b 9436 ccbd
000003e0: ba87 713d 7df5 203d e1a7 a3bd 1480 3bbc
000003f0: 5fe7 c6be 07b4 163d 3737 fabd 9ff8 6f3e
0.18989931 -0.2381124 0.09602154 0.50023854 0.42800322 -0.09598441 0.20478536 -0.08586487
-0.21401136 0.22071074 0.015020273 -0.32319576 0.05968917 0.051332846 0.085545205 0.0122954035
0.165391 -0.06571859 0.3213985 -0.10545875 -0.0018177014 -0.01944432 -0.009916634 0.088073075
-0.018407164 -0.017748795 -0.1814777 0.16813289 0.07549599 -0.093292475 -0.03795889 -0.26266575
0.1522082 0.1541569 0.11642788 0.43166387 -0.14731692 -0.044948332 -0.09017152 -0.01993908
0.098869205 0.31725273 -0.17575614 0.01922845 0.066221826 0.015553817 -0.15406236 -0.07786221
-0.40499014 0.15284301 -0.05393178 -0.2575662 0.12753832 0.04606014 -0.04649074 -0.06533042
-0.21440984 -0.17917857 0.09284204 -0.03206352 0.020385502 0.47585592 0.08001689 0.011816551
-0.007025839 0.0027212172 0.4094892 -0.26067156 0.09163161 -0.036049742 0.20268832 -0.09040023
-0.08718473 -0.14397268 0.15006125 0.37176242 -0.26824987 0.27520585 0.09743533 0.02019338
0.030001488 0.33674556 -0.15277459 -0.35394084 -0.26475582 -0.18956804 0.25624093 0.20517391
0.33665228 -0.28218678 -0.23612574 -0.1609044 0.022074545 0.19320253 0.08558361 0.16962174
-0.033080608 -0.04596224 0.27991268 -0.00096040574 0.069987364 0.26840368 0.058812153 0.22990367
0.23105203 0.11781115 -0.076213695 0.15634736 0.012338718 0.18979716 -0.1608306 0.1565286
0.09855016 0.0018378482 -0.04500195 0.20839746 0.017245853 -0.17925118 -0.1780676 0.11114338
-0.06718164 0.21869612 0.11403772 -0.15717906 -0.09010578 -0.14598447 -0.05102756 -0.22766101
0.38148877 0.07915664 -0.007068552 0.21299271 0.15719472 0.13748 0.189282 0.0828978
-0.11563783 -0.39605826 -0.22343656 0.016378239 0.074097104 -0.34445637 0.08135989 0.024585912
0.04772801 0.011386746 0.04716678 0.07432566 -0.31169513 0.07666775 0.10460229 -0.08746542
0.08826628 -0.16764607 -0.13188088 0.14111489 -0.22536975 0.30964705 0.022478567 0.0034134851
-0.6057859 0.02893773 0.028527895 0.23972633 0.14801453 0.16754112 -0.09458029 0.15512957
-0.022706492 0.2617635 -0.07148144 0.25925687 0.03341009 -0.15511331 0.009499306 0.055969216
0.21377717 -0.10046026 -0.005585472 0.036161844 -0.21580969 0.1425918 -0.12648964 0.14731507
0.02235965 0.07313581 -0.07264637 0.04490919 -0.07188215 0.043450266 -0.078632616 -0.09312973
-0.16495109 -0.048702482 0.06549622 -0.060361948 -0.0130281225 0.03059979 0.16351251 -0.026740517
0.17914529 -0.068648346 0.2318756 0.15392065 0.08892929 -0.04446 0.059928343 -0.081551746
-0.07296321 0.118390545 -0.15534148 -0.12825714 0.008963475 -0.02440032 0.16933532 -0.034489408
0.0891266 -0.048544243 -0.04890701 -0.15482174 0.005073996 0.12834181 -0.055395603 -0.124465875
-0.09374766 -0.120918505 0.015228333 0.053291436 -0.05111592 -0.10686538 -0.08794143 0.20298053
-0.20956393 0.09412815 0.14820667 0.20920111 -0.058940407 -0.03462934 -0.12387471 0.22517087
-0.112613134 0.058319375 -0.2850839 -0.114483014 -0.1394951 0.11236805 0.0023169687 -0.099713475
0.05896733 0.039296616 -0.07991005 -0.01144411 -0.38848397 0.03679278 -0.12217563 0.23434685

lstm.weight_hh_l0 f4 [80, 20]
00000000: 3b9a b23e 99a9 f93e cd26 be3e 1a07 d8be
00000010: 0f9c 143d 2802 88be cdc5 d43e 895c 8ebf
00000020: fa38 373f 1505 093f c4a7 833b b4fd a33e
00000030: b11a 7fbe 06f8 ddbd dd03 3f3f 7cb2 de3e
00000040: 9e62 9bbd 0126 f93e e64e ac3e 0045 34bf
00000050: 75d2 0cbe c5af 85be 9b9e 5a3b 7967 1c3f
00000060: 4844 3e3e d03d 04bf 8d03 153e 2caf 3abe
00000070: bc51 db3e e2bd fdbd 5e25 d33e 77b6 c8be
00000080: d9a1 89bf 49fe 1a3f 3d0a 623e 71c6 153e
00000090: 954a afbc 2eeb b1be 39de 593f 3984 16bd
000000a0: 6e44 913f d922 153c e28a 6bbe bdf1 9fbe
000000b0: 5945 fa3d 9ee0 a2be f330 243f 8d8c 2fbf
000000c0: e100 6f3e 2114 08bf a316 c0bd 9fe1 38bf
000000d0: 7069 6abf 8e0d 93bf f39a ddbe 664e dd3e
000000e0: e9ca 8f3e bf7b 3cbf d94c 2bbe 102f 36bf
000000f0: a4ff 6a3f 016d 2c3f 7dcf ec3e 0600 d63c
00000100: 3962 213f 1477 0ebe 204c a23d ce4f 0cbf
00000110: 363f b43f b69f 2f3f 51c8 3a3e dab1 02bd
00000120: 8f7f 7bbe ed3c 103f b71b 1fbf 2698 febd
00000130: 2bf5 8abe 7a62 1e3c 8e01 713f 52e2 65be
00000140: d7b5 69be 8839 e8be cd49 18bf 1d41 dcbe
00000150: cc5f 8abe 0e87 b1bd 33db 1f3f f673 3abf
00000160: a4b5 0dbf 6d61 d3be 56e3 423e eb19 a43e
00000170: 9e4c 07bf bdfb b0be ac33 043e 2f05 043e
00000180: c499 0abf bc4a 8b3d f3d0 393f 7db8 ad3d
00000190: ce8b 743e aa4f 87be 116b 23bf 3249 663e
000001a0: f16f c7be 8165 f2bd 62dc cfbe 68a7 f73e
000001b0: 0886 b93e dd9d 083f 5bd7 0bbf 1cab 213f
000001c0: 735d cd3d b31c 6fbf 13e6 dc3d cfc2 55bf
000001d0: 5579 a1be 340f 8a3e dbf3 43be 1d84 22be
000001e0: 51ba 293e c1f2 db3d e174 33bf 09c6 b8bd
000001f0: f405 6d3e 999a 2c3f b6e6 cebd 583d 083f
00000200: 2643 9d3e 4aad 3e3f 781e 46bf 3885 02be
00000210: eaaf 49be 7399 cfbe fda1 42be 1444 71bf
00000220: a45a 2bbf 6b0b c63e d8b5 093c a783 11be
00000230: 733c fbbd 4e5b 03bf fe72 c6bd bace 453f
00000240: 965f 3d3f 94e1 0c3e e80f 8f3e c0fb f8bd
00000250: ec0b 8f3c 0f6a e23e 1605 23be d5d2 00bf
00000260: dd02 92bd 4daf 3ebc a758 8fbe 2668 d4be
00000270: bc56 81be 8577 863e 14f9 3dbf f7c3 5b3e
00000280: 4883 bb3e 809f fcbd 9032 0abf 61cb a7be
00000290: b985 283f aba0 e1bd 31a9 d73e 4004 cebe
000002a0: ff39 25be 1635 b6be a5fe 233e e126 36bd
000002b0: 3fa6 30bf e7dd 92be a9d4 8b3f 13ed 01be
000002c0: e0b4 4abe f4ac d7bd ad50 453e bdcc cdbe
000002d0: bc38 3f3f 6cac b63e ffd7 243f 85f5 023e
000002e0: a69e 15be 415c 493d e389 613e 74c0 dabd
000002f0: 423a 8f3e 6f0c 3f3e 3879 ffbd 6075 8e3d
00000300: a345 f8be b397 80bf fba5 7fbe 51ac 55be
00000310: e42d c63d a3df 023f 3b45 d7bd 8439 c5be
00000320: 2cd1 823e 9592 ccbd a478 bdbe 97ad 3a3d
00000330: b377 4d3e 543f 6d3e 911e a3bd 9020 15be
00000340: 05c0 06be 492c 5b3e 1e5b 0abd b42b 1d3e
00000350: 46b1 c2bc 8f50 86be f637 c6be e1f5 1cbe
00000360: 5a62 53bf bbb3 823e 546f 9b3d 0a88 5cbf
00000370: d44c 853e 929b 1f3f 5330 c93e 3082 30bf
00000380: 1200 f23d 756f 42bd c332 cf3d eebe fabe
00000390: af2e 863e c006 023e 1708 4c3e ae1e dd3c
000003a0: ddcb 23bf 3afe 26bf de7c b5be 0456 bbbe
000003b0: 315a 06bf 1181 cc3d c8d0 dc3e 8b2c 5cbf
000003c0: ffea 58bf f24c 0bbd 8ed8 993e 2f32 dfbe
000003d0: 4c45 9cbf a2e1 c1be 8ea8 b33e 0972 c1be
000003e0: 0584 e9be 9ba5 91be bddc 283f e7f2 723f
000003f0: e866 3c3f a28e f1be bb85 00bf b6c1 67bd
0.34883294 0.48762205 0.37138978 -0.42192918 0.03628164 -0.26564145 0.4155716 -1.112199
0.71571314 0.5352338 0.004017802 0.32029498 -0.24912526 -0.10838322 0.7461527 0.43495548
-0.07587169 0.48661807 0.33653945 -0.70417786 -0.13752158 -0.26110664 0.0033358696 0.61095387
0.18580735 -0.5165682 0.14552136 -0.18230885 0.42835796 -0.12389733 0.41239446 -0.3920171
-1.0752517 0.6054426 0.22074218 0.1462648 -0.021397868 -0.3474974 0.8510471 -0.03674719
1.1349008 0.009102547 -0.23002198 -0.3123912 0.12220258 -0.31811994 0.6413719 -0.6857384
0.23340179 -0.53155714 -0.093793176 -0.7221927 -0.91567135 -1.1488512 -0.4328228 0.43223876
0.28084496 -0.7362632 -0.16728534 -0.7116556 0.91796327 0.67353827 0.4625205 0.026123058
0.630405 -0.13912612 0.07924676 -0.5480927 1.408179 0.68603075 0.18240477 -0.031907894
-0.24560378 0.56342965 -0.62151664 -0.12431364 -0.27140173 0.009667033 0.94143 -0.22449616
-0.22823273 -0.45356393 -0.5948761 -0.43018427 -0.27026212 -0.08668338 0.62443846 -0.7283319
-0.55355287 -0.41285267 0.19032034 0.32051024 -0.52851284 -0.3456706 0.12910336 0.12892602
-0.5414088 0.06801364 0.72584456 0.08482454 0.23881456 -0.26427966 -0.63835245 0.2248886
-0.38952592 -0.118357666 -0.40597826 0.48369908 0.3623507 0.5336588 -0.5462548 0.6315172
0.1002759 -0.93403167 0.10786071 -0.8350038 -0.31537881 0.26964724 -0.19135992 -0.1587071
0.1657498 0.10739661 -0.7010022 -0.09022147 0.23146802 0.674234 -0.10102598 0.53218603
0.30715293 0.7448317 -0.7739024 -0.12746131 -0.19696012 -0.4054676 -0.19007106 -0.94244504
-0.6693518 0.38680586 0.008405171 -0.14210378 -0.12267389 -0.51311195 -0.09689902 0.77268565
0.7397398 0.13757926 0.27941823 -0.121573925 0.01746174 0.4422154 -0.15919909 -0.50321704
-0.071294524 -0.011638475 -0.27997324 -0.4148571 -0.25261486 0.2626306 -0.7420819 0.21461473
0.36623597 -0.1233511 -0.539834 -0.32772353 0.65829045 -0.11016973 0.4212127 -0.40237617
-0.16135405 -0.35587376 0.16015108 -0.04447067 -0.6900367 -0.28684923 1.0924274 -0.12688093
-0.19795561 -0.10531035 0.19269057 -0.40195265 0.74695945 0.35678422 0.64392084 0.12788971
-0.14611301 0.049160246 0.22025256 -0.10681239 0.27974135 0.18657087 -0.124742925 0.06955981
-0.4849063 -1.0046295 -0.2496566 -0.20866515 0.09676722 0.5112249 -0.105112515 -0.38520443
0.2555021 -0.09988896 -0.37006104 0.045575704 0.20065193 0.23168689 -0.079648145 -0.14563203
-0.13159187 0.21403612 -0.033778302 0.15348703 -0.023766171 -0.26233336 -0.3871457 -0.1532817
-0.8257195 0.25527748 0.075895935 -0.8614508 0.26035178 0.62346756 0.3929468 -0.6894865
0.1181642 -0.047469575 0.10117104 -0.48973793 0.26207492 0.12697887 0.19924961 0.026992168
-0.63982946 -0.6523167 -0.3544683 -0.36589062 -0.5248137 0.09985555 0.43128037 -0.8600547
-0.84733576 -0.034008928 0.3004803 -0.43592975 -1.2208648 -0.37867457 0.35089535 -0.37782314
-0.45608535 -0.2844666 0.6596182 0.9490189 0.7359452 -0.47179133 -0.50204057 -0.05658122

lstm.bias_ih_l0 f4 [80]
00000000: 0047 5bbf d322 12bf 8ba0 bdbe 6163 b7bf
00000010: 94bd 68be 41d5 e13d 912b b93e 339c 273e
00000020: d2dd ffbe ef7c 12bf 1496 9fbe 3cbb c0be
00000030: c5af 453e d4c8 9bbe 4de0 bbbe 0165 a5be
00000040: 2d1a 01bf 30ca ccbe d48d 2ebf 03bd 703e
00000050: 5f4d 1f3f 228d 5b3f 85f2 8d3e 83f7 c33f
00000060: efeb b93e 68e9 213d 5f8a 69be bef9 303f
00000070: bc76 da3e 1475 193d b915 45be 9d41 e73d
00000080: 7d5e cc3e 8407 f0be dedd ca3e 3ddd 8e3e
00000090: f409 093f 786c 3b3e cb24 2a3f d57c 113e
000000a0: 389b 42bd 35cc 21be 174d 6b3e 6ec4 8ebd
000000b0: 2a2b 33be 0b6e b43e cd7a 58be 9e30 fa3e
000000c0: 5e99 86bd 57f8 ce3c 7e17 9ebe 0fee 4c3e
000000d0: 975c ab3e 8640 81be 5fc1 953d fc65 c6be
000000e0: 4213 4d3c 2839 953d f015 653d 9572 713e
000000f0: 40b2 ffbe 88ab 913e 560d 5cbe f712 703e
00000100: 5c9d 7fbd db37 a23e 51e1 8f3e 8194 c03d
00000110: bdc4 51be a84c a63d 569c 48be 21ff 8ebe
00000120: 16da 55bd 0dc6 1e3e 6381 a2be 0822 f0bd
00000130: cba7 f43e 9a1f ef3d 2d81 b23b f4d2 93bb
-0.8565521 -0.5708439 -0.37036547 -1.4327203 -0.22728568 0.11027003 0.3616605 0.16368179
-0.49973923 -0.57221884 -0.31169188 -0.37642848 0.19305332 -0.30426657 -0.36694565 -0.32303622
-0.50430566 -0.39998007 -0.6818516 0.23509602 0.62227434 0.85762227 0.2772409 1.530991
0.36312816 0.039529234 -0.2280669 0.69131076 0.42668712 0.03746517 -0.19246568 0.112918116
0.3991584 -0.46880734 0.39622396 0.27903166 0.5353081 0.18303096 0.6646239 0.14207776
-0.04751131 -0.15800555 0.22978626 -0.0697106 -0.17496935 0.35240206 -0.21140595 0.48865217
-0.06572221 0.025264902 -0.30877298 0.20012687 0.33469078 -0.2524454 0.07312273 -0.38749683
0.012516798 0.07286292 0.055929124 0.23578866 -0.4994068 0.2845118 -0.21489462 0.23444735
-0.06240593 0.3168324 0.2810159 0.09403325 -0.20485206 0.0812009 -0.19590887 -0.27929023
-0.052209936 0.15505238 -0.3173934 -0.11725241 0.47784266 0.116759494 0.005447528 -0.0045112316

lstm.bias_hh_l0 f4 [80]
00000000: bca1 4abf dd66 71bf e2b0 00bf b199 bcbf
00000010: bbb6 0dbf f754 213d 5997 783e d3de 2fbe
00000020: a5bb c6be b018 06bf 5040 f9be 4afc 97be
00000030: 54e5 a73d 0ef1 873d fa4f c9be e23e 99be
00000040: 4927 3bbf 4f48 36bf 8dff 6ebf f125 1f3e
00000050: 90fc 373f e4da 353f 9dde fc3e 5243 cd3f
00000060: 7b98 be3e a842 713d f37b 56be c397 c13e
00000070: 9fa8 003f 7aca 7a3e febf 81be 8d41 873a
00000080: 1633 ec3e df12 ffbe e21f 6a3e cb96 2a3d
00000090: 1fcd e03e 90ea 9a3e f2c7 323f 228c 023e
000000a0: 0d2d 1c3e 548f b6bc 1c29 4f3e 4493 163e
000000b0: 3bd4 e8be 106c d03e 5b1c b0be 0eb9 fb3e
000000c0: bf57 53be 468c 1fbe 39d3 6bbe d82f 7e3e
000000d0: fd41 093e 163d 1cbf f479 173c a9f0 a6be
000000e0: 10e1 993e e8e5 6fba 6217 c4bd fef1 7d3b
000000f0: 7390 6fbe c6e7 883d f24f a4bd 875d 743e
00000100: 7d89 29bd 354b 7cbd 3f45 d93d 50fd 923c
00000110: 9306 1dbe 7a5f 41be 6c2b 23be 8887 50bc
00000120: 851b 1c3e 5d0a 20bd 2a56 b0be 5a05 01be
00000130: 4a3e 613e 1201 a53d f118 4cbe a3d0 023e
-0.7915304 -0.9429758 -0.502699 -1.4734403 -0.5535695 0.03938767 0.24276485 -0.17174844
-0.38815036 -0.5238142 -0.4868188 -0.2968467 0.08198038 0.066377744 -0.3931883 -0.29930788
-0.7310682 -0.71204084 -0.9335869 0.15541817 0.71869755 0.71037126 0.4938859 1.603617
0.37225708 0.05890146 -0.2094572 0.37811098 0.50257295 0.24491301 -0.2534179 0.0010319218
0.46132725 -0.49819085 0.22863725 0.041647714 0.43906495 0.30257082 0.6983634 0.12748769
0.1525156 -0.022285141 0.20230526 0.14704615 -0.4547442 0.40707445 -0.34396634 0.49164623
-0.20638941 -0.15580854 -0.23029794 0.24822938 0.13404079 -0.6103071 0.0092453845 -0.32605484
0.30054522 -0.0009151385 -0.095747724 0.0038748975 -0.23394947 0.06684832 -0.08023061 0.23863803
-0.041390885 -0.06159516 0.10608911 0.017943054 -0.15334539 -0.18884078 -0.15934533 -0.012727626
0.15244873 -0.039072383 -0.34440738 -0.12599698 0.21996418 0.08056845 -0.1993139 0.12774901

head.fc1.weight f4 [100, 20]
00000000: e6f6 41bd 761a cdbb 025e 8a3a 66fa bbbb
00000010: 158d 3fbc 921d bd3e de72 9f3d eb0c 3cbe
00000020: 517a 14bc b667 4dbd a176 b93d 0fee 6f3c
00000030: 4e88 54bc 2c1d 70bd 44d5 a7bd c16d b13e
00000040: bff9 453b 354b 17bd fd5b 093c ace1 35bf
00000050: 507a dd3c 8809 63bb 7620 173c e823 be3a
00000060: 8ba0 92bb 51a3 88bd 4964 48bd d6aa 8e3e
00000070: 3dcf 8ebb f8c8 113c 31f2 ec3c 953c 03bc
00000080: 7909 1b3c 422c 81bc dfc6 443c 448e c43f
00000090: a3fc bd3b 42af 88bc 9f80 e53c d510 793d
000000a0: 5db9 da3c 2f59 eeba 72ef 3e3c 8657 eb3b
000000b0: cfde 0f3c e0fd 043e 03e1 5fbe 7506 d7bf
000000c0: ce7b 64bb 189b 403b 332b b43d 9637 82bc
000000d0: f95e 0abc fa66 1fbc 7e60 803c 700b 53be
000000e0: 7ab0 8f3c 2ce3 233c d7d7 063c 7ebe a73d
000000f0: 8bf3 febc d953 99bc de9d 0dbd b967 fabe
00000100: 8c0b 883d 422f 03bd 339a 173d 183e 9bbd
00000110: 4fa5 1ebe 8b87 c1bc 8608 243d 9bde f93b
00000120: 2e50 a4bc 6823 623d 5a62 693d a3fb d43d
00000130: 075e 01bc 7b32 2f3c b2e3 adbc 8950 7c3d
00000140: 05e3 073e 89aa 2cbc da42 933d dc74 adbd
00000150: 142d 303d 600d 523c 31de 2abe 2024 88be
00000160: 684a 62bb a070 a83b 4cc6 ad3d b74a a73e
00000170: 6099 95bc a29f b5bd 7c71 0dbd 4cda 6c3c
00000180: 162d 12bd 30b3 01be 6570 473a 0cc9 febe
00000190: 7f71 0b3e d80d a13c 27d6 bd3d cf38 9bbc
000001a0: 7872 62bc a76d 4e3e a408 3c3d ce1b 80bd
000001b0: 52d2 ddbc 50b9 db3b 172f 043e b0f0 b7bd
000001c0: e620 593c a84a 10be e10d 7e3c 1f10 83be
000001d0: f994 203d 53ce 0dbe 84ab a63d 3d85 3e3e
000001e0: 724a bcbd 90bb 4fbe aba7 1d3c 3457 db3d
000001f0: 5dce 963d b247 3f3c ceed 7ebb 31fe 233c
00000200: 59e6 bc3d d82f 913e 2a6b 4fbd 8f28 bbbf
00000210: af53 5fbd c695 7c3d 1736 743d f31c eebc
00000220: 8265 95bb 78e7 503d 8aab a6bd cb00 e43e
00000230: 6ee0 47bf 9060 e03d 64f3 d43d e9a6 a6bd
00000240: ca57 14bd ddf4 87be 43d3 103e 581c 5dbe
00000250: 9f66 69bc ebf6 e13c 8772 0e3f 2a1f 90bf
00000260: eeaf b03d bfe6 a0bd b8cc 8b3d d418 433e
00000270: f17e 883d d856 febd 8bdc be3d 1c4e 3e3f
00000280: 93c7 143f 955f 91bd 02e6 a2bc a655 493c
00000290: 822e 653c ba03 88be b924 743e 83fd 82be
000002a0: f8d7 bebd 6358 743d 101c 143d 5c62 a2bd
000002b0: 5d67 65bb 88b1 9bbd 90a8 4c3e 297f c03c
000002c0: a5a0 69bc 5846 7cbd 42f8 ecbc dc21 b93c
000002d0: 3ede 003d 4516 ab3d 843d 453d 26fb 883c
000002e0: 1c18 523d 46de 8abc c1cc fcbc 1b87 d0bd
000002f0: 416f 6cbe 9167 17bd 2bc1 fd3d cfbb 45be
00000300: 1afc 32be 37f4 143e 62aa bd3d b906 ad3d
00000310: e847 243d 3ca5 6fbd 2dca 89bc 18ec ea3e
00000320: c7ca 4fbd a993 553d 412c 743d 2747 b3bc
00000330: a50f 00bd ff5d 1bbd 2c2a e03c f5d1 cfbc
00000340: a089 e4bd c246 4cbd 3f38 0fbf 2950 9b3d
00000350: 2b84 ce3b 4548 8bbd b3c4 2e3d 67ea da3c
00000360: fd63 e13c 3b3b 28bd bb00 4c3d f37e 0e3f
00000370: 550b ee3d 3837 66bd 4452 f03d d404 15bd
00000380: b7ef 04be cd7f 28bd 21f7 fa3c 9d38 1cbc
00000390: 6b12 cdbd 7a84 f7bc 13b4 4e3d 90d4 27be
000003a0: 246b 2c3d ea09 cabd 31d2 833d f54e 863d
000003b0: 707e 7a3e 1eff 50be 6059 e73d 593f b23d
000003c0: bdc9 b0bc b2fb ba3c e94c f3bc 064b cdbc
000003d0: 3d8b a8bc eb03 b0bd e073 f13f 871c 80bd
000003e0: d4f9 b7bc c449 2f3b b003 a73f 0751 abbd
000003f0: 5c14 5ebc 1108 7dbc fb00 73bc e0c1 2e3d
-0.0473546 -0.006259258 0.0010556581 -0.005736637 -0.011691351 0.36936623 0.07785581 -0.18364303
-0.009062366 -0.050147735 0.0905583 0.01464416 -0.012971951 -0.05862157 -0.08194974 0.34654048
0.0030208675 -0.036936957 0.008383748 -0.7104747 0.027035862 -0.0034643132 0.009224048 0.001450655
-0.0044747046 -0.06671775 -0.048923764 0.27864712 -0.004358201 0.008898012 0.02892408 -0.008010049
0.009462708 -0.015768174 0.012010305 1.5355916 0.005797939 -0.016685132 0.028015433 0.060807068
0.026699716 -0.0018184538 0.011653768 0.0071820645 0.008781149 0.1298747 -0.21863179 -1.6798846
-0.0034863832 0.0029389318 0.08797302 -0.015895646 -0.008445495 -0.009729141 0.015671011 -0.20609832
0.017540205 0.010002892 0.008230171 0.081906304 -0.03112199 -0.01871674 -0.034574382 -0.4890726
0.066428274 -0.03202749 0.03701229 -0.07580203 -0.15492748 -0.023624202 0.04004719 0.0076254136
-0.020057764 0.055209547 0.05697856 0.103995584 -0.007895953 0.010693188 -0.021226738 0.06160024
0.13270195 -0.010538706 0.07190485 -0.08469555 0.04301174 0.012820572 -0.16686322 -0.2659006
-0.0034529213 0.005140379 0.08485088 0.3267419 -0.018261611 -0.08868338 -0.034532055 0.014456343
-0.03568753 -0.12666011 0.00076079956 -0.49762762 0.13617514 0.019659922 0.09269362 -0.018947987
-0.013821237 0.20159017 0.045906678 -0.06255303 -0.027077828 0.0067054406 0.12908588 -0.08981454
0.0132524725 -0.14090979 0.015506239 -0.25598237 0.03920457 -0.13848238 0.08138183 0.18605514
-0.09193887 -0.20286393 0.009622495 0.10709992 0.073635794 0.011674808 -0.0038899067 0.010009334
0.09223623 0.28356814 -0.05063931 -1.4621753 -0.054523166 0.061666273 0.059621897 -0.029066538
-0.00455922 0.051001996 -0.08138187 0.44531855 -0.7807683 0.10955918 0.103979856 -0.08137304
-0.036216535 -0.26554003 0.1414309 -0.21592844 -0.014245658 0.02758356 0.55643505 -1.125951
0.08627306 -0.07856511 0.068261564 0.1905244 0.06664837 -0.12418908 0.09319409 0.74337935
0.58117026 -0.07098309 -0.019885067 0.012288487 0.013988139 -0.26565343 0.23842134 -0.2558404
-0.093185365 0.059654605 0.036159575 -0.07928917 -0.0035004236 -0.07602221 0.19986176 0.023498135
-0.014259492 -0.061590523 -0.028926972 0.022599153 0.031461947 0.08353857 0.04815437 0.01672132
0.051292524 -0.016951691 -0.030859353 -0.10182019 -0.23089315 -0.036964003 0.123903595 -0.19309925
-0.17478982 0.14546286 0.092610136 0.08448548 0.040107638 -0.05850719 -0.016820038 0.4588325
-0.050730493 0.052142773 0.059612516 -0.021884514 -0.03126492 -0.03793144 0.02736386 -0.02536867
-0.111590624 -0.049872167 -0.559452 0.07583649 0.0063023767 -0.06800894 0.042668056 0.0267231
0.027513498 -0.04107211 0.049805384 0.5566246 0.11623255 -0.056205004 0.11734441 -0.036381558
-0.12982069 -0.041137505 0.030635418 -0.009534982 -0.100132786 -0.030214537 0.0504647 -0.1638968
0.042094365 -0.09865172 0.06436575 0.065580286 0.24462295 -0.2040982 0.11296344 0.08703489
-0.021580571 0.022825096 -0.02969976 -0.025060188 -0.020574206 -0.08594497 1.8863487 -0.06255441
-0.022457995 0.0026746849 1.3048 -0.08365064 -0.013554659 -0.015443818 -0.014831777 0.042665362

head.fc1.bias f4 [100]
00000000: 4800 00bf 683e 2039 2be5 7c3e 6522 79be
00000010: ffdc aebe 46e5 6cbe d94b 673d 67e5 5dbd
00000020: 3303 c7bd d758 6dbe 28ec a6be e2fb 4d3e
00000030: 85ab f83d ed16 953e 16d5 99be cf86 e6be
00000040: 9423 d43d b0aa f6bd 4424 dcbd ef52 00bd
00000050: b197 a7bd fc4e 4f3e c34e cfbd d1f9 ebbd
00000060: 6d16 b33e 0c59 e4be da30 863c 4837 c6be
00000070: 02a3 d8bc b67a 543d b9d7 1ebe 1e3a 00bf
00000080: 1e50 3bbd 8f11 a8be 3e9e f03d 0ccc 3b3e
00000090: b5e7 e5bc 64f7 59be 9d22 843e 70b3 5f3c
000000a0: 7de4 ef3d c850 843e 9fdb 24bf ef2e 93bd
000000b0: 12bd 01be 7f63 013e 3c8d bfbd e858 91bd
000000c0: ea43 d43a bf0a 703e a81c 9f3e 727d 583e
000000d0: 52ed cb3e d884 f23d 225a 04be 45e0 e3bd
000000e0: 4c64 08be 1e7a bbbc 301d 92be 3c69 dfbe
000000f0: 5b34 ab3e 0353 a83d 791f 5b3e eaa2 123d
00000100: d470 953d dce4 423d 7d4c 563e 99f0 b9bd
00000110: 32bb 13be 00f8 903d dabe 6b3e 3d40 273e
00000120: 2de9 873d e001 2c3e c1a9 babe d31d b8bc
00000130: c946 c3bb e45d 29bd bcfb b8bd 6ca6 c2bd
00000140: fcff fd3e e935 04be 68bf dc3e 827b 42be
00000150: 5722 3a3e cb35 3dbe c6ed e33d da10 7dbe
00000160: 3de5 29be 29d5 2ebe 1da2 60bc 155e 633e
00000170: b644 5f3d e108 b7bd e341 89be 483f ca3e
00000180: 8b20 b53e a33f e03d 3fd5 ddbd 19f6 31be
-0.5000043 0.00015282037 0.24696796 -0.24329527 -0.34152982 -0.23134336 0.05646882 -0.054173853
-0.09717407 -0.23178421 -0.32602048 0.20115617 0.1214209 0.29119053 -0.30045384 -0.45024726
0.103583485 -0.12044275 -0.107491046 -0.03132909 -0.0818323 0.20244974 -0.101224445 -0.11522258
0.34978047 -0.44599187 0.016380716 -0.3871405 -0.026444916 0.05187484 -0.15511979 -0.5008868
-0.045730703 -0.32825896 0.11748932 0.18339556 -0.028064588 -0.21285778 0.25807658 0.013653621
0.117135026 0.2584288 -0.64397615 -0.07186686 -0.12669781 0.12635611 -0.0935311 -0.07097036
0.0016194556 0.234416 0.3107655 0.21141604 0.398295 0.11841744 -0.12925008 -0.111267604
-0.1331951 -0.022885378 -0.28537893 -0.43634975 0.33438382 0.08218958 0.21398725 0.0357999
0.07296911 0.04758154 0.20927615 -0.090790935 -0.14426878 0.07078552 0.23022023 0.16333099
0.066362716 0.1679759 -0.36457637 -0.022475159 -0.005959366 -0.041349307 -0.090323895 -0.09504399
0.49609363 -0.1291119 0.4311478 -0.18992427 0.18177162 -0.18477552 0.11129336 -0.2471346
-0.16591354 -0.17073502 -0.013710526 0.22203858 0.054508887 -0.089372404 -0.2680808 0.39501405
0.3537639 0.10949638 -0.10831689 -0.17379035

head.fc2.weight f4 [30, 100]
00000000: 4bf9 bb3e fb58 1cbf f605 3a3f 120f 163f
00000010: 6630 f73d 3c74 1e3f 1c62 32c0 ee5c 8b3f
00000020: f0ed b33e 0d01 5abe 339f 2abe e0b1 a0be
00000030: 610e 85be a87e ce3d 668a b9be a96e 363f
00000040: ba3a 5b3e 1d48 cb3d 7937 8a3d 276f 573f
00000050: 87e0 563f 5ccc 823f c5c5 173f 4223 9b3f
00000060: 66ce 343d ed4b 7a3f a80f 14be 04b5 8f3f
00000070: 85fd 0c3f 0322 4e3f 23df c9be 3b54 34bd
00000080: b78f 733f c464 8ebe 7891 323e 9a5c 6a3f
00000090: 1a2b 873e c1bd f8be c711 ae3d 79f8 77bc
000000a0: a19b 82be 2a41 94bb 3e42 1e3f d276 9b3f
000000b0: dc01 f23e f7ed 70bb 2678 dbbd 65d4 34bd
000000c0: 06a8 cc3e d2ac 903e 541c e03d 9fd5 213f
000000d0: 82ae 2c3e 4b2a e53e 9c0b 993e 683d 903e
000000e0: ba04 773e a894 c33b 0f01 aa3f 8b07 b53f
000000f0: 1a7c 9f3e f21e c1bf d1f1 4b3f f2ba 943e
00000100: 628c 263f 1c1d e53d cf89 813f 3c46 37be
00000110: ba43 f9bc 5a39 9c3f 3541 543f 2391 e4bd
00000120: f7cb fd3e 73ba e53c 8ee1 a33e 4a2d d03d
00000130: 26cf 7a3e f90a 02be 3979 02bf 42bc 493e
00000140: c08d 7d3c 31ce 433f 9169 6fbd a738 04bf
00000150: fe3f 81bd 225c 06be 7215 e0be c150 2e3f
00000160: d148 723f f6cc 02c0 ed6c 113f d3bb 0f3f
00000170: 2957 693c beba 843e 1e94 043f 39e6 013e
00000180: 7c4e e63e fc10 3b3e ed56 d139 e3fa f6bd
00000190: bb10 c43d 124e b2bd 99c6 f7bd b3df 263e
000001a0: 0720 67bd cdf4 0d3e 05c0 5abd 6f00 ebba
000001b0: 3b01 a73e 0c0d b5bd f614 3f3c 4bda 40bd
000001c0: bb39 9abe 2f16 173e 2af5 783e 2b32 d43d
000001d0: 97bb 853d 4e1c d23c 1c52 963b a60a 3ebe
000001e0: 3a62 9bbd 611d 30be ba1e d3bc 1033 a63d
000001f0: 3ca1 8c3e e324 7bbe 5f0b c6bd c640 113e
00000200: afa6 05be 250e 5f3b f447 70bd 08a7 8a3e
00000210: 64b5 453d a5d3 9c3d c21e 27be a499 f63d
00000220: d199 e73d 320c 1c3e 0b73 b43d 20f2 ecbe
00000230: 95be 2fbb bbb8 3fbd 42c3 3d3e 842b 06bd
00000240: 5a61 ef3e f139 0f3e 999a 85be 8d27 04bd
00000250: a4c4 dd3d 249d c13d 604d 623c 5124 60bd
00000260: dc16 5dbc ed0f aebe 9e6c 3c3e d31a 073d
00000270: a3f4 83bd eef9 8d3f 659a 3c3d 51b9 f3bd
00000280: 4c44 38bd db3a d8ba d774 b13d f30d 17be
00000290: 8e67 513d 86f1 7bbc f5a7 16bb 7031 debd
000002a0: de1b 5bbe afba 00bd 54da 213e 8dfa b33d
000002b0: 2f01 2e3e b424 92be e577 283e 895e a73d
000002c0: e86a 1fbe d715 6a3c fcab 3dbe a505 dcbd
000002d0: 52f4 1d3a f6bf 05bc 2602 37bd 9991 44be
000002e0: df88 b7be 09f2 353d b59d 15bd a7ba c63e
000002f0: 8eb4 4c3c 8dff 8bbb 28cb 2b3d 0a15 493e
00000300: badf 42be 15aa 88bc 105c d13b b33f 9e3d
00000310: 0f20 c9be b767 173d 4d9d 0bbd c17d 1ebe
00000320: 31d5 133f 640b e9bd 4d9f d8bc 4032 7abd
00000330: ed34 fb3d acb5 853e 4c52 cbbd a2dc d63d
00000340: 00bb e23d 017d 433e 7776 063d bb0c bb3c
00000350: d804 2fbe 1717 24bc 908a dd3d d3c2 f53b
00000360: 38cc 383d 85c3 00be 8bf5 2ebe 3361 eebd
00000370: 0432 773c c166 dbbe 29ec cdbc f916 f4bb
00000380: 07a2 3c3d 4bc5 cfbd 295e 28ba 6e08 053e
00000390: e717 dfbd b0bf c63d e7b8 af3d 1d8d 4b3e
000003a0: 8f99 9ebd 3306 153e ac0c c0bd b8ac d63d
000003b0: ae62 0cb9 6b34 4d3e a2b8 fb3d a92a 25bf
000003c0: b6b1 e83c 7854 3abd 8e53 0fbe 59e0 13be
000003d0: 3fd7 183e e7a7 5f3d 2d22 2ebe 9ac7 f2bd
000003e0: 9063 f13c e03f 09bc cd3e 833c e1b9 babd
000003f0: e6b1 52bd 7790 70be 3822 063e 61fa 6fbd
0.36713633 -0.61073273 0.72665346 0.58616745 0.12069778 0.6189611 -2.7872381 1.0887735
0.3514247 -0.21289463 -0.16662292 -0.31385708 -0.25987533 0.100827515 -0.36238402 0.71262604
0.21409121 0.09925864 0.06748862 0.8415398 0.8393635 1.0218616 0.5928615 1.2120135
0.04414215 0.97772104 -0.14459097 1.1227117 0.5507434 0.8052065 -0.39428052 -0.04402564
0.95141166 -0.27811253 0.17438304 0.9154755 0.2640007 -0.4858227 0.084994845 -0.015134924
-0.2550936 -0.0045243697 0.6181983 1.2145636 0.47267044 -0.0036762932 -0.10716276 -0.044147868
0.39971942 0.2825685 0.10942903 0.63216585 0.16863444 0.4475883 0.2989167 0.2817185
0.24122897 0.005968649 1.3281573 1.4142927 0.3114937 -1.5087569 0.7966586 0.29048878
0.6505796 0.11187193 1.0120181 -0.17897886 -0.030427802 1.2205002 0.82912 -0.11160495
0.49569675 0.028043007 0.32008022 0.10164888 0.24493083 -0.12699498 -0.5096622 0.19700721
0.01547569 0.764865 -0.058450285 -0.51648945 -0.06311034 -0.13121083 -0.4376636 0.6809197
0.9464236 -2.0437598 0.5680683 0.5614597 0.014241972 0.25923723 0.5178851 0.12685479
0.44981754 0.18268198 0.0003992835 -0.120595716 0.095735036 -0.08706297 -0.12098426 0.16296272
-0.056427028 0.13862915 -0.05340578 -0.0017929206 0.32618126 -0.08840379 0.011662712 -0.04708318
-0.3012217 0.14754556 0.24312273 0.10361131 0.065299205 0.025648262 0.004587425 -0.1855875
-0.075870946 -0.17198707 -0.025771488 0.08115208 0.27466762 -0.2452579 -0.096701376 0.14184865
-0.13051866 0.003403553 -0.05866237 0.2708056 0.04826869 0.076575555 -0.16320327 0.120410234
0.11308635 0.15239027 0.08811005 -0.46278477 -0.0026816477 -0.046807032 0.18531516 -0.032756343
0.4675396 0.13986947 -0.2609451 -0.03226428 0.10828522 0.094538 0.013812393 -0.054722134
-0.01349422 -0.33996525 0.18400809 0.032984566 -0.06443145 1.1091897 0.04604568 -0.11900581
-0.044987008 -0.0016497032 0.086648636 -0.14751415 0.051124148 -0.015377408 -0.0022988294 -0.10849273
-0.21397349 -0.031428035 0.15805942 0.08788023 0.16992639 -0.28543627 0.16451986 0.08172328
-0.15568125 0.014287434 -0.18522638 -0.10743264 0.0006025481 -0.008163443 -0.044679783 -0.19196166
-0.35846612 0.044420276 -0.036527354 0.3881428 0.0124942195 -0.0042724074 0.04194179 0.19636932
-0.19030657 -0.016682664 0.0063891485 0.077269934 -0.3928227 0.036964145 -0.03408556 -0.15477659
0.5774718 -0.11379126 -0.026443148 -0.06108308 0.12265954 0.26115167 -0.09927806 0.10491301
0.11070824 0.19090654 0.03282782 0.022833219 -0.17091691 -0.010015271 0.10817444 0.0075000315
0.045116633 -0.12574585 -0.17085855 -0.11639633 0.015087608 -0.42851833 -0.025137024 -0.0074490276
0.04605296 -0.101450525 -0.00064227224 0.12991497 -0.10893231 0.0970453 0.08580189 0.19878049
-0.07744133 0.14553146 -0.09377417 0.10482162 -0.00013388201 0.20039527 0.12291075 -0.6451822
0.028405052 -0.045490712 -0.13996717 -0.1444105 0.1492586 0.054603484 -0.17005225 -0.11854477
0.02946642 -0.008377045 0.016021157 -0.09117485 -0.05143919 -0.23492609 0.13098991 -0.05858839

head.fc2.bias f4 [30]
00000000: 4c3d b43e 382f 60bc 4a58 eb3c 3cac 3dbb
00000010: 5e66 a13d 8a44 47be 67c7 bb3d 5d8a d0bd
00000020: 2169 25bc aa77 9dbd aab5 643e d86f f1be
00000030: a242 dfbe e2dc 13bf ec79 febe 0ec8 1fbf
00000040: d4ac 94be ab19 a3be 708d c3bd a45e 54bf
00000050: 5372 8dbf ff1a 173f 0c13 003e a945 213f
00000060: 61b4 b23d 6f06 67be a9be 183e 7c1b fcbe
00000070: a60e 68bf e124 2a3f
0.35203016 -0.013683133 0.028728623 -0.002894177 0.07880853 -0.1945974 0.09168892 -0.10182641
-0.0100958655 -0.0768884 0.22334924 -0.47155643 -0.43605524 -0.57758915 -0.49702394 -0.62414634
-0.29038107 -0.3185552 -0.095484614 -0.8295691 -1.1050514 0.5902557 0.12507266 0.6299692
0.08725811 -0.22561048 0.14916481 -0.4923972 -0.9064735 0.6646252
