Project-Run/run_cudalstm_gmm_model/model_epoch003.pt (torch, 40907 bytes, 8 tensors)

lstm.weight_ih_l0 f4 [80, 33]
00000000: 430b 1dbe 87a2 4abe 42e5 583e e03e 223e
00000010: 083a f03e d885 983e a146 683e 7438 27be
00000020: e590 c7bd 5b40 993e bb0a 883c 8a29 f2bd
00000030: acc4 fbbc 2958 6c3c 980d 353e 25c2 32bc
00000040: 0138 e63c 9f89 ef3d b4d3 3d3e c0ec 83be
00000050: 71db c9bc d9e2 19be 9729 5aba ed7e 833d
00000060: 37fb e8bd 7902 5f3d 2e49 1bbe 57a3 093e
00000070: 79c3 913d d423 d0bd dc75 44be 7d67 4bbe
00000080: 54fb f33d b0eb 6f3e 5695 17bc 296e 9e3c
00000090: e258 edbd dfb5 623e a5b4 77be 34d3 cc3d
000000a0: 6862 a6bd b2db 863e 5ace 09be f92f 2abd
000000b0: 8306 a73c 1f22 24bc 155b a3bd 16b3 38be
000000c0: 64f7 a8be cfc0 9d3b ead2 2abe e115 f2bd
000000d0: 42cc ce3d 99a8 3cbd f6a1 903d 7dea 733c
000000e0: 9a19 32be 5035 7b3e 2bb2 56bc 457e f3bc
000000f0: f485 343e 03cf 11bd 8fb4 8f3d ec93 6ebc
00000100: f7d4 ebbd a3a0 a3bd 3ffe 833e e69b 82bd
00000110: ebdf 28be e25c 903d e95e 693e e00f 4cbc
00000120: d5e0 d9bb f458 a4bc 4779 7b3e 9552 453e
00000130: 5dea 06be e12c 233e 2b97 363e e217 8cbd
00000140: bf02 61be 9a1c e03d 6cc2 953d d34b 1b3d
00000150: 3b0a 20be 11d9 4dbe db51 3c3e 6c88 8e3e
00000160: 7ded 843e f42c a2bd 7a2f 38be f746 693d
00000170: 904d 1d3e 9866 f63c c12c 2f3e 5952 353e
00000180: abe5 c9bd b0af d6bc 88c9 ef3d 8880 34bb
00000190: 2926 613c c938 c33d 9da8 94bd 54ce d93d
000001a0: ce99 283c dc64 693e 84d7 01bd 524b 503d
000001b0: 1580 fcbc 7455 dfbb 046a 2cbe a17f 2a3e
000001c0: 687e 243e e121 363d 67e0 13be 3c38 c2bd
000001d0: a876 273d bd73 8ebe b3f5 debc e842 54bc
000001e0: d74b fb3d 5b5b 6a3d 6ba9 5ebc c69d a43d
000001f0: 6251 453d 2d19 31be 7e3c 493d 6392 b3be
00000200: a39c 693e 0e76 823e aa41 2cbd 848d 1c3e
00000210: db15 de3e 7457 703e a2ef 0abe 9689 bb3d
00000220: 943e b6bd 5462 35be 503b 56bd dd5c 353e
00000230: 2bb9 9d39 a654 d3bc 86e5 ac3d 92b8 9c3e
00000240: a279 303c 9f41 2f3d 44f4 bbbe 5fa9 99ba
00000250: 47b6 6bbe ac25 a4bd 8691 273e 14f5 76bd
00000260: 479c 953d b796 943c 9e5c a0bc 0132 443e
00000270: 74d7 2dbe 851a 063e fbe6 293e 976f b83c
00000280: 329d ebbe 798e cfbd fa76 66bc 3388 203d
00000290: 1144 563d 077a 863c 7099 f1bd 397e 2e3e
000002a0: 54c6 95bb 457b 2e3e 7c53 35be 3bef 8e3d
000002b0: 823d adbc e00f a4bd ae8c eeba 14d6 663e
000002c0: 7938 9fbc 8ac7 81be 150d f8bd e2ba 59bc
000002d0: 1243 cabd da24 d23d 0ed5 92bd 87a0 42bd
000002e0: defa a8bc c302 013e 3768 19be dbdc e03d
000002f0: fa57 17be 15a8 36bc 02a2 75be df06 24be
00000300: 380b 363e 2154 12be 78ab abbc 6b19 ffbd
00000310: d536 d43d ec6c f63d 1c32 a73d 753f 623e
00000320: 8ac2 263e c590 efbd f06f ad3d dccb d63d
00000330: 1297 54be 50c5 67be aa58 3c3e 5a69 1dbe
00000340: 838f 8dbd d8c6 a03d e1c7 d0bd 12f2 e43c
00000350: 4df8 a4bd 3ac6 be3d 8ef7 fb3d 2e34 6abd
00000360: b379 27be 4e12 1abd 222f d13d 2bb2 30be
00000370: 0962 8bbd 8a2e e1bd 7d96 7bbe 6b93 8b3d
00000380: ceb3 5abe 6ebc 3f3c 985e 503d 050d 333e
00000390: e157 a0bd f5b2 b53d 835e 1fbe d158 733d
000003a0: e1d9 b4bd fc50 2e3e 044d 023e cabe b83d
000003b0: 9744 f2bd 77bb 2ebe 547c b23c 04e4 233e
000003c0: 11b5 a63e f0d6 b23d 4928 87be d738 0ebe
000003d0: 83c1 303c 2d58 3b3d 9030 92bd 50f0 343d
000003e0: f97c 08be 39f6 4cbd e715 edbc 56a1 763e
000003f0: ca55 3abe 6cbd 2bbe c851 edbd b85d 583e
-0.15336327 -0.19788562 0.21181205 0.15844297 0.46919274 0.29789615 0.22683193 -0.16330129
-0.09744433 0.29931912 0.01660668 -0.11824329 -0.030733429 0.014425316 0.17680967 -0.0109105455
0.028102877 0.11696171 0.1853779 -0.25766563 -0.02464077 -0.15027942 -0.00083222374 0.064206935
-0.113760404 0.054445717 -0.15164635 0.13441215 0.071173616 -0.10163084 -0.19185585 -0.19863696
0.119131714 0.23429751 -0.009251913 0.019339638 -0.11589219 0.22139691 -0.24190004 0.10001221
-0.08124238 0.2633949 -0.13457623 -0.041549657 0.020388847 -0.010017901 -0.07976357 -0.18037066
-0.33001244 0.0048142443 -0.1668202 -0.11820579 0.10097553 -0.046059225 0.070621416 0.014887449
-0.17392579 0.24532056 -0.013104002 -0.029723296 0.17629224 -0.035597812 0.07016861 -0.0145616345
-0.11515229 -0.079896234 0.25779912 -0.063773915 -0.16491668 0.07048966 0.22790112 -0.012454957
-0.0066491165 -0.020061947 0.24557982 0.19269784 -0.1317534 0.15935089 0.17831104 -0.06840493
-0.21973704 0.10942955 0.07312474 0.03791411 -0.15628903 -0.20102336 0.183906 0.27838457
0.2596244 -0.079187304 -0.17986861 0.056952443 0.15361619 0.030078217 0.17106916 0.17707194
-0.09858259 -0.026206821 0.11708361 -0.002754243 0.013742008 0.09532315 -0.07258723 0.10635057
0.010290576 0.22792381 -0.031699672 0.05085308 -0.030822793 -0.0068156067 -0.16837317 0.16650249
0.16063845 0.044465903 -0.14441071 -0.09483382 0.040884644 -0.27822676 -0.027216768 -0.012955405
0.12270325 0.05721603 -0.013590197 0.080379054 0.048173316 -0.1729476 0.049129955 -0.35072622
0.22813658 0.25480694 -0.04205481 0.15288359 0.4337605 0.2347086 -0.13567975 0.09157102
-0.088986546 -0.1771329 -0.05230266 0.17711206 0.00030083334 -0.0257972 0.084422156 0.30609566
0.010771187 0.04278719 -0.36709797 -0.001172345 -0.23018752 -0.08014998 0.16364107 -0.06029232
0.07305198 0.018138273 -0.019575413 0.191597 -0.1697672 0.13096054 0.16592018 0.022514148
-0.46018368 -0.101345964 -0.014066452 0.03919239 0.052311007 0.016415609 -0.11796844 0.17040338
-0.0045707617 0.17039211 -0.17707628 0.06979223 -0.021147493 -0.080108404 -0.0018199885 0.22542602
-0.019436108 -0.2534755 -0.1211187 -0.013289185 -0.09876074 0.10260935 -0.07169543 -0.047516372
-0.020627435 0.1259871 -0.14981161 0.10979625 -0.14779654 -0.011148472 -0.23987582 -0.16018246
0.17777717 -0.14289905 -0.020955786 -0.1245602 0.10362021 0.12032494 0.081638545 0.2209452
0.16285148 -0.116975345 0.08468616 0.10488102 -0.20760754 -0.22633862 0.18393198 -0.1537222
-0.06912138 0.078504264 -0.10194374 0.02794746 -0.08055172 0.093151525 0.12303077 -0.05717867
-0.16355018 -0.037615113 0.10214068 -0.17255466 -0.06805808 -0.10995205 -0.24569125 0.06815227
-0.21357653 0.01170264 0.05087146 0.17485435 -0.078292616 0.08872024 -0.15563397 0.059410874
-0.088306196 0.1702308 0.12724692 0.09020765 -0.11829489 -0.170637 0.0217878 0.1600495
0.32560018 0.08732402 -0.26397923 -0.1388887 0.010788324 0.045738388 -0.07138169 0.044174492
-0.13328923 -0.050039504 -0.028941108 0.24084982 -0.18196788 -0.16771477 -0.11587864 0.21129501

lstm.weight_hh_l0 f4 [80, 20]
00000000: 733e 303d f192 573e 685b dd3c 03bd a13c
00000010: 7004 923e 93d4 c33d 0d67 103e ba72 0fbf
00000020: 5836 3a3e 90ec f43d 0a64 773d 8c90 12bd
00000030: 88cb 3cbe 79d1 11be e8e0 473e 2906 963e
00000040: db0e 6abe 7b35 ae3e 55a9 f53e ea7b 88be
00000050: f437 093e bdca 7d3e 4920 693e 3692 a73e
00000060: 942b d03e 4bb1 a0be 788f 13bd 2c4a 3dbe
00000070: f685 8a3e e2ab 8f3d 7c78 b73e ee60 c7be
00000080: 0600 6fbe faca 793e 6bc6 33be c127 b8ba
00000090: c9c9 1e3e a384 f9bd fb91 33bd 336f 1e3e
000000a0: 3bd5 c33e cff7 8d3e ac1c 9fbd 1c9b 1bbe
000000b0: 5985 193e 1d23 cfbd 77e3 f23e ef07 e7be
000000c0: 2b9c d9bd 58d3 60be f781 92bd 16f1 21be
000000d0: 53dc 82be 23a8 39be ac4f 7abd 3cca 973e
000000e0: 0748 043e ad57 3ebe d986 203e 9521 debe
000000f0: 2f22 343f 9e98 3a3f b1ca b9bd 79e4 26be
00000100: 104e db3e b89c 20be 50a1 8b3e 96bb 08bf
00000110: 7d94 cd3e 1607 003e 3aa4 27be 8a58 ab3d
00000120: 8c7c 98be c360 063f bccc a93d 5122 40bd
00000130: a929 36be 2a15 3abd 5508 4fbe 5367 bb3c
00000140: be04 67ba 352f 663e 6fc6 82bd 40b6 4bbd
00000150: a925 8dbe a76d 2b3e 0ade b63e 7bde d7be
00000160: fcba 3dbd 5d3d 6dbe ef2c c6bd ae85 893e
00000170: 783d 81be b083 893d 6a67 e93e 2e67 d23c
00000180: cab1 48be dbf9 e13d 9124 e13e 0843 493e
00000190: aa76 fa3d 13eb 443e 6927 dfbe 6215 823e
000001a0: 5aee c33d 3cd2 39be 0887 72bd 9b3a 21be
000001b0: 3efd 763e 99b8 343e 848a 85be 5119 6f3e
000001c0: fad5 ed3e 4e29 f13d 4b05 ebbe 0067 96be
000001d0: 7774 83be 3790 c23e 54db 8dbe d181 64be
000001e0: 22a8 b8bc 59ed 1d3e 8fd6 16bf 8765 d33d
000001f0: 3a87 083f 73c7 473e 8776 06be bc0f fbbd
00000200: 3463 a63e 6eb7 e43d dfcb 51bd 49ea 48be
00000210: 9b53 323d 4004 6c3e 832a 13be 3731 adbe
00000220: 46d1 0bbf ee18 c53e fc31 f63d 421e 0ebe
00000230: 6473 0bbc 47b4 5c3e e962 67be 9f48 bf3e
00000240: 4267 0b3f 6575 8f3e a14a 64bd 2572 d13d
00000250: f55d 783d 4b97 083f f2f0 813b 5142 bfbe
00000260: cc76 453e 5d62 823e edbe 34be 77e6 e4be
00000270: 3589 cfbe 18a0 f13e c0f8 57be 9751 a53e
00000280: c797 b73e 5b57 f3bb 7cc3 c3bc 105d 9ebc
00000290: bcd7 d23e caed c4bd 9b2a ca3e 650e c6be
000002a0: 6de0 ea3d 255a 233d d3bf 383e 5d40 1cbd
000002b0: d66b 27be f250 ffbd a95b 9e3e 86c0 cdbd
000002c0: 7b01 c3bd 1f5a a2bd 04fd 4d3e c01a 08bf
000002d0: e799 e73e ccd5 9f3d b62c a6bd 0aea 883e
000002e0: b57a f1be 080f 75bc 095d ab3e 7394 0ebe
000002f0: d9f0 903d 891a 3b3d df50 b23d 2b58 1b3d
00000300: 6d03 36be 2e91 c4be 28c9 47bd d812 10bd
00000310: bd32 e23d 2914 7b3e f447 e73c 387f d4bd
00000320: b330 8a3e 3230 273c 356e 1e3e 7b11 0fbe
00000330: 5fe5 48bd 0713 4b3e b242 8ebc 193d 49be
00000340: d0f3 d5bd 7883 81bd 34d1 0dbe 561d fabd
00000350: b82d 063e f9f5 e43d faff 0abf 550b 07bd
00000360: 618a b2be 0a32 903d ca1e 643d f163 cfbe
00000370: b8ed 1e3e 98e2 0b3e 84ec 11bc 9305 d0be
00000380: 4617 753d e880 debc 9b83 0d3e 35a3 a6bd
00000390: 06d9 b93d 6069 dc3a b9c7 7b3d f1c0 763e
000003a0: fb4c 8fbd 9625 b2bd 155d 973c 229c 10be
000003b0: bb3f 5cbe cffc ad3d 5749 ff3d ae07 adbe
000003c0: f478 cbbd 83d7 b73d f31a bdba 8067 a7be
000003d0: d0a2 9fbe 99d8 8ebe bd33 473e 46de 8dbe
000003e0: 5b0d 203d d0c9 ee3c be18 613e 4c16 9d3e
000003f0: f3f3 cc3e 5356 76be 8559 bb3d dc47 4dbe
0.043028306 0.21052147 0.027021125 0.019743448 0.2851901 0.0956203 0.14101811 -0.56034434
0.18184793 0.11959183 0.06039814 -0.035782382 -0.18437016 -0.14240064 0.19519389 0.29301575
-0.2285723 0.34025177 0.47980753 -0.2665704 0.1340025 0.2478437 0.22766222 0.32728738
0.40658247 -0.31385264 -0.036025494 -0.18485326 0.2705533 0.07015206 0.3583411 -0.3894114
-0.23339853 0.24393836 -0.17556159 -0.0014049934 0.15506662 -0.121835016 -0.04384039 0.15472107
0.3824862 0.27728125 -0.077691406 -0.15195888 0.14992274 -0.10114119 0.47439167 -0.4512324
-0.1062549 -0.21955621 -0.07153695 -0.15814623 -0.2555872 -0.18130545 -0.061111137 0.2964648
0.12918101 -0.18588133 0.1567644 -0.43384996 0.7036466 0.72889125 -0.090718634 -0.16298093
0.42832994 -0.15684783 0.2727151 -0.53411233 0.4015235 0.12502703 -0.16371241 0.08366497
-0.29782522 0.52491397 0.08291003 -0.046907727 -0.1778933 -0.04543034 -0.20218022 0.022876417
-0.00088126573 0.22478946 -0.063855045 -0.049734354 -0.27567795 0.16741048 0.35716277 -0.42161927
-0.0463209 -0.2316794 -0.09676539 0.26859802 -0.2524221 0.067145705 0.4558671 0.025683966
-0.19599071 0.11033984 0.4397321 0.19654477 0.122296646 0.19230299 -0.43584755 0.2540694
0.09566946 -0.18146604 -0.059210807 -0.15745012 0.24120042 0.17648543 -0.26082242 0.23349501
0.46452314 0.11775456 -0.45902476 -0.29375458 -0.25674793 0.38000652 -0.27706397 -0.22315146
-0.02254111 0.15422572 -0.5892114 0.10322099 0.5333134 0.19509678 -0.13131152 -0.122588605
0.3249756 0.11167799 -0.051219817 -0.19620623 0.043536764 0.23048496 -0.14371686 -0.3382661
-0.546162 0.38495582 0.120212525 -0.1387873 -0.008511398 0.21553145 -0.22596325 0.37360093
0.54454434 0.28019252 -0.055735234 0.102268495 0.06063648 0.53355855 0.0039654905 -0.37355283
0.19283599 0.2546567 -0.17650957 -0.4470708 -0.40534368 0.47192454 -0.21090984 0.3228881
0.35857984 -0.007426185 -0.023896925 -0.019331485 0.41180217 -0.09615667 0.3948563 -0.38682857
0.11468587 0.03988089 0.18041925 -0.03814732 -0.1634973 -0.12466611 0.30929306 -0.100464866
-0.09521767 -0.079273455 0.20116049 -0.5316582 0.45234606 0.078044504 -0.08113997 0.26741058
-0.4716393 -0.014957197 0.33469418 -0.13923816 0.07077188 0.045679603 0.08706831 0.03792588
-0.17774744 -0.38392013 -0.048775822 -0.03517422 0.11044834 0.24519409 0.028232552 -0.103758276
0.2699028 0.010204362 0.15471728 -0.13971512 -0.04904687 0.19831477 -0.017365787 -0.19652213
-0.10446894 -0.06323904 -0.13849336 -0.12212627 0.13103378 0.11179728 -0.5429684 -0.03296979
-0.348712 0.07040794 0.055693425 -0.40505937 0.1552037 0.13660657 -0.008906487 -0.40629253
0.05983665 -0.027161077 0.13819735 -0.08136598 0.09074597 0.0016816072 0.061469767 0.24097039
-0.06997105 -0.08698575 0.018477002 -0.1412206 -0.21508686 0.08495485 0.1246516 -0.33794922
-0.09935179 0.089766525 -0.0014427587 -0.32696152 -0.31178904 -0.27899626 0.1945333 -0.27708644
0.039075237 0.029148966 0.21982095 0.30681074 0.40029868 -0.24056368 0.09147934 -0.20046943

lstm.bias_ih_l0 f4 [80]
00000000: 536d d6be 6205 10be f553 3dbe 3ed9 2dbf
00000010: 9f46 803d 28d7 d0bd a186 363c 452c ca3c
00000020: d3f8 5cbe 4395 b7be 0181 25be a44e 68be
00000030: 1e0a 4a3e f1e9 b2be 7a1d f0bd 18e2 b0be
00000040: 21e2 b3bd c814 a2bd 7c99 3ebe 6484 903d
00000050: 80e8 983e 6a0b e73e 1ce7 663b 1294 803f
00000060: 318a ad3e d61d d73c 2a4f 4abd 0514 a83e
00000070: 2ccb 743d 6aa8 97bb 5f8a d5bc 21a1 0fbc
00000080: 0b88 873c 61c5 c4bd 1552 613e de39 8d3d
00000090: 52e6 983e 32c6 e9bc 5a38 c53e 1738 be3c
000000a0: 50a1 5abd 3da9 47be 7ac7 533e fb23 4ebd
000000b0: 63cc 33bd e709 403e fc63 70bd e155 8c3e
000000c0: 0206 10bd ceb2 db3d 4cc3 afbd 9dc5 d63d
000000d0: e340 463e 717e e13c 66c6 81bd b8c7 51be
000000e0: af10 a4bc 5583 383d 997a e33d 95d2 423e
000000f0: df19 28be 8d80 803d aa5c dabd 2a5f 363e
00000100: ffcf 80bd 391a 823e 3fd3 723e 41d1 fd3d
00000110: 2eae d5bd c2b3 733e cafa e6bc 419d 17be
00000120: 3465 82bc 0fcd de3b 07ce 07be 44b4 0ebe
00000130: bd5a 863e 69fd 5e3e 6988 3b3d adb6 4d3e
-0.41880283 -0.14064553 -0.18489058 -0.6790961 0.0626347 -0.10197288 0.0111404965 0.024679312
-0.21579294 -0.35856065 -0.16162492 -0.22686249 0.19730422 -0.34944108 -0.11724372 -0.34547496
-0.08783365 -0.0791412 -0.18613237 0.070565015 0.29864883 0.45125896 0.0035232967 1.0045187
0.33894494 0.026259344 -0.049391903 0.32827774 0.059764072 -0.004628231 -0.026066957 -0.0087664435
0.016544363 -0.096079595 0.22003968 0.06895803 0.2986322 -0.02853689 0.38519555 0.023220105
-0.053376496 -0.19498153 0.20681563 -0.050327282 -0.04389609 0.18753777 -0.058689103 0.2740927
-0.03516198 0.10727464 -0.08582172 0.104869105 0.1936069 0.027526112 -0.063366696 -0.20486343
-0.020027487 0.045047123 0.11107368 0.19025643 -0.16416119 0.06274519 -0.106622055 0.1780974
-0.06289672 0.2541063 0.23713396 0.12393428 -0.10433613 0.23799041 -0.028195757 -0.14806081
-0.015917398 0.0067993472 -0.13262187 -0.13935953 0.26241103 0.21776356 0.045784388 0.20089217

lstm.bias_hh_l0 f4 [80]
00000000: eb22 b5be 7e45 03bf 276b a2be ec45 38bf
00000010: 1bfd 86be 0901 31be 0cb0 dcbd d91a 9fbe
00000020: 8668 d5bd 45cc 9ebe 176b acbe abd0 16be
00000030: d199 b03d ecb2 ad3c 03ee 12be d8bb a4be
00000040: 2212 a1be 3c4b c8be 4830 e0be 4c4a 15bc
00000050: b946 ca3e 63a7 9b3e 1474 613e e1df 893f
00000060: bd36 b23e 4ae8 3a3d a22b fcbc fa19 773c
00000070: f7e7 0a3e cdaf 4f3e fd37 b2bd 9e18 f7bd
00000080: 3834 a13d 8179 00be 6cd8 563d f877 2cbe
00000090: 613f 4f3e 0860 ba3d b77e d63e 5565 0d3c
000000a0: d72b 163e b1ba 72bd 7fa3 373e 886c 2a3e
000000b0: e8b7 a5be a305 783e 1cd6 43be 51de 8d3e
000000c0: 6e0c 34be 2223 97bd 4dc8 f0bb cca4 1c3e
000000d0: 27cd e6bb 8521 a9be 304c 02be aadc 12be
000000e0: 4537 893e 9f5c ebbc b34f 26bd fba1 2abd
000000f0: 6174 cf3d 86a3 1ebe 3dba e53c baa9 3a3e
00000100: f68b 2bbd f99c febd 90c8 7e3d 47f8 433d
00000110: 1a64 58bd 9c4b 03bd c715 093c 18b1 f23d
00000120: ef45 413e e9d1 3fbe d477 23be 94a8 17be
00000130: 6a72 943b 2eee 393e 80ca 22be bc92 aa3e
-0.35378203 -0.5127791 -0.31722376 -0.7198169 -0.2636498 -0.17285551 -0.10775766 -0.3107517
-0.10420327 -0.3101522 -0.33675453 -0.14728038 0.08623088 0.02120348 -0.14348607 -0.32174563
-0.31459147 -0.391199 -0.43786836 -0.009111952 0.39507082 0.30401143 0.22016937 1.0771447
0.34807387 0.045631684 -0.030782524 0.015081877 0.1356505 0.20281906 -0.08702085 -0.12065242
0.07871288 -0.1254635 0.05245249 -0.1684264 0.20239021 0.09100348 0.4189355 0.0086301165
0.14665161 -0.059260074 0.17933463 0.16642964 -0.32366872 0.242209 -0.19124645 0.27708676
-0.17582867 -0.07379748 -0.0073480965 0.1529724 -0.007043499 -0.33033386 -0.12724376 -0.14341989
0.2679998 -0.028730689 -0.04060335 -0.041658383 0.101296194 -0.15492067 0.028042907 0.18228808
-0.041881524 -0.12432284 0.06220299 0.047844198 -0.05282984 -0.03205453 0.0083670085 0.11850184
0.18874334 -0.18732418 -0.1596368 -0.14810401 0.004530241 0.18157265 -0.1589756 0.33315074

head.fc1.weight f4 [100, 20]
00000000: 892f 04bd d73f bf3c c0be 583d 05e3 cd3b
00000010: b0cd 18be e3b6 803e ae06 30bd 27ce 40bc
00000020: 81df febd f37d ccbd ec02 fbbc e35a 063d
00000030: 0df9 b33c 0cdb 4f3e 1399 463d a366 b43e
00000040: acdf 713e ebc3 ed3d 1cde 85be d10a afbe
00000050: 6400 1f3e e3fa 12be 7f1a 023e 06f4 2f3d
00000060: e49b b6bd fe39 39bd 53f6 d9bd e48c 4d3e
00000070: 3714 d73c f911 873a 1d63 eb3c 472e a73d
00000080: d89f 47bc fe3c 003d 567d e8bc 3927 3c3e
00000090: ac53 283e 001e 783d b7ac 173d df16 823d
000000a0: 23af b9bd 92d5 853d f251 ba3d afad 74bd
000000b0: 2e86 2dbd b482 7b3d 9b0a 36be 2def eabe
000000c0: 4462 dc3d 7704 9fbd b8a3 563e 56e9 1e3e
000000d0: e601 efbc 6f89 693c 21c2 b83d 96db 41be
000000e0: b70d ef3d e654 b5bd 28e6 b8bd 5285 303d
000000f0: 6f89 47be 459d f83c 61fa 65be bb04 67be
00000100: 9e7a c03c 87a1 203c 570a d23c 0f80 9e3d
00000110: 1811 113e b9da ff3d dca6 563d 74c4 08bc
00000120: 06b1 a8bd ac38 a53d 032d 383e 33eb 61be
00000130: 491e c83b a8d1 2f3e 9847 6dbc 18f1 0a3e
00000140: 0324 043e e76c 9cbc 482f 673e ee24 50bc
00000150: 5c43 b3bb 2525 34bd 9e74 63be 45a4 65be
00000160: 76d4 8bbd a22d b03b 9a5b 64be edf9 ba3c
00000170: 8d06 f83b 2345 95bd 7b2c 603d 9442 78bd
00000180: e7bb 0a3c c64d 20be a2c8 01bd 2753 913d
00000190: 5cef 66bc e859 2dbd 9462 0ebd 07f4 e2bc
000001a0: 35a8 e9bb 9979 773e bdfc 2f3d d270 07be
000001b0: 82e7 96bd 5570 3b3c b923 083e 9231 083d
000001c0: 2677 c2bc 947f f8bc e656 1a3d 837c 85be
000001d0: 3c85 eabd 1573 7abe 80d5 82bc cdfa 563a
000001e0: 97ff 6a3d 4a22 1ebb cf7b 22be 1216 52bc
000001f0: cd01 2c3e 3437 fe3c d3b7 a1bd 9fce 513e
00000200: d79e c83d 0243 9c3e bd58 74be 36e2 8cbe
00000210: d85f 46bd fcd3 953d 81c1 d33c 38fb 133e
00000220: 015a e53d f798 843d c78b 4b3c f6fa 1d3e
00000230: 8683 89be 5c9a 38bd b6f5 da3d 8602 aebd
00000240: 29b0 aebd e772 77bd a2ce 863e 18d2 cbbd
00000250: 9ced 6b3e 37e1 da3d b24b c6bd 036f 463d
00000260: 0a82 a8bc cc57 833d 6178 1b3b e916 303c
00000270: f3a5 8b3e bdd1 59be 16d3 0fbe 527b 8e3e
00000280: 48c6 b83d a6fa 4abd 5fe1 0ebe 4e98 c4bd
00000290: 88c1 40bd c97c 143a 1bcd 33be eceb f73d
000002a0: a0ba 11be 483f c9bd 137c 493d 1867 4abd
000002b0: 4c54 89bd c8ef bbbd 0f9f 093e ceb2 acbc
000002c0: 0b7a 54be 9691 db3d e36e 47be bf3d ea3d
000002d0: 3ba1 efbd 2bca 0b3e 1eb3 70bd 633a f43d
000002e0: 742a 2dbe d845 4b3e 106f 063d 20d7 cb3d
000002f0: 0833 a13d 1795 203e 58b5 d53d 2ba4 c9bd
00000300: 2df6 063e acf9 143e e81b 3d3e 326a 4bbe
00000310: 2a0e d83d 7f5f 5abe 5da2 26be f2e6 893e
00000320: bf38 10be 9fac ff3d a5f3 0fbe 7289 b5bc
00000330: 9cec 703d a852 94bd 7d31 9bbc 8a7f 4e3e
00000340: c960 a13d 30c6 07bd 2a0a 2dbe e0cc 5cbe
00000350: d9c3 823e 759b d73d 88f6 61bd 1f5a 0fbc
00000360: e2d0 64be 92aa 483d e8db 10bd 72c4 e33d
00000370: a735 debc 20fe eebd 495a b03d 9989 cd3d
00000380: 440e 76bd b078 603d e07d 0fbd edbf 9e3c
00000390: 5b6b 02be 2232 7e3d f077 b6bb 7ba9 9bbd
000003a0: db6e 263e 540e dcbd dbcb 02bd a88c f73d
000003b0: db5d 853e b5fa 11be 3148 ff3d ece0 12bd
000003c0: 678d 87bd aff4 8c3b 0115 593e 0684 0f3d
000003d0: 489c e8bd 0137 76be 1aa7 aa3e c8ab b7bc
000003e0: 3c32 1d3e 8412 2e3e c200 843e 43fe aebd
000003f0: ff26 0cbd b8e0 64bd 56c4 1ebd 6bfb 27be
-0.032271896 0.02334587 0.05291629 0.0062831664 -0.14922214 0.25139531 -0.04297512 -0.011767901
-0.12444974 -0.099849604 -0.030641042 0.03280152 0.021969343 0.20298404 0.048485827 0.35234556
0.2362048 0.11609634 -0.26146019 -0.3418794 0.15527493 -0.14353518 0.1270542 0.04295733
-0.089164525 -0.04522132 -0.10642686 0.20073277 0.026254756 0.0010305039 0.028733784 0.081631236
-0.012184106 0.031308167 -0.028380077 0.18374337 0.16438168 0.060575485 0.037029948 0.063520186
-0.09066608 0.06534876 0.09097661 -0.05973595 -0.04236429 0.061403945 -0.17777483 -0.45885602
0.1076093 -0.077645235 0.20960891 0.15518698 -0.02917571 0.014253958 0.09021402 -0.18931422
0.11672538 -0.08854084 -0.09028274 0.043095894 -0.1948602 0.03034843 -0.22458793 -0.22560398
0.023495968 0.009804136 0.025639696 0.07739269 0.14166677 0.1249289 0.052405223 -0.008347619
-0.082368895 0.0806745 0.1798592 -0.22062378 0.006107126 0.17169821 -0.014482401 0.13568532
0.12904362 -0.019094897 0.2257663 -0.012704117 -0.0054706763 -0.043980736 -0.22212455 -0.22425945
-0.06827633 0.0053765336 -0.22300568 0.022824252 0.0075691403 -0.072885774 0.05472992 -0.06061037
0.008467651 -0.15654668 -0.03168548 0.07095938 -0.014095154 -0.04232207 -0.03476198 -0.027704252
-0.0071306475 0.2416748 0.04296564 -0.13226631 -0.07368375 0.011440356 0.13294877 0.0332504
-0.023738455 -0.030334271 0.03768053 -0.26071557 -0.11451194 -0.24457963 -0.015970945 0.00082008244
0.057372656 -0.0024129325 -0.15867542 -0.012822645 0.16797562 0.031032182 -0.0789639 0.20488976
0.09795921 0.30519873 -0.23861976 -0.27516335 -0.048431247 0.073158234 0.025849106 0.14451301
0.111988075 0.06474488 0.012423462 0.15427765 -0.26858157 -0.045069084 0.10691397 -0.08496575
-0.08529694 -0.060412314 0.26329523 -0.099521816 0.2303986 0.106874876 -0.096824065 0.048445713
-0.02056982 0.0641323 0.0023722874 0.01074765 0.27275047 -0.21271415 -0.14045367 0.2782846
0.09022194 -0.049555443 -0.1395316 -0.09599362 -0.047059566 0.00056643464 -0.1755871 0.121055454
-0.14231348 -0.09826523 0.049190592 -0.049414724 -0.067055315 -0.09176594 0.13439582 -0.021081354
-0.2074968 0.10721128 -0.19475894 0.114375584 -0.11700674 0.1365134 -0.05876457 0.11925199
-0.16910726 0.19850862 0.03282076 0.09953141 0.078710616 0.15681873 0.10434979 -0.09845766
0.13179846 0.14548367 0.18467677 -0.19864729 0.105495766 -0.21325491 -0.16272874 0.2693401
-0.14084147 0.12484097 -0.14057787 -0.022160266 0.0588194 -0.07242328 -0.018944496 0.2016584
0.078797884 -0.03314799 -0.16898409 -0.21562529 0.25540045 0.10527698 -0.05516675 -0.008749514
-0.22345307 0.048990794 -0.03536597 0.11121453 -0.027125193 -0.11669564 0.086109705 0.1003601
-0.0600722 0.054802597 -0.035032153 0.019378627 -0.12736265 0.06205953 -0.005568497 -0.07600685
0.16253226 -0.107449204 -0.031932693 0.12087375 0.2604817 -0.14255793 0.12464941 -0.035859033
-0.06618767 0.0043016295 0.21199419 0.035038017 -0.11357933 -0.2404442 0.33330613 -0.022420779
0.15351194 0.1699925 0.25781828 -0.0854459 -0.034216877 -0.05587837 -0.03876146 -0.16404502

head.fc1.bias f4 [100]
00000000: 660d 07be 84fc e3ba b229 3a3e b973 6e3e
00000010: 2855 8ebc 3dda 4a3b 1129 2fbc 91e9 6fbd
00000020: b583 683e ccf1 813e 61ad 2fbe cc7d 893e
00000030: c897 343e d9ce b53e c400 ce3d 3084 c43d
00000040: b8af 3c3e d365 83bd 891e c43d e662 7dbd
00000050: 7710 a43c edbf 173e f5ed b33e 9472 b8bc
00000060: 96b1 bf3e c4dd f43d 6eb9 633e da61 61be
00000070: e581 a73d 2bf5 bc3d a5fd 863e 2015 17be
00000080: 25db 233d 9896 a8bc 6ed1 1c3e dd87 883e
00000090: c43f 883e 8760 54be dcee 8b3e 3402 60bd
000000a0: 5c8d 9b3e 7083 8d3e fd43 7bbe 1466 c63c
000000b0: cef0 6b3c 06c8 073e ca1e 36bd e015 723e
000000c0: a91b f23c f724 bd3e 7a84 d73e 864a b13e
000000d0: a390 d53e 375b 2b3d 72c9 7cbd a240 ae3e
000000e0: 1270 713e 7502 e33d eeaa 953d 5c47 a0be
000000f0: 73a1 b13e 5606 0a3e cb8a 323e 944d 873d
00000100: f196 833e 277e 2c3e 6b16 a33d 0068 2a3e
00000110: cebc 14be a9d6 943c 2a36 783e 0fbe 363e
00000120: 1746 273e 0c45 413e 285a 35be a2f2 873e
00000130: 7d2b 423e 405f 663e 8116 fe3d 16e8 2c3e
00000140: 34f1 d33e 269a 38bd 5328 de3e b440 943c
00000150: 0d1d b43d fe53 9b3e efed 993e 3cfe 5a3c
00000160: 38fb 26bc 9050 02be c74a 763e b3a9 0bbe
00000170: 0455 ab3d e985 8f3e 41e0 edbd 2308 9d3e
00000180: 495d ac3e 2215 523e 3119 1d3e e02e ee3c
-0.13188705 -0.0017393981 0.18179968 0.23286332 -0.01737459 0.0030952834 -0.010690943 -0.058572356
0.22706492 0.2537979 -0.17155983 0.26853788 0.17636025 0.35509375 0.1005874 0.09595525
0.18426406 -0.06415906 0.095761366 -0.061861895 0.020027382 0.14819308 0.35142484 -0.022515573
0.37440175 0.11956361 0.22238705 -0.22009984 0.08179072 0.092264496 0.2636539 -0.14754152
0.040003914 -0.020579621 0.15314266 0.26666155 0.2661115 -0.20739947 0.27330673 -0.0546896
0.30381286 0.2763934 -0.24537654 0.024218597 0.014400674 0.13259897 -0.044462956 0.23641157
0.029554205 0.36942264 0.4209326 0.3462717 0.41711912 0.041835036 -0.06171555 0.34033686
0.23577908 0.11084453 0.07307993 -0.31304443 0.34693488 0.1347898 0.17435758 0.06606594
0.25701097 0.16844998 0.0796326 0.16641235 -0.14525148 0.018168764 0.24239412 0.17845939
0.16335331 0.18873996 -0.17710173 0.26552302 0.18961902 0.22497272 0.12406636 0.16885409
0.4139496 -0.045068882 0.4339014 0.01809726 0.087946035 0.30337518 0.3006434 0.013366278
-0.010191731 -0.12726045 0.24051963 -0.13638954 0.08365825 0.28031853 -0.11615039 0.3067027
0.3366492 0.20515874 0.15341641 0.029075086

head.fc2.weight f4 [30, 100]
00000000: 740b f5bc 635a 80be 1783 1b3e 86c3 90bd
00000010: de00 f2bd 8f42 263b 3415 24be ca34 cbbb
00000020: f0f4 0ebb 69e7 5abe 22ea cabd 6a4d f1bc
00000030: 94ad b73d 60c7 183e 9234 14bc 2328 123e
00000040: b46c 523d a7f8 e33c 4a48 57bd 4ed0 be3d
00000050: b1d3 cd3d 99d6 d13e 604a 2e3e 4bcc 8b3f
00000060: 255c 643e e973 ac3e 0ce2 8d3d 0f3b a13e
00000070: dab2 393d a201 9b3d bd13 17bc bad3 e63d
00000080: 306d 39bd 4fe7 003c 6dd3 543e 8262 503e
00000090: 69b7 623e 58f8 a13c 527e 4c3e de5f a0bd
000000a0: c3ee 073e 2038 98bd a6bc b63a 2d6f 4c3d
000000b0: 776d d73d 70c0 953e 7fbc 4abe 52fd 21be
000000c0: 5939 a93e 8017 2b3e 413a 543d 0a27 db3d
000000d0: 7ae9 0c3d 933c 113f 2b76 af3d 792b 53bd
000000e0: d0f8 323d d508 b53e 4497 ed3d 72e0 e63e
000000f0: bf1a ac3b bc27 c7bd e4d0 e93c eed2 473e
00000100: 4be8 743e 6e89 bf3d 05c7 dc3c 5fb0 043e
00000110: 5c29 933e 7cc8 293e 9327 90bc 88c8 343d
00000120: bb53 223d 409e 923e f63b b93e 2141 e33c
00000130: 466c 463e 1bfa ecbd 452a 72be 9955 663d
00000140: b992 143c e503 5f3d a17c cfbd 79fa cdbd
00000150: 828c c73d 1e60 483d 54ba 82bd 121b 473d
00000160: ed77 a43d ad26 12be 864d 95bc 94b5 893d
00000170: 7526 993e 3430 f8bd f6bc 1f3e 6c95 d73c
00000180: 0f1e 173f f644 b93e c097 133e 8d25 493d
00000190: ff1a 06ba 30ec 2cbd 8199 9abd 91ee 6d3d
000001a0: ac1a 56bd c1c6 6bbd 0a45 d7bd 675f 893d
000001b0: 9476 64b9 5a32 a8bd 15b7 77bc 4995 72bc
000001c0: be3a 53bd 39b8 323e 103a 873c 0e03 9d3c
000001d0: e282 c73d a29d 86bd 2c32 f0bc 1fff 2abe
000001e0: 1c9a 33bd e89d 27be 8043 7cbd b743 dd3d
000001f0: b2bf 5b3e 49a3 173d 7e83 a5bd b21f fdb9
00000200: 94a5 0cbe efdc 48bd 3128 d8bb 6a4a 3c3d
00000210: 74cd a43c 4000 6c3d 7cf1 5d3d 8e7f 8c3d
00000220: b646 25bd 62fd 77bd 3ca1 203e a09a 1fbd
00000230: 27a8 423c 5201 393b b99e 193d 4ef9 5dbd
00000240: 29b2 ae3b 6d88 1e3e 05e9 93bd 01b1 303d
00000250: a6fe f33d 4177 9b3d 7446 11bd 498b ccba
00000260: dbe6 63bd 80e8 06bc 9414 bd3c 16ea 98bc
00000270: 0747 f9bd 31bf 1a3e 2454 ccbb 29d7 083e
00000280: 8818 26bc aa4b d8bd ff15 a23d c79c eebd
00000290: 2471 40bd ef93 783d f9ee 2bbd 2644 4f3c
000002a0: 3238 99be e60a 03be 89d1 183c c06d f8bc
000002b0: 522c 983d 6b93 3abe ce81 1c3e 4cb5 57bd
000002c0: 5ef2 96bd 5ec6 bd3c 15d0 003d dce2 013d
000002d0: 5426 8abd 103e 5a3c 0d75 293c c93f f2bc
000002e0: d080 2f3c 15b4 cbbd 4a5e 54bc a6c0 6bbd
000002f0: cf27 77bc 6a9a f2bd 8e7d c23c 58ea 6dbd
00000300: 3bf8 9e3d 35aa 763d 6824 90bd f7a2 413d
00000310: 25dc af3d 529d 0f3e 8e98 1e3d 0d93 14be
00000320: 263e 173e d88b 98bd c9ae a03c cb97 0ebd
00000330: 4ece 85bc 88ec c83c 243c 8bbd 2b3f 433e
00000340: 7264 3b3d 8e07 e7bb 43f5 083c 7fc7 703d
00000350: 9e9c 0ebd a376 ecbc 5ef1 2c3d 1846 b8bc
00000360: 2b52 e53d 36ff 56be 6681 0dbd 2b0d 00be
00000370: 2db8 5d3c 210e 7ebe d079 da3c 460d 783d
00000380: 891f 323e 2ea0 59bd e8ea edbd 5b91 f8bc
00000390: 7391 11be 635e 25bd f7ed 19bd 5632 4cbc
000003a0: d539 7ebc c4b0 00bd 4f00 733d fc15 b43c
000003b0: 1a45 ab3d 199a 303c 9724 083e f6e7 3fbd
000003c0: 39dc 033d 96fe 3cbd fc45 443c 424f 8dbd
000003d0: 50f3 533d 2ca3 e03d 2756 94bd 06ca 87bd
000003e0: fa9e 08bd ee89 34bd 5e0c a4bb 298b 70bd
000003f0: a669 153d d9c9 cbbd 9c57 c23c 0f43 ab3b
-0.029912688 -0.2506896 0.15186726 -0.07068543 -0.11816572 0.0025369262 -0.16023713 -0.0062013613
-0.0021813475 -0.21377338 -0.099079385 -0.02945586 0.08968654 0.14919806 -0.009045737 0.14273123
0.0513732 0.027828528 -0.052559175 0.09317075 0.100501426 0.40984038 0.1702056 1.092172
0.22300775 0.33682182 0.06927881 0.3149037 0.04533658 0.07568671 -0.009221015 0.112708524
-0.045270145 0.007867648 0.20783778 0.20350078 0.22140278 0.01977174 0.19970062 -0.07830785
0.13274674 -0.0743258 0.001394172 0.049910713 0.10518926 0.2924838 -0.19798468 -0.1581929
0.33051565 0.16708183 0.051813368 0.107008055 0.034402348 0.56733054 0.085674606 -0.05155513
0.043694317 0.353583 0.11601117 0.45093113 0.005252212 -0.097243756 0.02854199 0.19514057
0.23916738 0.093523845 0.026950369 0.12957905 0.28742492 0.16580385 -0.017596995 0.044136554
0.039630633 0.2863636 0.3617856 0.027741017 0.1937724 -0.11571141 -0.23648937 0.056233976
0.0090681845 0.054447073 -0.10131193 -0.100575395 0.097435966 0.04891979 -0.063831955 0.0486098
0.080306865 -0.14272566 -0.018225443 0.067240864 0.29912153 -0.12118569 0.15599427 0.026316367
0.5903024 0.36185426 0.14413357 0.049108077 -0.0005115717 -0.042217433 -0.0754881 0.058088843
-0.05227153 -0.057562593 -0.10511215 0.0670765 -0.00021787948 -0.08212729 -0.015119334 -0.0148061
-0.051569693 0.17453088 0.016507179 0.019166496 0.09741761 -0.06573035 -0.029320799 -0.16698883
-0.043848142 -0.1636883 -0.06158781 0.10803931 0.21459845 0.037020955 -0.08081721 -0.00048279535
-0.13735038 -0.049038824 -0.006596588 0.045969404 0.020117499 0.057617426 0.054185376 0.068602666
-0.04035064 -0.06054438 0.15686506 -0.03896582 0.011880911 0.0028229547 0.037504885 -0.054192834
0.005331297 0.1548173 -0.07222179 0.043137554 0.11913805 0.07591105 -0.03546758 -0.0015605475
-0.055640083 -0.008234143 0.023081101 -0.018666308 -0.121717505 0.15111996 -0.0062356163 0.13363327
-0.010137685 -0.10561307 0.07914352 -0.11650997 -0.0469829 0.060687955 -0.04197595 0.012650525
-0.29925686 -0.12797126 0.009327301 -0.03032577 0.074303284 -0.18220298 0.15283892 -0.052663133
-0.073704466 0.023165878 0.031448442 0.03171049 -0.06745592 0.013320461 0.0103428485 -0.02957143
0.010711864 -0.09946457 -0.012961933 -0.05755677 -0.015085175 -0.118458584 0.02374151 -0.058084816
0.0776219 0.060220916 -0.07038194 0.047274556 0.08586911 0.14024857 0.038719706 -0.1450922
0.14769801 -0.07448548 0.019614594 -0.03481273 -0.016333725 0.02452685 -0.0679858 0.19067065
0.04575009 -0.007050461 0.008359256 0.058784004 -0.03481733 -0.028865164 0.042222373 -0.02249436
0.11197313 -0.20995793 -0.034547232 -0.12505023 0.01353268 -0.24810077 0.026669413 0.060559534
0.17394842 -0.053131275 -0.116170704 -0.030342748 -0.1421564 -0.040373217 -0.037580457 -0.012463173
-0.015516718 -0.031418577 0.059326466 0.02198314 0.083627895 0.010778927 0.13295208 -0.046852075
0.032192443 -0.04614123 0.011979576 -0.06899883 0.051745713 0.109686226 -0.07242995 -0.0663033
-0.033354737 -0.044076853 -0.005006357 -0.058726463 0.036477707 -0.09950609 0.023723416 0.0052265

head.fc2.bias f4 [30]
00000000: 465f 043e f0af 9ebd 21e9 193c 670e c4bc
00000010: 6785 713d 18a0 19be d404 cf3c aed7 d2bd
00000020: 2841 9cbc de15 9abd 5a25 0dbb 855c 21bd
00000030: fa33 cbbd d3e4 fabd 237f 66be 92b9 b0be
00000040: 4989 dfbb 2f81 18be b385 10bd fee9 60be
00000050: a500 76be 9418 043e e004 063e 2c3c 3cbd
00000060: 2b2f 813e af59 3c3d 54ab bebd a87d cebd
00000070: 93c1 5dbe b986 4e3e
0.12926969 -0.07748401 0.009393961 -0.023932649 0.058965113 -0.15002477 0.025270857 -0.10295044
-0.019074038 -0.07523702 -0.0021537156 -0.039394874 -0.09922023 -0.12250676 -0.22509436 -0.3451658
-0.0068217856 -0.1489303 -0.035283756 -0.21964261 -0.24023683 0.12900001 0.13087797 -0.045955822
0.252313 0.045983966 -0.09310022 -0.10082561 -0.21655874 0.2016858
