Project-Run/run_cudalstm_gmm_model/model_epoch012.pt (torch, 40907 bytes, 8 tensors)

lstm.weight_ih_l0 f4 [80, 33]
000000 77 2e 4b 3d c1 19 79 be a6 80 f0 3d a4 8a c6 3e
       0.04960486 -0.2432623 0.11743288 0.3877765
000010 e9 e2 09 3f 05 e0 c9 bc 2a 61 1d 3e f3 70 ea bc
       0.5386186 -0.024642954 0.15369096 -0.028618312
000020 55 2a 4d be dd df 80 3e f0 9b 6e bb 0f 34 62 be
       -0.2003568 0.25170794 -0.0036408864 -0.22090171
000030 d3 d9 92 3d 3d ab c3 3c 33 1d c2 3d 3a d7 2e 3d
       0.07170453 0.023885364 0.094782256 0.042685725
000040 fb 20 c5 3d 7f 3a ac 3c 54 a8 6f 3e b9 2b 39 be
       0.09625431 0.021023987 0.23404056 -0.18083085
000050 35 b6 c9 3b f6 c4 ca bc 77 5a 33 bc 7f 02 0e 3d
       0.006155754 -0.024752121 -0.0109468615 0.03467035
000060 36 ca dc bd 51 ed 1d 3c ee a6 19 be 1a 42 54 3e
       -0.10780756 0.0096391 -0.15005085 0.2072834
000070 8a 1e 77 3d 6b 42 82 bd 01 8e 0c be fd ea a1 be
       0.06033186 -0.063603245 -0.13726045 -0.31624594
000080 df a9 ff 3d 3d 3f 6d 3e 54 2c ab 3d 63 a0 b9 3e
       0.12483572 0.23168655 0.08358064 0.36255178
000090 8a 99 5d be bc b6 64 3d c7 c6 2a be a5 d6 1a bd
       -0.21640602 0.05583833 -0.1667739 -0.037802357
0000a0 bf 16 ca bb 04 c9 92 3e b3 7b 07 be 63 10 61 bd
       -0.0061672623 0.28668988 -0.13230781 -0.05494727
0000b0 85 e6 ea 3d 10 78 09 bd 05 24 26 be f2 f5 ad bd
       0.11469749 -0.033561766 -0.16224678 -0.08494176
0000c0 7c f1 dd be 2f 18 40 3e b6 d7 9a bd 53 47 b2 be
       -0.433483 0.18759225 -0.07560675 -0.3482004
0000d0 30 4b 7e 3d e4 05 f7 3c d0 68 79 3d 9a cc ea bd
       0.062083423 0.030154176 0.060890973 -0.11464806
0000e0 8d fd 81 be 82 18 b1 3b d3 e2 17 3e 39 8e ef bc
       -0.25388756 0.005404533 0.1483262 -0.029242622
0000f0 88 73 90 bc d1 bc d8 3e ee bd e9 3d a4 34 9f bc
       -0.017633215 0.42331555 0.11413179 -0.01943428
000100 88 3d 2f bc 6f 6c 0b bd 22 23 c9 3e 3d df 99 bd
       -0.010695823 -0.034038957 0.39284617 -0.075132824
000110 56 2f 8a bc df 37 34 3d a7 21 85 3e a9 b5 9b bd
       -0.016868275 0.043998595 0.26002237 -0.07603008
000120 8d ee 74 bd 05 cd e2 bd ea 5f 2e 3e f9 7a 87 3e
       -0.059797812 -0.110742606 0.17028776 0.26461008
000130 85 eb 48 be 2b 00 81 3e 21 e9 fd 3d d6 13 ca 3b
       -0.19621094 0.2519544 0.123979814 0.0061669154
000140 90 73 64 bb 5a f7 58 3e a8 ba c6 bd a3 b3 76 be
       -0.003485892 0.21188107 -0.097035706 -0.24091963
000150 68 21 83 be 64 74 8c be 44 88 28 3e eb a8 99 3e
       -0.25611424 -0.2743255 0.16458231 0.30011687
000160 2f cd 95 3e 12 3c 5d be 2c 4b 1e be d3 08 c4 bd
       0.29258105 -0.21604946 -0.15458363 -0.095719956
000170 3c 92 92 3d 58 ab 32 3e 2e f7 18 3e d4 a4 0e 3e
       0.07156798 0.17448175 0.14938042 0.13930064
000180 2a 9c ce bd f4 e5 8d bd f5 4d 72 3e 76 dc 64 bc
       -0.1008838 -0.06928626 0.23662551 -0.013968578
000190 b9 4b 4e 3d a6 f3 8f 3e e9 50 2c 3d ab 81 4f 3e
       0.050365184 0.28115577 0.04206935 0.20264308
0001a0 c8 57 37 3e 96 11 29 3e 23 2c 34 bd c5 7b 01 3e
       0.1790458 0.16510615 -0.043987405 0.1264487
0001b0 41 af ef 3c 61 a6 02 3e 62 05 e5 bd 2c a1 46 3e
       0.029258372 0.12758781 -0.11182667 0.1939742
0001c0 bc 1e 10 3e 39 5a 38 bd c9 3b 45 bd 71 b7 b1 3d
       0.14074224 -0.045007918 -0.04815272 0.08677567
0001d0 3a b8 2c 3d d9 9d 59 be bc 99 ee bd b1 d2 9a 3d
       0.04216788 -0.2125162 -0.11650416 0.075597174
0001e0 75 99 ad bc de 2b 36 3e c7 73 a3 3d b8 c2 da bd
       -0.021191338 0.17790172 0.07981067 -0.10681671
0001f0 ef 1a b4 bd aa 6c 3c be f4 1f bd 3c 8b 2e 8d be
       -0.087942 -0.18400827 0.023086525 -0.27574572
000200 64 08 b5 3e 7b 1e 2d 3e 5f 2a b5 bc 80 a6 5d 3e
       0.35357964 0.16906159 -0.02211493 0.21645546
000210 0c ff 96 3e 03 ce 8d 3e c9 ce 00 3e a1 32 ba 3d
       0.2949146 0.27696237 0.12578882 0.09091688
000220 3d 40 c8 bd 14 7a 94 be 7a b0 63 be c4 00 86 3d
       -0.097778775 -0.28999388 -0.22235289 0.06543115
000230 34 85 67 3d db 4f 5c be 85 a8 a9 3d f9 d5 04 3e
       0.056523517 -0.21514837 0.08284096 0.12972249
000240 55 24 9a 3d ab 0c 9e bb 4d 39 ac bd 63 dd bf 3c
       0.07526461 -0.0048232875 -0.08409367 0.023420995
000250 f6 51 a0 be 98 2f 8a 3d d7 d6 19 3e 5e 4e 1a be
       -0.3131253 0.06747359 0.15023361 -0.15068957
000260 af ad 73 3c 83 86 ad bd 5b de dc bd aa bb 13 3e
       0.014872952 -0.08472922 -0.107845984 0.14427057
000270 12 81 62 be d2 5b 97 3e b8 ff 5d 3d cf 5c 2a bc
       -0.22119549 0.2956224 0.05419895 -0.010398104
000280 9e 33 0a bf 5d f6 2a bd cc d6 b9 3b e8 4a 42 3e
       -0.5398501 -0.041738857 0.0056713577 0.18973887
000290 c7 5e c1 3d 2f 1d 63 3e a3 c1 2f be 62 81 a6 3d
       0.094419055 0.22179101 -0.1716371 0.081301466
0002a0 1c 4d e6 3c 30 f4 6a 3e 08 0e 4b be e5 96 04 3e
       0.02811294 0.22944713 -0.19829571 0.12948187
0002b0 3f 4e 35 bc ca 1c a4 bd 63 86 1b bd 87 67 ce 3d
       -0.011066019 -0.080133036 -0.037969958 0.1007834
0002c0 fb 9d 99 bb 7b 75 4d be 6f 78 94 bd 9a 7b 0b 3d
       -0.004688022 -0.20064346 -0.072495334 0.034053423
0002d0 de 8e c8 bd 3c 4e 26 3e ad 87 bf bd 1b f9 42 3d
       -0.09792875 0.16240782 -0.0935205 0.047600847
0002e0 08 92 e0 bb 6b f7 f1 3d 9e 00 0b be 70 ff c7 3d
       -0.006853346 0.11814769 -0.13574454 0.09765518
0002f0 db 3b bc bd 9b 78 ee bc 32 c6 bd bd 4b 6b 58 bd
       -0.09191104 -0.029110244 -0.092663184 -0.052836698
000300 d8 4f 4b bd d2 58 d6 bd ec 65 88 3d 6a 8b bd bd
       -0.04963669 -0.1046616 0.06660065 -0.09255107
000310 1b 8b 84 3d 61 d2 1d 3d 7d 57 fe 3d 7c 96 fb 3c
       0.06471845 0.03853071 0.12419031 0.030711405
000320 91 a4 22 3e ab a3 41 bd e7 4f 0b 3e 48 23 15 3e
       0.1588309 -0.047275227 0.13604699 0.1456424
000330 e8 18 84 3c 80 23 63 bd 5b f1 c8 3d ec 39 64 bd
       0.016125157 -0.055453777 0.0981166 -0.0557193
000340 d8 3b a0 bd fb 9f a6 3d 8e d3 e6 bd 74 01 1a bd
       -0.07823914 0.081359826 -0.112708196 -0.037599042
000350 22 dc 09 bd 3e 19 02 bd 82 9e 3f 3e 57 f7 a3 bc
       -0.0336572 -0.031762354 0.1871281 -0.020015402
000360 d4 99 77 bd 00 0b 35 bd ef 65 38 3d 48 ee e4 bd
       -0.060449436 -0.044199944 0.045019086 -0.11178261
000370 95 3e b5 3c 5c 43 06 3d 78 fd 42 be e2 5d ce bd
       0.022124568 0.032779083 -0.19042003 -0.100765005
000380 2a 54 06 be ac 40 c4 3c 91 f6 94 3d 6d 0c ea 3d
       -0.13118044 0.02395662 0.07273591 0.11428151
000390 47 62 c1 bd b2 b3 29 bd 0b 1b 9b bd 71 c2 96 3d
       -0.09442573 -0.041431136 -0.075735174 0.073613055
0003a0 bf 64 48 be e7 4d 87 3e 3e e6 4e 3d a9 57 0f 3e
       -0.19569682 0.26426622 0.050512545 0.13998283
0003b0 c3 ea 9c bb 37 bf c7 bd 5f 87 72 bd 92 34 39 3e
       -0.004788728 -0.09753268 -0.05921113 0.1808646
0003c0 36 b0 d0 3d 7d 5d 89 3c 2b 61 88 be 6e 9f 1b be
       0.101898596 0.016768211 -0.26636633 -0.15197536
0003d0 d1 8e a0 bc 86 29 1d 3d 5c ee e9 3c 51 c8 06 bd
       -0.01959935 0.038369678 0.028556041 -0.03290588
0003e0 c8 ee e2 bd 2c 5b 28 3d fe 38 0a bd 91 8a f5 3d
       -0.110807 0.041102573 -0.03374576 0.1198932
0003f0 01 a5 8a be b5 31 60 bd b1 9a 26 be 7f 13 93 3e
       -0.27079013 -0.054734904 -0.16269948 0.28725812

lstm.weight_hh_l0 f4 [80, 20]
000000 a9 eb 4c 3e a7 94 e6 3e ca d4 8f 3e a3 9a 9a be
       0.20011772 0.45035288 0.28092033 -0.30196103
000010 e8 3c 59 3e 37 54 29 be ea 3c a5 3e 64 c1 56 bf
       0.2121464 -0.16536032 0.32273036 -0.8388884
000020 e4 6d d0 3e a5 d6 d3 3e ed da e9 3c d6 f9 3d 3e
       0.4070884 0.41374698 0.028546775 0.18552336
000030 b0 bb 4a be 74 fa 70 be 2d d0 70 3e 3c 9b d3 3e
       -0.1979816 -0.2353304 0.23516913 0.41329372
000040 ab 99 27 bc 61 f4 72 3e d8 12 ff 3e ab 81 2d bf
       -0.010229508 0.23726036 0.49819064 -0.6777598
000050 bb 34 03 3e c0 26 24 bd 99 89 d3 bd 81 c3 0b 3f
       0.12813084 -0.040076017 -0.10328979 0.5459519
000060 a5 25 8c 3e 1b 69 14 bf fa 56 3c 3e 6f 64 52 be
       0.2737247 -0.5797288 0.18392554 -0.20546125
000070 6f 66 f8 3e 99 71 9a 3d 7c ee 0b 3f fb ec 00 bf
       0.4851565 0.07541198 0.54660773 -0.50361603
000080 36 22 3a bf a0 28 f6 3e 59 95 3a 3e da bd 31 3e
       -0.7270845 0.4807787 0.18221034 0.17357579
000090 15 76 05 3e ee fa 99 be 17 52 fd 3e 12 5e 2c 3e
       0.13033326 -0.30074257 0.49476692 0.1683276
0000a0 b2 9a 2d 3f cf ae 12 3e 68 29 74 bd 44 b6 44 be
       0.6781417 0.14324497 -0.0596098 -0.19210154
0000b0 ac f4 6a 3e e5 55 8a be b4 c2 19 3f 00 a5 18 bf
       0.22944897 -0.27018657 0.6006272 -0.5962677
0000c0 46 e3 d4 3d 9e a5 a0 be e6 90 83 bc 0f 9b a1 be
       0.103949115 -0.31376356 -0.016060304 -0.31563613
0000d0 24 9f 09 bf 12 9a 75 bf fa 7e c8 be d1 cc c0 3e
       -0.53758454 -0.9593822 -0.39159375 0.37656263
0000e0 25 07 a2 3e bd 07 f1 be b9 4f 80 3e e4 fe 33 bf
       0.31646076 -0.47076216 0.25060824 -0.7031081
0000f0 4a 8d 53 3f 52 51 21 3f 93 53 ae 3e 07 46 65 3d
       0.82637465 0.6301471 0.34048137 0.055974986
000100 17 f6 24 3f 71 10 4a be cd c3 31 3e 16 6b 00 bf
       0.64438003 -0.19732834 0.17359848 -0.501634
000110 64 d5 7a 3f 0a 8e ea 3e e5 67 bf 3c 43 47 b4 bd
       0.9798186 0.45811492 0.02336497 -0.088026546
000120 e4 f4 6d be 7e d4 00 3f 33 47 8d be 83 ae a5 bd
       -0.2323795 0.5032424 -0.27593383 -0.08089926
000130 ee 86 cb be dc 1e 87 bd fb 76 22 3f b8 01 55 be
       -0.3975138 -0.06597683 0.634628 -0.20801437
000140 53 2c 8f bd 7a 6d 91 be bd 02 b7 be d9 70 6d be
       -0.06990876 -0.28403836 -0.35744277 -0.23187579
000150 4c 10 59 be 1e 7a 60 bb 09 8b 0d 3f ca d0 26 bf
       -0.21197623 -0.0034252475 0.55290276 -0.65162337
000160 6a 68 55 be 3a 7c a8 be 32 e5 34 3e 8d 6c 82 3e
       -0.20840612 -0.32907277 0.17665556 0.25473443
000170 71 9e f0 be f7 06 25 be 99 5b c3 3e e6 f4 e8 3d
       -0.4699588 -0.16115938 0.3815582 0.11374836
000180 fb 35 a0 be e9 f2 c5 3d d9 ab 11 3f 34 e8 2b 3e
       -0.31291184 0.09665472 0.56902844 0.16787797
000190 d2 ac c2 3d b7 ea 1a be 96 c9 19 bf 3b 99 33 3e
       0.09505619 -0.15128599 -0.6007322 0.17538922
0001a0 15 8d ea bd d6 1e 19 be 93 69 56 be 33 5d 29 3e
       -0.114526905 -0.14953169 -0.20938711 0.16539459
0001b0 02 f7 c4 3e e2 0c 85 3e d1 f0 c1 be e2 66 21 3f
       0.38469702 0.2598639 -0.3787904 0.6304761
0001c0 18 b2 a5 3e c1 0b 01 bf d4 00 39 be 20 e7 09 bf
       0.32362437 -0.5040856 -0.18066722 -0.53868294
0001d0 6d 2a 19 be 89 e6 09 3f 92 8f 81 be 7c 4c 40 be
       -0.1495759 0.53867394 -0.25304848 -0.18779176
0001e0 92 66 b6 bc e3 1f 88 3d 0a 05 21 bf ff 30 8e 3d
       -0.022265706 0.06646707 -0.62898314 0.06942939
0001f0 ff 81 d1 3e d7 41 cd 3e 23 87 76 bd 2f 40 50 3e
       0.40919492 0.40089294 -0.06018747 0.20336984
000200 e3 18 ec 3e 4b ce e3 3e 33 33 d4 be 1d 4d 2d 3d
       0.46112737 0.44493327 -0.41445312 0.04230987
000210 22 3e 44 3c 7c 53 98 be e5 b9 8a be 6a 1d 16 bf
       0.011977704 -0.29751194 -0.2709495 -0.5863863
000220 01 e8 1c bf 0f 79 15 3f 19 18 9c 3d 48 37 8d be
       -0.6129151 0.58387846 0.07621784 -0.2758124
000230 7e 3f 4a be 29 2a 60 be a5 1b 9c be ea 81 2c 3f
       -0.19750783 -0.21891083 -0.3048984 0.67385733
000240 ea 97 3f 3f 4e 5d 86 3e 15 22 c1 3d 34 fd b1 3d
       0.7484118 0.2624306 0.09430329 0.08690873
000250 bc 43 31 bd 6a 87 be 3e 95 15 46 be 56 55 ee be
       -0.043277487 0.37212688 -0.1934417 -0.4654948
000260 c6 c5 85 3d bd 2a b2 bd bf 03 73 be 3b dd 01 bf
       0.06531863 -0.08699558 -0.23731898 -0.50728196
000270 26 79 d0 be 11 8c 01 3f 97 43 1c bf 7f e0 d5 3e
       -0.4071743 0.5060435 -0.61040634 0.4177284
000280 48 63 9c 3e d7 6a 09 3d 1f ca 80 be de 37 05 be
       0.30544496 0.033549156 -0.25154206 -0.13009593
000290 64 20 15 3f c7 19 f0 bd 8c b4 d5 3e 94 f2 ca be
       0.5825255 -0.11723667 0.4173931 -0.39638197
0002a0 17 dc a1 bd 32 a3 cf bd f8 8a 2d 3e a6 67 d2 bd
       -0.07903307 -0.10138549 0.16947544 -0.102736756
0002b0 9f 80 09 bf 3b 2e 26 3e 56 71 77 3f 48 84 c7 bd
       -0.53711885 0.16228573 0.9665731 -0.097420275
0002c0 8f 39 50 be df 04 35 3b 39 82 71 3e ed 8d a9 be
       -0.20334457 0.0027621312 0.23584832 -0.33116093
0002d0 f4 f5 10 3f c3 e0 e5 3e 75 06 92 3e 0d ad 2c 3e
       0.56625295 0.44898042 0.2852055 0.16862889
0002e0 c5 f9 a6 be 62 c7 83 bc 62 b0 94 3e 4b 2e 2e be
       -0.32612434 -0.016086284 0.2904082 -0.17009847
0002f0 3d 1b 8e 3e 57 af 92 3e a4 8a 50 bb 49 94 18 3d
       0.27755156 0.286494 -0.0031820918 0.03725079
000300 61 38 1d be 0c 95 42 bf 8a 65 96 be 5b 4e d8 bd
       -0.15353538 -0.7600868 -0.29374343 -0.1056182
000310 86 b4 aa 3d 30 d6 b9 3e 00 a5 92 3d 1b 11 c4 be
       0.08335213 0.36296225 0.071603775 -0.382943
000320 fb 53 89 3e fc 51 cd bd 33 10 07 be ee 39 02 bd
       0.26821885 -0.10025403 -0.13189773 -0.031793527
000330 8e 77 66 bd ae 58 5a 3e a4 93 69 bd c6 58 2f be
       -0.05626636 0.21322891 -0.057025567 -0.17123708
000340 b9 c2 25 be d2 00 8b 3d ae 98 fd bd 1b 15 c6 3d
       -0.16187562 0.06787266 -0.12382637 0.09671994
000350 d4 82 47 3d 67 4a 78 bd 57 01 dd be 99 d3 b0 bd
       0.04870875 -0.06061783 -0.43165085 -0.08634109
000360 3c 42 26 bf 28 61 12 3e c8 17 45 3d 23 cf 2c bf
       -0.64944816 0.14294875 0.048118383 -0.67503566
000370 c3 6c 92 3e f3 12 89 3e 8c 9a cb 3d 2e 0b 20 bf
       0.28598604 0.2677227 0.09941587 -0.6251706
000380 8a 1f dc 3d 79 24 6c 3c e5 bb a3 3c 33 68 26 be
       0.10748203 0.014412993 0.019987056 -0.16250686
000390 49 6e 8f 3e 77 16 38 3e ad 36 9f 3d f3 4f 76 3e
       0.28013828 0.1797732 0.077741005 0.24053936
0003a0 b8 2b 01 bf b4 cf f3 be 70 7b e0 be 93 02 9f be
       -0.50457335 -0.47619402 -0.43844175 -0.3105665
0003b0 b1 63 e0 be c5 e8 74 3d a1 17 07 3f 88 60 61 bf
       -0.43826059 0.0597923 0.5277043 -0.8803792
0003c0 8c 01 07 bf 48 2d ec 3d 72 36 69 3d a3 16 bf be
       -0.52736735 0.11532074 0.05693669 -0.37321958
0003d0 85 6c 61 bf 9f 1c 9d be f5 36 90 3e 2f 0e aa be
       -0.8805621 -0.306859 0.2816693 -0.33213946
0003e0 bb b1 a7 be 13 2e 12 be 03 b6 eb 3e 3c 94 28 3f
       -0.32752785 -0.14275388 0.460373 0.6585119
0003f0 bf 97 2c 3f cc 6b 99 be 65 50 66 be 7a af 0f be
       0.67419046 -0.29965055 -0.22491606 -0.14031783

lstm.bias_ih_l0 f4 [80]
000000 4e 5e 26 bf 32 cf ee be 21 06 8d be 6e 90 a4 bf
       -0.6498765 -0.46642452 -0.27543738 -1.2856576
000010 1c 44 11 be 0e f4 ab 3d 7d 7a 86 3e b7 a2 ed 3d
       -0.14186138 0.08396159 0.26265326 0.11603301
000020 be ed d1 be e1 f9 01 bf 6a 9f 7c be 6c d9 8b be
       -0.41001695 -0.5077191 -0.24670187 -0.27314317
000030 6d 27 7b 3e 5b e9 b5 be a6 f0 84 be 1d 76 7d be
       0.24526758 -0.355296 -0.2596485 -0.24752088
000040 60 89 b4 be 23 db 88 be d0 27 0a bf f1 7e 6b 3e
       -0.3526106 -0.26729688 -0.53967 0.22997643
000050 d6 69 02 3f 5d 75 3e 3f bd 89 49 3e ea e8 b8 3f
       0.5094274 0.7439783 0.19681449 1.444608
000060 f4 4b c6 3e a5 3d 7e 3d 77 32 44 be b8 d7 13 3f
       0.38729823 0.062070508 -0.19159876 0.57751036
000070 24 53 a4 3e b6 0c a2 3c 06 cb 11 be d7 c7 07 3d
       0.3209468 0.019781452 -0.14237604 0.033149567
000080 94 30 98 3e 37 e0 b1 be bc 1f 8b 3e 77 ab 3f 3e
       0.29724562 -0.34741375 0.2717265 0.18717752
000090 51 3e f6 3e 5d 3c dc 3d 6f 4e 13 3f 11 53 bf 3d
       0.4809442 0.10753701 0.57541555 0.093420155
0000a0 72 8d 81 bd 73 9c 38 be f5 c9 6c 3e 9e 94 88 bd
       -0.06325807 -0.1802843 0.23123915 -0.066689715
0000b0 fc a3 ef bd 8a 66 a6 3e 90 af 50 be 8e a3 d3 3e
       -0.117011994 0.32500106 -0.20379472 0.4133572
0000c0 bd 13 39 bd e6 6c 04 3d 90 93 6f be 82 0a 24 3e
       -0.04518484 0.032330416 -0.23396134 0.16019633
0000d0 2a 4b 72 3e a0 62 33 be b4 9d 14 3c 5d 8d bc be
       0.23661485 -0.17518091 0.0090708025 -0.36826602
0000e0 7a e6 a6 bc e1 ac 89 3d ac cc 9a 3d 04 45 6c 3e
       -0.020373572 0.06722427 0.07558569 0.23073202
0000f0 c8 15 be be 7c df 96 3e 88 4c 74 be 2c 4f 6f 3e
       -0.37125993 0.2946738 -0.2385732 0.23370045
000100 be f7 33 bc 54 28 8e 3e 59 cd 88 3e 1a 7f a4 3d
       -0.010984359 0.27765143 0.26719168 0.08032055
000110 50 6d 5b be 50 12 4b 3e c7 23 d4 bd 44 07 70 be
       -0.21428418 0.19831204 -0.103583865 -0.23440272
000120 58 17 00 bd 73 e5 64 3d 75 30 6d be 6a 3e 10 be
       -0.031272262 0.055882882 -0.23163016 -0.14086309
000130 66 9c ec 3e 24 bb 24 3e 8f 3f 45 3d 72 ce 11 3e
       0.46213073 0.16087013 0.048156317 0.14238909

lstm.bias_hh_l0 f4 [80]
000000 0a b9 15 bf b7 ab 56 bf 75 c7 d0 be be c6 a9 bf
       -0.5848547 -0.83855766 -0.40777174 -1.3263776
000010 d9 b0 ef be 2e 4b 56 3c d7 34 13 3e b3 a9 60 be
       -0.46814612 0.013079448 0.14375626 -0.21939735
000020 9d cb 98 be d7 2a eb be fb f9 d7 be 9f 34 46 be
       -0.29842845 -0.45931122 -0.42182907 -0.19356011
000030 2a 6a 09 3e 47 7c 7b 3c 53 60 92 be 89 29 65 be
       0.13419405 0.015349454 -0.28589115 -0.22379126
000040 98 51 14 bf 9a 50 14 bf 89 99 4a bf 15 e8 19 3e
       -0.57937 -0.5793549 -0.79140526 0.15029939
000050 07 19 1b 3f 1f c3 18 3f f4 b0 d3 3e b9 34 c2 3f
       0.60585064 0.5967273 0.41345942 1.517234
000060 80 f8 ca 3e b1 cb a6 3d 0b 24 31 be 33 54 87 3e
       0.39642715 0.0814432 -0.17298906 0.26431426
000070 a6 2d cb 3e d2 ae 68 3e b0 35 50 be bb 40 a1 bd
       0.39683264 0.22722939 -0.2033298 -0.078736745
000080 2d 05 b8 3e 95 eb c0 be da 46 d5 3d 54 a6 4d bd
       0.3594145 -0.37679735 0.104139045 -0.05020745
000090 a5 f7 c4 3e db 86 68 3e 96 f1 1b 3f 8c 71 a1 3d
       0.38470188 0.22707693 0.60915506 0.078829855
0000a0 5f 0d 0c 3e ff 87 36 bd fa a5 50 3e 09 ab 19 3e
       0.13676976 -0.04456329 0.20375815 0.15006651
0000b0 98 27 cb be 8f 64 c2 3e 8c 36 ac be fe 2b d5 3e
       -0.39678645 0.37967345 -0.33635366 0.41635126
0000c0 0a 50 3e be d0 4f 18 be 45 38 1f be 4c 4c 55 3e
       -0.1858522 -0.14874196 -0.15548809 0.20829886
0000d0 c4 4f 13 3d 74 75 08 bf 86 7c 60 bd 0a 18 9d be
       0.035964742 -0.5330422 -0.054806255 -0.30682403
0000e0 1e 0a 89 3e 56 bf d6 bb cb d5 9b bd 4d 04 9b ba
       0.2676553 -0.0065535707 -0.07609137 -0.0011826843
0000f0 64 af d8 bd 03 b7 9d 3d 1e ce d4 bd bc 99 73 3e
       -0.10580328 0.07700922 -0.10390876 0.23789114
000100 80 57 24 3c 2a 64 ce bd 47 f3 bc 3d 4c 9c 8a 3b
       0.010030627 -0.100776985 0.09226089 0.004230058
000110 26 af 26 be 3a e7 92 bd 4b 42 89 bd db b9 03 3d
       -0.16277751 -0.07173009 -0.067020975 0.032159667
000120 72 8c 31 3e 09 8f 0d be f5 6c 84 be ba 32 19 be
       0.17338732 -0.13824095 -0.25864378 -0.14960757
000130 d6 27 51 3e e5 57 ff 3d ec 5c 20 be dc 9e 8c 3e
       0.20425352 0.124679364 -0.15660447 0.2746495

head.fc1.weight f4 [100, 20]
000000 ce c7 94 bd 82 7f dc 3b 03 cd c2 3c 54 45 51 3c
       -0.07264672 0.0067290673 0.023779398 0.012772877
000010 c2 3a 74 3c b1 35 bf 3e ee 20 05 3b c9 2e 21 be
       0.014906587 0.3734565 0.0020313817 -0.15740503
000020 61 87 26 bb df e3 27 bd 51 10 b8 bc 15 76 91 3d
       -0.0025410282 -0.0409888 -0.022468718 0.071026005
000030 b5 da 84 b9 de 0c 96 bd 5d de 62 3c 6f 86 be 3e
       -0.0002533995 -0.07326673 0.013846961 0.3721194
000040 7d 4f 01 3d 81 5a 32 bd c1 1f 21 3d 28 43 0a bf
       0.031569947 -0.043543343 0.039336924 -0.5400872
000050 c4 85 83 3d 61 a5 57 3c fd 0d af 3c 8c 78 97 bc
       0.06421998 0.013161988 0.021368975 -0.018490098
000060 e1 9d f1 ba 78 8b b5 bd ca cd f5 bd ee 3b 83 3e
       -0.0018433892 -0.08864492 -0.12002142 0.2563166
000070 70 f4 80 bc 21 16 fb bb e1 9a 3b 3d 68 e6 79 bc
       -0.015741557 -0.00766255 0.045802 -0.015252687
000080 22 b4 5e 3c f4 54 9a bc 9a 82 61 bc 93 b7 84 3f
       0.013592752 -0.018839337 -0.013764048 1.0368522
000090 74 51 8d 3c cd c5 82 bd 17 f4 02 3d c4 88 5f 3b
       0.017250754 -0.06385384 0.031971063 0.0034108618
0000a0 39 e6 89 3a 6c 6e 9d 3c f3 0c 7c 3c f3 ab a7 3c
       0.0010520882 0.019217692 0.015383947 0.020467734
0000b0 6c 90 ac bc 93 13 cc 3d 89 32 5c be 77 f5 9f bf
       -0.02106496 0.09964671 -0.21503653 -1.2496785
0000c0 a9 39 01 3d d6 25 13 3c 3b 66 f9 3d d9 d0 0d 3c
       0.03154913 0.008981189 0.12177702 0.00865575
0000d0 a4 3e 84 bc 53 5f ee 3a 3b 9d f8 3b 3b d0 4d be
       -0.01614315 0.0018186368 0.0075871027 -0.20098965
0000e0 ca 45 56 3c 65 26 4d 3d fd 37 19 39 ce 7d b6 3c
       0.013078162 0.050085444 0.00014612074 0.022276785
0000f0 c3 83 60 bd 95 5b 16 3d 47 05 14 be 1e 2b f9 bd
       -0.054813158 0.036708433 -0.14455138 -0.12166427
000100 92 95 3e 3b eb 5c f7 bc f4 0d 59 3d fc 8e 01 bc
       0.002908085 -0.030195674 0.052991822 -0.007907625
000110 38 c9 00 3d 2c c2 27 bd 2a 77 f1 3d 1b 7e 44 bd
       0.031441897 -0.04095666 0.11790307 -0.047971826
000120 6f 5d 06 be 53 31 11 bc 11 1f 3a 3e 86 52 7c bd
       -0.1312158 -0.0088618575 0.18175913 -0.061602138
000130 ab c9 7b 3d 67 9b 80 3c 32 07 a6 bc 7f fc 81 3d
       0.061471622 0.015699102 -0.020267103 0.06346988
000140 8c 31 53 3e 51 a1 d1 bc 2b 3f 4a 3e d2 a4 13 bd
       0.2062437 -0.025589617 0.19750659 -0.036045857
000150 89 2e 3e 3d be 5e f8 bd b6 13 52 be 7d c6 b6 bd
       0.046431098 -0.12127446 -0.20515332 -0.089245774
000160 51 d8 f3 bc 20 4a 4f bd 44 8b 2f be c5 e6 54 3e
       -0.029766234 -0.0506078 -0.1714297 0.20791157
000170 35 fa 03 bc c1 e9 3e bd 2d e3 ee 3c 07 37 86 3d
       -0.0080552595 -0.046609644 0.02916106 0.065534644
000180 ff 7d 3e 3d fd 53 f7 bd d0 25 a9 bb 31 66 9b be
       0.046506878 -0.12076566 -0.0051619783 -0.30351403
000190 dc 5b 02 3e 39 98 e5 bc a9 74 60 3d de ab a3 bc
       0.12730354 -0.028026687 0.054798756 -0.019979414
0001a0 b5 36 96 3c 41 14 92 3e de 5d c5 3d 01 8d 10 be
       0.018336633 0.28531078 0.09637044 -0.14116289
0001b0 02 27 55 bd 67 5e 8e ba 48 0b 11 3e 90 f9 9d bd
       -0.052039154 -0.0010861874 0.1416446 -0.07713616
0001c0 de d0 03 bc 7d d3 d0 3a 93 fb 1f 3d 91 eb 97 be
       -0.008045403 0.0015932169 0.03905828 -0.2967191
0001d0 27 25 13 3d d4 d7 17 be e4 a3 b9 3c 80 9e d3 3d
       0.035924103 -0.14828426 0.022661157 0.10332966
0001e0 25 0f f7 bd b4 a3 b7 bd bb 24 52 3d da cb d3 3d
       -0.120634355 -0.08966771 0.05130456 0.10341616
0001f0 59 87 43 3d 00 84 ab bc ff d7 60 bd 2b 75 77 3d
       0.0477365 -0.020936966 -0.05489349 0.060414474
000200 57 a6 86 3d 10 85 9a 3e e9 0d 22 be af 6b 8a bf
       0.065746956 0.30179644 -0.15825619 -1.0814112
000210 2b 03 05 bc a5 0b ce 3d 4f 57 62 3d bd f5 89 bb
       -0.008118431 0.10060815 0.055259045 -0.0042102025
000220 48 15 7d bc ee 78 97 3d 1e 2e 00 bd 7e 5d 78 3e
       -0.015446968 0.073961124 -0.03129398 0.24254414
000230 76 80 06 bf ae 9c c3 3c aa 50 cb 3d b2 a5 a0 bd
       -0.52539766 0.023878422 0.09927495 -0.07844104
000240 c9 ae f6 bd 7e dd 8c be f0 36 bd 3e bf 32 75 be
       -0.120450564 -0.27512735 0.36955976 -0.2394514
000250 d7 90 d3 bc f3 ee bf 3d 50 72 99 3e c0 9d dc be
       -0.025825901 0.09371748 0.29970026 -0.43089104
000260 ae 55 64 3c ee 0e 8c 3d 85 2e 33 be fc 32 ea 3d
       0.013936443 0.06838785 -0.17498215 0.11435506
000270 a3 fb 30 3e 02 12 43 bd 4c c3 5d bd f6 79 09 3f
       0.17283492 -0.047624595 -0.054141328 0.5370172
000280 0e d2 d4 3e 8e 8a 04 ba 42 7e 24 be 63 33 8e 3d
       0.4156651 -0.00050560466 -0.16063789 0.06943395
000290 4b 79 ba 3d 02 7c fb bd 93 a4 fa 3d fe d1 34 be
       0.09105166 -0.12279512 0.12238421 -0.1765823
0002a0 9f cf f2 bd fd 7d de ba 7c 74 04 3e d7 c8 02 be
       -0.11856007 -0.0016974803 0.1293506 -0.12771927
0002b0 4f cb b1 ba 98 68 63 3c ae 79 17 3e e9 5c ba 3d
       -0.0013564619 0.013879918 0.14792511 0.090997525
0002c0 80 09 cd bd ab 33 ed bc 89 22 aa bd cc 90 4b 3d
       -0.100115776 -0.028955301 -0.08307368 0.049698636
0002d0 06 c2 18 bd 25 6e 86 3d 21 2d bb 3d d0 88 16 3d
       -0.03729441 0.06563977 0.09139467 0.03675157
0002e0 30 4b ac bd 56 86 83 bd e8 68 81 3d ab ce 35 bd
       -0.084127784 -0.06422107 0.063188374 -0.044386547
0002f0 f3 d1 c4 bc c2 df 6a 3d ca 65 b4 3d e7 00 ec bd
       -0.024025893 0.0573423 0.08808477 -0.115236096
000300 eb e3 27 3c 81 c7 5b 3d cc f7 86 3c a0 c2 d2 bb
       0.010247211 0.05365706 0.01647558 -0.0064318925
000310 25 4f 9b 3d a2 04 41 bd dd 29 1a bd 07 9b b8 3e
       0.07583455 -0.04712356 -0.03763758 0.36055776
000320 3d 8e 4c bd 8c 0a fb 3c b6 9e 52 3d ac 72 37 bc
       -0.049940336 0.030644678 0.05142089 -0.0111967735
000330 6f 6e 2c 3c cf 3d 2e bc ed 87 d2 bc 14 51 69 bc
       0.010524376 -0.0106348535 -0.02569958 -0.014240522
000340 9e 7b 81 bd d0 a8 ae bd 73 b1 e2 be 95 db 8c bd
       -0.06322406 -0.08528292 -0.44276008 -0.068778194
000350 e8 17 06 3d 43 dc 8c bd dd d3 0b 3d 1f 4c 2e 3c
       0.032737643 -0.06877949 0.034137595 0.010638266
000360 5d dd 43 3d fd 04 51 bd 2d d8 70 3d 4c 06 bd 3e
       0.04781853 -0.051030148 0.05879991 0.36918867
000370 90 15 ac 3d 80 b1 72 bd 06 d1 cc 3d 5d 83 78 bc
       0.0840255 -0.05925131 0.100008056 -0.015168038
000380 8d cc 26 be d5 07 7c bd de bb 0d 3d 04 a9 9a bc
       -0.16288967 -0.061530907 0.034602992 -0.018879421
000390 4e 26 0a be 59 9b f1 bc e5 2a 36 3d 2e 19 ff bd
       -0.13491175 -0.02949302 0.0444745 -0.124559745
0003a0 34 46 16 bc 46 7d 29 bd b0 b6 2e 3c b9 0d 7f 3d
       -0.009172011 -0.041379236 0.010663673 0.062268946
0003b0 20 dc 80 3e 6a 5d 35 be eb e7 b1 3d f3 02 f9 3d
       0.25167942 -0.17711416 0.08686813 0.12158766
0003c0 df ed 0d 3c 5b ee e2 bc 3b f0 2d 3b 40 8e 65 bb
       0.00866267 -0.027701547 0.0026540894 -0.0035027415
0003d0 85 b1 9b 3c c2 0b db bd 05 91 7b 3f 6d e1 82 bb
       0.019005546 -0.10695602 0.9826816 -0.003994158
0003e0 83 75 ff 3c 66 f2 64 bb 21 8a 71 3f 10 6a 81 bd
       0.031183964 -0.003493452 0.94351393 -0.06319058
0003f0 8a 27 84 bc f1 4a 25 bc ec 4f f5 bc a6 02 c6 3a
       -0.016132135 -0.010088668 -0.029945336 0.001510699

head.fc1.bias f4 [100]
000000 57 54 c8 be 5c 45 46 bd cf 11 4d 3e 25 f7 24 3d
       -0.39126846 -0.04840599 0.20026325 0.040274758
000010 5d 0b 73 be d0 df b5 bd 04 e4 3f 3d 92 2b 73 bd
       -0.23734803 -0.088805795 0.046848312 -0.059367724
000020 68 5a 81 bd 17 e0 8b 3c 5f 35 76 be e6 03 82 3e
       -0.06316072 0.017074628 -0.24043797 0.253936
000030 4e b9 05 3e 5e 50 a3 3e 85 7f 17 be 43 7d 75 be
       0.1305897 0.31897253 -0.14794739 -0.23973565
000040 29 ed e8 3d 60 ca 62 bd a0 38 3d bd 3e 21 3e bd
       0.1137336 -0.05536878 -0.04619658 -0.04641842
000050 d2 61 04 bd 31 ab 6b 3e 0d ac 37 3e 1c 32 75 bd
       -0.03231985 0.23014523 0.17936726 -0.05986224
000060 20 94 ab 3e 45 08 a0 be 9f 17 e7 3d 1e bd 9c be
       0.33511448 -0.3125631 0.11283802 -0.30613035
000070 fa 42 fe bc 5e e1 e9 3d 4f 3f a5 3d 8d bf c9 be
       -0.031037796 0.114199385 0.08068716 -0.39403954
000080 e1 16 b0 bd 6d 95 67 be 5c a2 ed 3d 2f 49 23 3e
       -0.08598114 -0.22615595 0.11603233 0.15945886
000090 18 6a 5b 3d 80 29 69 be 2f 23 82 3e 3a 5e dd 3b
       0.053567976 -0.22769737 0.25417468 0.0067556174
0000a0 ef 2c 8e 3e a7 27 95 3e 50 da 00 bf bc e5 59 bd
       0.27768657 0.29131815 -0.5033312 -0.053197607
0000b0 50 89 ca bd 08 9b 1b 3e 9b f6 b9 bd 09 cb 2e 3d
       -0.098894715 0.15195858 -0.090802394 0.0426741
0000c0 3f c8 9a 3b c3 54 97 3e 2c f9 af 3e c2 8b 87 3e
       0.004723578 0.29556856 0.3436979 0.26473814
0000d0 78 dd d9 3e 78 e8 d7 3d 85 b6 13 be 4a 44 a2 3d
       0.4255178 0.10542387 -0.14425094 0.07923181
0000e0 6e a6 c0 3d e6 69 7e bc 56 91 fc bd ac 7c cc be
       0.09406744 -0.015528178 -0.12332408 -0.39938867
0000f0 b1 f5 b7 3e 1d 72 23 3e fb ee 55 3e 4d 3f 8b 3b
       0.35929635 0.159615 0.20891945 0.0042494894
000100 ff 9e 5a 3e 9a 03 f5 3d 6f 85 ba 3d 8b 89 8b bd
       0.21349715 0.119635776 0.09107482 -0.068133436
000110 ff 70 1a be 10 fa 6d 3d 35 f2 5a 3e 73 a7 db 3d
       -0.15082167 0.058099806 0.21381457 0.10725298
000120 06 47 a3 bc 13 5d 30 3e c7 62 bd be e8 e5 5a 3d
       -0.019931328 0.17223005 -0.36989424 0.053441912
000130 51 f4 2e 3d 42 cf 0e 3e ec bf 6d bc 0a 1b a2 3b
       0.042713467 0.1394625 -0.01451109 0.004947071
000140 59 d7 c4 3e 7b 72 09 be 1d c9 e4 3e dd 04 25 be
       0.38445547 -0.13422577 0.44684687 -0.16115136
000150 9c 6b 1d 3e 3f e6 72 bd c0 cf 22 3e a1 7f 15 be
       0.15373081 -0.05930161 0.15899563 -0.14599468
000160 3c 86 d1 bd c3 4b 03 be 45 30 5f 3e 3f a8 f8 3d
       -0.10230681 -0.1282187 0.21795757 0.121414654
000170 4d 9e 56 3d c6 09 bd 3d b1 30 6e be e8 7e bf 3e
       0.05239706 0.0923038 -0.23260762 0.3740151
000180 f9 90 ad 3e 8a dd 10 3e fe 2b 90 bc 1c dc 08 be
       0.33899668 0.1414701 -0.017599102 -0.13365215

head.fc2.weight f4 [30, 100]
000000 be b3 9e 3d 5c 6f e8 be ba 9e 16 3f ef 6a 46 3e
       0.07749127 -0.4539746 0.5883595 0.1937673
000010 35 d0 37 bc 53 fd 98 3e 80 de a6 bf c8 ba f3 3e
       -0.011219074 0.2988077 -1.3036652 0.4760344
000020 a7 da a9 3e 40 f4 56 bd 67 38 5b 3c 1f de 6c be
       0.3317463 -0.05247903 0.013380147 -0.23131607
000030 2f e4 75 be 3b 83 df 3d 7b de d9 bd fd 0a e7 3e
       -0.24012826 0.10913702 -0.10638138 0.4512557
000040 4a 53 d1 3d b9 81 54 bd 01 cc 63 3c 1e 18 18 3f
       0.10220964 -0.051881526 0.013903619 0.594118
000050 ae bc 1d 3f ee 7f 56 3f e2 c8 05 3f a9 50 9a 3f
       0.6161603 0.83788955 0.5225965 1.2055866
000060 2b c1 a1 3d 52 0b 0f 3f 77 91 84 bd c3 36 85 3f
       0.07898172 0.5587665 -0.06473058 1.0407337
000070 41 72 e2 3e e3 5d 25 3f df 88 ac 3d fe aa 9a 3e
       0.44227794 0.64596385 0.084245436 0.30208582
000080 44 61 28 3f 94 c2 50 bd 01 11 42 3e 46 46 2f 3f
       0.65773416 -0.050966814 0.18951799 0.68466604
000090 28 11 65 3e fd b2 a5 be 72 43 eb 3d b1 e7 a0 be
       0.22369826 -0.3236312 0.114874735 -0.31426767
0000a0 10 52 27 be ef 77 a6 3d 19 ea 5f 3e e1 dc 3f 3f
       -0.16339898 0.08128344 0.21866645 0.7494641
0000b0 9c 36 b1 3e 0d b9 16 3d 25 ca 7c be c7 dc 0f be
       0.34611976 0.036797572 -0.24686487 -0.14049064
0000c0 bd 0d af 3e d1 76 69 3e f5 1e dc 3d de 71 16 3f
       0.3419017 0.22799231 0.10748092 0.587675
0000d0 d9 95 96 3d a6 55 e8 3e 78 68 fe 3d c4 47 9e 3e
       0.073528 0.45377845 0.124222696 0.30914128
0000e0 b7 d3 93 3e e6 f8 e8 3d ec 4f 4e 3f bf 16 95 3f
       0.28872463 0.113755986 0.805907 1.1647567
0000f0 62 a4 58 3e d9 72 8c bf eb 68 f3 3e e4 07 74 3e
       0.21156457 -1.0972549 0.47540984 0.23831135
000100 1c d4 fc 3e 5a f9 08 3e 10 aa 24 3f 82 1b 05 bc
       0.49380577 0.1337637 0.64321995 -0.008124234
000110 0a 97 58 3d 61 fb 54 3f a9 f7 0b 3f 20 50 e4 3d
       0.052878417 0.83196074 0.54674774 0.11148095
000120 f9 87 24 3e 5a f9 f3 3d 1b 2f 1c 3e 38 87 16 3d
       0.16067494 0.119127944 0.15252344 0.03675005
000130 53 f3 d4 3e 39 76 d2 bd 78 b9 1f bf cf f9 c7 3d
       0.41591892 -0.102764554 -0.6239238 0.09764444
000140 4a 1d b8 3d d3 3d 04 3f 4a d0 96 3d e4 3e 93 be
       0.089899614 0.51656836 0.07363947 -0.2875892
000150 7c 5a 80 bd 05 53 7d 3e ab 5f 8a be a3 8e 7f 3e
       -0.062672585 0.247387 -0.27026114 0.24956755
000160 7d 7f 23 3f cd 45 93 bf da dd f5 3e d2 a3 e6 3e
       0.63866407 -1.1505677 0.48020822 0.4504686
000170 18 37 0c 3e 3b ec 8a 3e a9 41 b2 3e f3 76 c2 3d
       0.13692892 0.27133355 0.3481572 0.09495344
000180 98 31 fa 3e 90 22 80 3e 00 5b b5 3d 1e d5 04 be
       0.48865962 0.2502637 0.088552475 -0.12971923
000190 31 40 2e 3e 8c f0 13 be f9 e8 92 bd 9a 80 73 3d
       0.17016675 -0.1444723 -0.07173342 0.059448816
0001a0 25 54 f9 3d 6b bb bd 3c 77 d1 83 bd 10 90 08 3d
       0.121742524 0.023160657 -0.064364366 0.033340514
0001b0 50 02 3e 3e e4 ce 1f bd 56 be b4 bc 40 f0 1b bd
       0.1855557 -0.039015666 -0.022063415 -0.038070917
0001c0 14 f9 40 be bb ec 15 3e 9e 10 19 3c 94 07 1d 3e
       -0.18845016 0.14641087 0.009342341 0.15334922
0001d0 dd 91 09 3e c1 78 d2 bd 96 e9 55 bc f2 5b 74 be
       0.13434549 -0.10276938 -0.0130561795 -0.238632
0001e0 99 51 91 3c 9b e4 ae bd c2 cd 8a bc 9e 27 75 3d
       0.017739104 -0.08539697 -0.016943816 0.059852235
0001f0 d6 4d 91 3e 4f 07 89 3d 34 54 86 bd 3b 2e 80 3d
       0.28379697 0.06690847 -0.06559029 0.06258818
000200 89 8a 09 be 1f 30 ec ba 95 93 ba 3b 48 7c 5e 3e
       -0.13431753 -0.0018019712 0.0056938627 0.21727097
000210 d5 46 e4 3a 62 57 1c 3d 22 10 8c be 0f aa 09 3e
       0.0017416129 0.038169272 -0.27356058 0.13443778
000220 2b 98 a3 bb e4 df b4 3d cc 25 a7 3d 13 67 82 be
       -0.004992505 0.08831766 0.08161506 -0.25469264
000230 dd d0 c6 bb af 6e a8 bb 5d 88 5a 3e fd 9d 24 be
       -0.006067379 -0.0051401476 0.21341081 -0.16075893
000240 6c c0 cc 3e 4e cf 27 3e c5 1b 72 be d1 d9 6a bd
       0.39990556 0.16387674 -0.23643406 -0.057336632
000250 d8 7b ef 3d 94 5b 07 3e a9 70 eb 3c 33 a5 5b bd
       0.11693543 0.13218528 0.028740244 -0.053624343
000260 2a b2 af bc 2b fc a8 be 69 54 59 3e 8a 55 48 3d
       -0.02144726 -0.3300489 0.21223606 0.0489097
000270 f7 f6 4a bd 7d 11 47 3f 35 a8 c6 3c 78 37 27 be
       -0.04955193 0.7776106 0.02425013 -0.16329753
000280 e4 06 f0 bc b4 74 83 bd 86 30 0e 3e 3e 50 f1 bd
       -0.02930016 -0.06418744 0.13885698 -0.11782883
000290 ae 8f 30 bd 22 ad da 3b a1 d3 16 bd 7a 5b 48 bd
       -0.043105774 0.006673471 -0.03682292 -0.048915364
0002a0 44 7d 52 be 06 88 9d bd 05 07 01 3e 8a 81 00 3d
       -0.20555598 -0.0769196 0.12600334 0.031373538
0002b0 ca 24 0b 3e 36 f0 ac be eb 58 3d 3e 3c d4 a8 3d
       0.13588253 -0.33777016 0.18490951 0.082436055
0002c0 f0 6e 9a bd 54 1f 4e 3c 08 9f 8b 3d 83 43 e4 3b
       -0.07540691 0.012580711 0.06817442 0.006966056
0002d0 e5 25 f6 b9 76 c0 65 3c 67 42 af bc 1d 78 77 be
       -0.0004694901 0.014022937 -0.021393968 -0.24166913
0002e0 64 51 c9 be 33 4c 60 bd 06 94 90 bc c9 0b 66 3e
       -0.3931991 -0.05476017 -0.017648708 0.22465433
0002f0 8f 5a 8e 3d f8 1a 13 be 5f 0b 6f ba 33 a8 18 3e
       0.069508664 -0.14365757 -0.0009118821 0.14907913
000300 27 2f 93 bd 16 e5 14 bc ae e1 09 3d ca f0 81 3d
       -0.07186728 -0.0090878215 0.03366249 0.06344755
000310 1c 9f 8d be 25 cb a1 bd 13 75 d7 3c 22 ad eb bd
       -0.27660453 -0.07900075 0.026300943 -0.11507632
000320 68 c5 74 3e 87 52 42 be 97 7f 97 bc 4d ed dc bd
       0.2390343 -0.18976794 -0.018493457 -0.10787449
000330 89 fe 4f 3e 52 0c ef 3d 3e 5e 32 be d2 fc 73 3e
       0.20311941 0.11672272 -0.17418763 0.23826912
000340 32 5c 30 3e 61 e0 7b 3d 36 ba c4 3d 93 c7 46 3d
       0.1722267 0.06149328 0.096058294 0.048530173
000350 2c 82 1b be a2 ae 35 bd a9 df 4c 3c be 2c 28 bd
       -0.15186375 -0.044355996 0.012504497 -0.041058294
000360 99 3f de 3d 71 ec 83 be b3 24 a9 bd 6d ea 5c be
       0.10851974 -0.25766328 -0.08258953 -0.21573801
000370 f3 b7 15 3d 50 6c c8 be 98 65 14 3d bb aa 8b bc
       0.03655238 -0.39145136 0.0362297 -0.017049184
000380 de 30 e7 3d e0 71 9b 3d 4d ea 2b bd 5c 4b 2e 3e
       0.112886176 0.07590079 -0.041971494 0.17020935
000390 b3 6a d8 bd b9 a0 05 bd 9b 59 3e 3a 11 87 d7 3d
       -0.10567226 -0.03262398 0.0007261277 0.10523809
0003a0 71 24 a6 3c d6 29 82 3e 17 51 ae bd b4 ff ef 3d
       0.020281048 0.25422543 -0.085115604 0.117186934
0003b0 af 25 75 3d 91 d8 3a 3e 07 ff f5 3d 79 13 a8 be
       0.05985039 0.18246676 0.12011533 -0.32827356
0003c0 6f a7 20 3d cf c8 57 bd d5 50 2c bd d4 ab cd bd
       0.039222177 -0.05268174 -0.042069275 -0.10042539
0003d0 0e 92 3e 3e 49 54 4a 3d 38 d9 2e be 52 82 ec bd
       0.18610403 0.049396787 -0.1707505 -0.11548294
0003e0 e7 69 a2 bc 32 17 3d bc d8 5b a7 3c c0 34 b7 bd
       -0.019825889 -0.011541175 0.020429537 -0.08945608
0003f0 d3 4b b8 3c 43 ce 60 be b5 d5 e1 3d 11 d2 cb bc
       0.022497093 -0.21953683 0.110270895 -0.02488044

head.fc2.bias f4 [30]
000000 18 52 95 3e 89 11 fd bc ba c8 02 3d 48 96 44 bc
       0.29164195 -0.03089215 0.03192971 -0.0119987205
000010 9d eb a3 3d 84 9d 40 be 78 cf b5 3d 45 a7 cc bd
       0.08003924 -0.18810087 0.08877462 -0.09992842
000020 a7 60 77 bc 2f 9d 9b bd a8 3f 38 3e 91 df 8b be
       -0.015098727 -0.0759834 0.17993033 -0.27319005
000030 7a 68 8d be fe 32 cf be f1 69 c8 be 2d 43 f2 be
       -0.27618772 -0.4046859 -0.39143327 -0.47316876
000040 47 88 1a be 86 9f 74 be a7 49 5c bd 3e f4 09 bf
       -0.15091048 -0.23888978 -0.053781178 -0.5388831
000050 2c b7 4b bf db ce e5 3e de c4 1d 3e de 0e bc 3e
       -0.79576373 0.4488438 0.1540713 0.36730093
000060 45 e7 8d 3e 9e 40 34 be ca c4 a5 3d 14 d3 90 be
       0.27715507 -0.17602775 0.08094175 -0.2828604
000070 ff 19 2b bf e9 ac f2 3e
       -0.6683654 0.47397545
