Project-Run/run_cudalstm_gmm_model/model_epoch050.pt (torch, 40907 bytes, 8 tensors)

lstm.weight_ih_l0 f4 [80, 33]
00000000: 9e93 223e 1276 53be 1200 243e 6deb cc3e
00000010: ac49 4ebe 0f1d a03e 8904 43be ffe3 92bd
00000020: 9e49 64be 2837 323f 151e babd 7068 44be
00000030: 9354 ccbe 69f0 d03e 1a97 1cbe 788e 63be
00000040: 0e3c a53e 810f d9be 80d6 d13e 0acf 943d
00000050: 5aa1 6e3b f72a 813e 5ce4 94be 2ef5 c0bd
00000060: 1cac 343e fd1f 123e d492 d2be 9b31 093f
00000070: 11a2 ab3c d4ba a23e ca20 16be 02de 33bd
00000080: 7528 903e 27b2 363e c44a 793e eaeb 153f
00000090: 3d08 d23d 9dcc 9bbe 1732 bc3d bcc0 10be
000000a0: ba19 783d ea53 683e 3648 ecbe aef0 ddbd
000000b0: fe27 b93d 4f07 f03c 6544 debe 8f4e 3d3c
000000c0: 20c4 1fbf e252 523d 43ac 8ebd 3860 47bd
000000d0: 2376 1c3e 525d 6d3e b0da 9bbe c310 c83d
000000e0: 8586 1ebd f478 d7be ce18 e33d 1e7d 0fbe
000000f0: 50ee 6cbd c200 493f f54a bb3e 58a9 213c
00000100: 9cbd b4be 6412 043e 8b6c 963e ef9d 75be
00000110: 9e94 7b3c b277 debd 0bd6 6e3e 48b6 8b3d
00000120: 28a8 7cbd 9e7d 343f d327 223e 7b88 7e3f
00000130: 42fc 6ebe 4bcb d43d 3d77 423e bb82 30be
00000140: 6105 e2bb 5a7c 393f 5eb9 38bf 0a6c 37be
00000150: 3821 efbe 66bd b53c fa31 b43e 99e6 ebbe
00000160: d5e6 fb3e acc1 97be 27dc 0ebf 1634 55bc
00000170: 4bb2 5f3e 5108 9c3a 2a6a 4e3e 58de c5bd
00000180: 0f43 ee3c 8a11 18be 451b d83e fc15 783d
00000190: fd2e d73d fcb3 5c3e 159a 833d 1b6f 8c3e
000001a0: 72b9 bf3e 1d19 90ba 745e f93c 99c3 e33e
000001b0: 6380 2d3e 8b7a 703e 9a95 09be 9e3b 8f3e
000001c0: 39ea 613e 7382 2f3d c39b cf3d 175c 0d3f
000001d0: 933a 363e 66bf 5cbe b3ae 07bf 36ea 6c3e
000001e0: 53f5 7bbd 5455 cd3e 21fb a63c faf0 26bc
000001f0: d58d 98be de99 0dbd 220e 49be c78f a7be
00000200: d4a0 1d3e 9105 04bd a245 67bb 7ee7 5c3c
00000210: 0223 37bf 1bcf 4c3b 6fbc 003f a2af 813d
00000220: 8584 63bd 4691 0dbf 3366 b8bd 192f 133c
00000230: 8a78 503e cae0 353c 8d1e ddbe debd b3be
00000240: 084d f33d 0270 073e d0bf b6be adec 28be
00000250: f472 91be 039f 4c3c 4947 7f3e fb09 b7bd
00000260: a17f 543f 8c2b fabe c5ea 323e 0c2b 4d3c
00000270: 379c 17bf 3142 d03e 0abb 363c a377 253c
00000280: d2f4 74bf 77ad b03e b2a1 fc3d 42fd debc
00000290: 7b49 173f 5e1c 173e 3222 803e 869b 563e
000002a0: c0fe 93bc 6ec2 07be 927d bd3b 3263 123f
000002b0: 8a6d 24bd 79ba 0dbe 0374 2dbd 25f4 b33d
000002c0: 15b2 3f3f 6255 453e 595b 76be fd1f 8b3e
000002d0: a5f9 f3be fce3 7fbe 1522 8a3e 52b6 43bd
000002e0: 04eb d83e edd8 8cbe 3079 62be f21c 073e
000002f0: 0e9b 6e3e 7091 8e3e f96a adbd faa8 4fbe
00000300: 947b 24bf 9ba4 dfbd a4d7 913e 8dcf bbbc
00000310: 7773 98be a181 7a3e 8d01 dc3d b111 263c
00000320: 17b8 203e 9fd7 32bd 7e82 1a3e 7bdd 4dbe
00000330: 5f90 fc3e ed39 40bd 49e2 1c3e 9d23 c5bd
00000340: d628 043e 8291 f73e 6ca8 d33d 77d8 8abe
00000350: e473 3c3e 7555 a0be 4c59 b4be a6ee 833e
00000360: b2bf d63d 260f be3e 4009 15be d34e 40be
00000370: 8811 473d f8ea 9a3e d227 a53e 9bb8 32be
00000380: 3ca5 5fbe 4fa7 d2be 53f4 1d3d fe0e dd3e
00000390: 5747 783b 533a 86be 8065 d73d fc48 76be
000003a0: 07ef 35bf 5f3a 5abe 4914 d1be 5886 013f
000003b0: 4f0d 06be 2142 343d 1270 42be c583 c53e
000003c0: d51b 14bf f43b 673c c3f5 c7bc a8b0 293e
000003d0: 9739 85bf f5aa a93e 6cfe b23e 17e2 513e
000003e0: 4280 f93e af8f ca3e d9ef 903d 1385 d3bd
000003f0: 308a a5bf 2f80 023f 9889 803d 242c 293f
0.15876624 -0.20650509 0.16015652 0.40023366 -0.20145291 0.3127217 -0.19044699 -0.07172393
-0.22293708 0.6961541 -0.09087769 -0.19180465 -0.39908275 0.40808418 -0.15292016 -0.22222316
0.3227238 -0.4239464 0.40983963 0.07266052 0.003641209 0.25228092 -0.29080474 -0.09421764
0.1764378 0.14270015 -0.41127646 0.53591317 0.020951303 0.31783164 -0.14660946 -0.043912895
0.28155866 0.17841397 0.24344927 0.585631 0.102554776 -0.30429545 0.091892414 -0.14136022
0.06057141 0.2268826 -0.46148843 -0.10836922 0.09040831 0.02930036 -0.43411556 0.011554374
-0.6240864 0.051348574 -0.0696645 -0.048675746 0.1527944 0.2318013 -0.30440283 0.09768822
-0.038702507 -0.42084467 0.110887155 -0.14012572 -0.05784446 0.7851678 0.36580625 0.009867035
-0.3530091 0.1289764 0.29379687 -0.23986028 0.015355257 -0.10862674 0.23323838 0.06821877
-0.061683804 0.70504177 0.15835504 0.99427 -0.23338416 0.103903376 0.18990798 -0.1723737
-0.006897614 0.7245537 -0.7215785 -0.17912307 -0.4670503 0.022185039 0.3519438 -0.4607437
0.49199548 -0.29639947 -0.55804676 -0.013012907 0.21845357 0.0011904334 0.20157686 -0.09661549
0.02908471 -0.1485044 0.42208305 0.06056784 0.10507009 0.21553034 0.06425873 0.27428517
0.3744617 -0.0010993812 0.030440547 0.44485167 0.16943507 0.23484246 -0.13435975 0.27975172
0.22062005 0.042849015 0.10137131 0.5521864 0.17795782 -0.21557388 -0.53000945 0.2313622
-0.061513256 0.40104163 0.02038342 -0.010189289 -0.2979571 -0.034570567 -0.19634297 -0.3272688
0.15393382 -0.03223187 -0.0035289307 0.013482926 -0.7153779 0.0031251374 0.50287527 0.063323274
-0.055546302 -0.55299795 -0.09003868 0.008983397 0.20358482 0.011100957 -0.4318737 -0.35105795
0.11879927 0.13226321 -0.35693216 -0.16496535 -0.28408015 0.012489083 0.24929537 -0.089374505
0.83007246 -0.4886135 0.1747237 0.01252247 -0.5922274 0.406755 0.011152992 0.010099324
-0.95686066 0.34507343 0.123355284 -0.027220372 0.590965 0.14756915 0.2502609 0.20957765
-0.01806581 -0.13257763 0.0057827914 0.5718261 -0.040143527 -0.13840665 -0.042346966 0.08786801
0.74881107 0.19270852 -0.24058284 0.27172843 -0.476514 -0.24989313 0.26979128 -0.047781296
0.42366803 -0.2750925 -0.22116542 0.13194636 0.23301336 0.27845335 -0.08467669 -0.20279303
-0.64251065 -0.10920068 0.28484833 -0.022926116 -0.29775593 0.24463512 0.10742483 0.010136054
0.15695225 -0.043662664 0.15088841 -0.2010402 0.49328896 -0.046930242 0.15320696 -0.09625933
0.12906203 0.483532 0.10334858 -0.27118275 0.18403584 -0.313152 -0.35224378 0.25768012
0.10485782 0.37120932 -0.1455431 -0.18780069 0.048600703 0.30257392 0.32256943 -0.17453234
-0.21840376 -0.4114327 0.038563084 0.431755 0.0037884319 -0.26216373 0.105174065 -0.24051279
-0.7106785 -0.2131133 -0.4083579 0.5059562 -0.13091014 0.044008378 -0.18988064 0.38577095
-0.5785497 0.014113415 -0.02440918 0.16571295 -1.04082 0.33138242 0.34959733 0.20496403
0.48730665 0.39562747 0.07076997 -0.10328116 -1.2932796 0.5097684 0.06276244 0.6608298

lstm.weight_hh_l0 f4 [80, 20]
00000000: 096a 4fbc e8d0 5e3f 1dd8 9dbe 2cdd f5be
00000010: aa97 2fbf 3832 afbd 09f3 c73d c202 c7bf
00000020: fd18 d83e b336 733f 3f4e 9ebf 76d6 3d3f
00000030: fcb6 373d d698 73bf 3b3c 623f d3c2 f3be
00000040: 7589 79be eda0 e83f 04ea 3fbe 1c1a a1bf
00000050: 872c 43bf 4bb7 903e ddd9 943f 6ac8 253f
00000060: bb08 9f3e e3c1 d3bc 266f 40be 58dd b2be
00000070: 7e95 39bd 6098 143f bfb0 573f cdfd e73e
00000080: d6d5 85bf d782 613e 9ee8 fbbf 56eb 99be
00000090: 8b3a 613f 050f 043f c185 213f df50 1c3f
000000a0: 5ed0 5b3f 1fe0 0dbf 2d62 71bf 8416 1a3e
000000b0: ca55 c73f c806 e7be ac3d 233f 1d63 66bf
000000c0: 5333 833f abcd 70bf 6e4a 903d fb3a 99bf
000000d0: 74d3 bcbf 477a 35c0 49c5 7cbf 4ffb c13d
000000e0: 1f6a c23d 4232 ddbf 6b70 86bf 0865 75bf
000000f0: e63a 553e 5dd4 973f b1d5 0e3f a13a 46bf
00000100: 4577 293f 94c3 7f3d fd14 5bbe 7e5d a3be
00000110: 7cf7 1340 baf3 1f3f 07f8 1c3f f541 ee3e
00000120: 3920 30bf ff52 663f ec6c cbbf e36f 0bbe
00000130: e358 a23e faff 11be 1168 c63f 7d29 b93e
00000140: c7ee a1bf f986 0ebf 3b23 a6bf 34f8 86bf
00000150: 5cf5 2ebf 0cf5 70be ee60 113f 66a5 46bf
00000160: e22e 97bf f741 83bf 8933 ac3d de67 65bd
00000170: ed87 af3e 7aeb c4bf c061 babe e813 3c3d
00000180: 0524 9ebf 0807 243f 8319 0b40 6e03 2bbf
00000190: e341 453f 3e01 f8be 8b65 d93e 1f28 dc3f
000001a0: cbef 25bf 6f8b babf 4e92 fbbe 7907 e83f
000001b0: 6fb9 063f b5e3 4cbd 3317 10c0 39f3 bc3e
000001c0: 2129 d6be 346c 10be f752 f63a 9322 b5bf
000001d0: 3b24 38be a760 98be 47ba 9cbd 0729 a0be
000001e0: d87e 7f3f 10bb 1ebf 1959 0f3e 36a4 823e
000001f0: 8bb2 abbe e31f d23f cb10 d93f b64e ff3f
00000200: 4756 23be 805e e13d b3ee 3dc0 b279 71bf
00000210: 80d8 58bf 4926 883e fb90 ed3d 72a9 6fbf
00000220: ba34 f7be 71bb 8bbf 8ed8 17bf 4439 3fbd
00000230: 0786 933e 7e0c 17c0 4e73 efbe 6464 0240
00000240: 64d8 f13f 5397 0a3e 94a6 fc3e 7ffd adbf
00000250: 9a54 1dbf 5ed9 4a3b 730c b3be 80c6 87be
00000260: e595 34bf 89c4 e93f a11d a8bf 8fa5 a9be
00000270: 4d84 8a3e b20c c3bf d23d 36bf 48a0 abbe
00000280: 762b 8c3f e6e3 debd 1335 1ebe 2841 81bf
00000290: 79f0 423f 9c83 28be 37e9 a03e 63ff ecbe
000002a0: de1f fabe 0cd9 403f 33dd 593f b3fb 06bf
000002b0: 7987 85bf cb31 52bf 7d01 c23f 3b8a 6ebe
000002c0: 9ca1 3dbf 94a1 5ebf bf73 903f d51e 4dbe
000002d0: 9138 2d40 e1a9 2a3f a093 a13f 715a 8f3f
000002e0: 9fed 6b3f 4697 413e ef41 1a3e 28c3 4d3b
000002f0: 4390 ca3e 1a92 18bf b16f 513e 578a e6bf
00000300: b336 6abe 33c9 d9bf ccc9 27bf 1785 2ebf
00000310: 6b1c a43e e85b 073f e66a 1f3f 522d d0bf
00000320: 8260 683f b222 89bd 0b19 bbbe 2d83 a53b
00000330: 13f6 a13e a011 5c3f dc9c 64bf 0e89 c03e
00000340: 557f 91bf 8c9d 83bd 280f b33f 65cd fb3e
00000350: 5ffc 50bf bea1 a03e d6fa b8bf 709d 7fbf
00000360: 2fe1 0dbf de0f 853d 15e2 2b3d 0b4b 0cc0
00000370: d643 1a3f 3158 ac3f ce61 2ebe d896 a9bf
00000380: e003 f0be 024f a8be d25d 033e a9eb e1bf
00000390: ecca aebd 2a11 59bd 0b30 bfbe 6c63 07c0
000003a0: 0824 c8bf bbbe 06c0 5d3e b7bd 1d78 87bf
000003b0: ffb3 48bf 7533 6fbd 17c6 4c3f 4120 efbf
000003c0: db1d bfbf 2764 eebf 75e1 7b40 da9e cb3c
000003d0: bb4a 22c0 96e4 d5be 1eb9 b03e 67c2 adbe
000003e0: 24e9 f9bf 6944 1bbf e6c4 a83f df36 d23e
000003f0: a810 c63f ef69 adbf 5539 013d d4c8 debe
-0.012659558 0.87037516 -0.30828944 -0.48020303 -0.68590796 -0.085545 0.09763152 -1.5547717
0.42206565 0.9500534 -1.2367629 0.74155366 0.044852242 -0.95155084 0.88373154 -0.47609577
-0.24368842 1.8174111 -0.18741614 -1.2586093 -0.7623982 0.2826484 1.1628987 0.6475893
0.31061348 -0.025849288 -0.187924 -0.34934497 -0.045308582 0.58045006 0.8425407 0.45310822
-1.0455883 0.22022568 -1.9680364 -0.3006236 0.87979954 0.5158542 0.6309472 0.610609
0.8586482 -0.55420107 -0.9429043 0.15047652 1.5573056 -0.4512236 0.6376598 -0.89994985
1.0250038 -0.94063824 0.07045446 -1.1971124 -1.475203 -2.8355882 -0.98738533 0.094717614
0.09492897 -1.7280962 -1.0503057 -0.95857286 0.20823249 1.1861683 0.5579482 -0.7743321
0.66197616 0.062442377 -0.21394725 -0.31907266 2.3119802 0.6248127 0.6131596 0.46534696
-0.6879917 0.8997039 -1.5892615 -0.136169 0.3170844 -0.14257804 1.5500509 0.36164466
-1.2650994 -0.556747 -1.2979501 -1.0544496 -0.6834314 -0.23530978 0.5678853 -0.7759613
-1.1811182 -1.0254506 0.08408267 -0.05600726 0.3428339 -1.5384362 -0.36402702 0.04591742
-1.2354742 0.6407323 2.173432 -0.6680211 0.7705366 -0.48438448 0.42460284 1.7199744
-0.6481902 -1.4573802 -0.4913506 1.812728 0.526267 -0.050021846 -2.251416 0.36904314
-0.41828254 -0.14103776 0.0018793036 -1.4151176 -0.17982571 -0.2976124 -0.07652717 -0.312813
0.99802923 -0.62004185 0.13998832 0.25515908 -0.33534655 1.6415981 1.695825 1.9945896
-0.15950881 0.110043526 -2.967694 -0.9432632 -0.8470535 0.2659171 0.115999185 -0.9361793
-0.48282415 -1.0916578 -0.5931481 -0.046685472 0.28813192 -2.3601375 -0.46767658 2.0373774
1.8894162 0.13534288 0.4934584 -1.3592986 -0.61457217 0.0030952315 -0.34970436 -0.2651863
-0.7054122 1.8263103 -1.3134042 -0.33134124 0.27054062 -1.5238249 -0.7118808 -0.33520722
1.0950763 -0.10883312 -0.15449934 -1.0098009 0.7614818 -0.16456455 0.3142793 -0.46288595
-0.48852438 0.7533119 0.8510315 -0.5272781 -1.0431968 -0.8210723 1.5156704 -0.23294918
-0.7407472 -0.869653 1.1285323 -0.20031293 2.7065775 0.66665465 1.2623177 1.1199476
0.92159456 0.18905362 0.15064214 0.003139684 0.39563188 -0.59597933 0.20452763 -1.8010968
-0.22872429 -1.7014526 -0.6554229 -0.6817183 0.3205293 0.5287461 0.6227249 -1.6263831
0.9077226 -0.06696071 -0.36542544 0.0050510378 0.31633052 0.85964394 -0.8930185 0.37604564
-1.1366984 -0.06426534 1.3989 0.4918014 -0.8163509 0.313734 -1.4451549 -0.99849606
-0.5542173 0.06497167 0.041963656 -2.1920803 0.6025976 1.3464414 -0.17029497 -1.3249159
-0.46877956 -0.32872778 0.12828758 -1.7650043 -0.08534798 -0.052994885 -0.3734134 -2.1154432
-1.5635996 -2.1053913 -0.08947442 -1.0583531 -0.7839965 -0.058398683 0.7998976 -1.8681718
-1.4930986 -1.8624314 3.9356358 0.02485602 -2.5358112 -0.4177596 0.34516233 -0.3393738
-1.9524274 -0.6065126 1.3185089 0.41057488 1.5473833 -1.3547953 0.031548817 -0.43512595

lstm.bias_ih_l0 f4 [80]
00000000: 0e2e d3bf 5319 adbf cc41 86bf d1d7 09c0
00000010: 33a7 17bf 9af3 2c3e 7450 943d c3bb f83e
00000020: d94f 8dbf 000c 5fbf 4d5c 74bf a295 93bf
00000030: d340 81bd f7d9 92be f768 2fbf 47fe a5bf
00000040: d74c c2bf 0940 85bf d64e c3bf aa03 7abf
00000050: 69dc 633f 95e9 ce3f 36bd 073f 57e2 ef3f
00000060: ad08 253f 2638 9b3e 519d 423e 4041 3b3f
00000070: adc6 373f b2c2 fd3e e52f 90be 1c92 0f3f
00000080: 6cf5 9f3e d9c9 bfbf 863e 143f 25e1 1b3f
00000090: 7181 943f 7d34 1e3f c87e b63f 3f52 5e3e
000000a0: 2905 c7bd 9776 85be c2de 9f3e 16b5 9fbe
000000b0: 668d 9d3b 4a17 623f a2cc 27bf b1b5 b13f
000000c0: ee7e 04bd 0549 98bd 16f1 49bf c8b4 b73e
000000d0: 3325 953f 5b5a 6fbf e413 ebbd 3540 86bf
000000e0: 5a9d ee3e f1df 90bd 98a4 893e 33a4 6c3e
000000f0: a1c4 4bbf eff8 2e3f e026 45bf 5adb fe3e
00000100: 4d07 86be 44d6 cb3d af7b b9bc ea4a 0b3e
00000110: cd40 fe3d 8a4e a53d fb80 78bf 8445 debe
00000120: 433a d2be 24a5 62bb fe47 5bbf dbb5 0dbf
00000130: ea9c 823f 0745 1cbc 87b7 07be 1333 05bf
-1.649843 -1.3523353 -1.048883 -2.1537974 -0.592395 0.16889802 0.07241908 0.4858075
-1.1039993 -0.87127686 -0.9545334 -1.1530039 -0.06311192 -0.2868192 -0.6851954 -1.2968224
-1.51797 -1.0410167 -1.5258434 -0.9766184 0.89008194 1.6165034 0.5302309 1.8740948
0.64466363 0.30316275 0.19005324 0.7314644 0.7178753 0.49562603 -0.2816154 0.5608232
0.3124193 -1.4983474 0.57907903 0.6089042 1.1602002 0.6179884 1.425744 0.21711062
-0.09717781 -0.2606704 0.31224638 -0.31192845 0.004808116 0.88316786 -0.6554662 1.3883573
-0.032347612 -0.07435802 -0.7888349 0.35880113 1.1651977 -0.93497247 -0.11478403 -1.0488344
0.46604425 -0.070739634 0.26883388 0.23109512 -0.79596907 0.6834859 -0.77012444 0.49776727
-0.26177445 0.09952977 -0.022641985 0.13602796 0.124147035 0.08071621 -0.9707181 -0.4341241
-0.41060075 -0.0034583295 -0.85656726 -0.55355614 1.0204136 -0.009537942 -0.13253604 -0.5203106

lstm.bias_hh_l0 f4 [80]
00000000: 69db cabf 50bb dcbf 1532 97bf 0173 0cc0
00000010: 742e 6bbf 5cbc c83d 4e5d 3ebd 66fd 193e
00000020: 8c0e 7ebf bea7 52bf 5099 90bf f165 89bf
00000030: fd5d 32be d2ab ab3d e020 36bf c8f4 a2bf
00000040: 2e53 dfbf c231 adbf c687 e3bf df34 87bf
00000050: d78b 7c3f 5910 bc3f c332 3f3f 532e f93f
00000060: ef5e 273f 3f23 a53e f2ab 553e 7726 d63e
00000070: a633 4b3f 9bfc 333f df64 afbe 5adb e53e
00000080: 07ca bf3e c58c c3bf 98af d23e c837 be3e
00000090: b02f 883f a3ce 3c3f 60d0 ba3f 8d61 4f3e
000000a0: 59a2 d23d cfe4 ffbd cfcc 913e b1e8 c2bd
000000b0: c0c8 8cbe 7416 703f fdbb 49bf db17 b23f
000000c0: d42a 31be bbc7 82be 14da 35bf c855 d03e
000000d0: f3ec 763f 527b a5bf e6f2 36be ccc5 7cbf
000000e0: ad0a 413f 59fd 13be 0bf1 ef3d 614a 57ba
000000f0: bbcf 07bf b680 ee3e 55ad 22bf 6980 003f
00000100: ae89 76be a6cb 8ebe e34e 4abe 2682 753d
00000110: a1de 333e b0de 41be cc24 6fbf 0195 2bbe
00000120: d5e1 52be a053 4abe 6032 62bf eef2 0fbf
00000130: a435 433f a64e 3bbd b8b2 acbe 1dae c6be
-1.5848209 -1.7244663 -1.1812159 -2.1945193 -0.91867757 0.09801552 -0.0464757 0.1503807
-0.99240947 -0.82287204 -1.1296787 -1.0734235 -0.17418666 0.083823815 -0.71143913 -1.2730951
-1.744726 -1.353081 -1.777581 -1.056301 0.9865088 1.4692489 0.7468683 1.9467262
0.6537923 0.32253453 0.20866373 0.4182622 0.79375684 0.7030732 -0.34256646 0.44893914
0.37458822 -1.5277334 0.41149592 0.37151933 1.0639553 0.737528 1.4594841 0.20252056
0.102848716 -0.12494814 0.2847657 -0.095170386 -0.2749691 0.9378426 -0.7880247 1.391353
-0.17301494 -0.25543007 -0.71035886 0.40690446 0.96455306 -1.2928259 -0.17866096 -0.98739314
0.75406915 -0.14452113 0.11715897 -0.00082126824 -0.53051347 0.46582574 -0.63545734 0.5019594
-0.24075958 -0.27889746 -0.19756655 0.059938572 0.17565395 -0.18932605 -0.9341552 -0.16756059
-0.2059396 -0.19758463 -0.88358116 -0.56230056 0.76253724 -0.045729302 -0.33730102 -0.38804713

head.fc1.weight f4 [100, 20]
00000000: bde1 eb3c b252 60bd e6a6 c13c e9d1 573d
00000010: b917 60bc 24ba 633d ab09 45be 0a7d 82c0
00000020: d405 0fba ca0f a0bd ad61 74be df83 90be
00000030: 2928 083d 97c5 8dbd 5a51 55be 14e7 253e
00000040: 7866 9cbd bdb0 bb3d 6c8c 813d 1f06 f0bf
00000050: 241a 92be d638 013c b41f b83e cbb9 35bd
00000060: 95fe 863e 81bd 03bf 060b cf3e a521 15be
00000070: 161f 7e3e 3eac 14be 5c73 843e 6128 44bf
00000080: a46c d73d 4be4 1cbc 8679 b53d 93c9 eb3f
00000090: 89f1 093d 3153 b2be 5509 14be 7e60 533f
000000a0: 90bd a23c 363a eb39 16eb 0c3c d802 2fbb
000000b0: ad70 a1bb e68a a33e 81ec 92be 0ddb 6bc1
000000c0: c078 bbbb f9d7 ac3b 68eb 8fbb 179c f2bd
000000d0: d5d2 883a d80f 2c3b 9f3f c9bb e253 673a
000000e0: c13a 403c 0c03 443b a860 86ba 3b62 5a3e
000000f0: 12f0 3d3d 22c7 ad3e 81be a23c 6907 9fbf
00000100: 143a 453d 1708 80be 6987 cd3e dfc5 26bf
00000110: a4f7 a7bd 5aba 6c3c 6ab1 df3e baa0 de3c
00000120: 4eb4 cb3c 48e1 843d a3fa 34bf 89bd 84be
00000130: d533 61bd 4078 423d ba49 6d3e 4659 3a3e
00000140: 4ebc 2dbc ac38 403d 6660 a3bd fc2d 80bc
00000150: a35b f6bb 4b2e 94bf 2730 943f 153b a1c0
00000160: d22c 38bb b86d 45bd 7f81 0d3f ef3c 643f
00000170: 96e4 963d 7525 d9bd 8af2 63be 903f dd3e
00000180: 3ff5 03be cd6c 3bbd c6a0 843c b539 46bf
00000190: 1bd7 05be 5a5d feb9 a37e 6c3d 4b6c 2a3e
000001a0: a70f 043e 8366 debd b198 f53d 97c5 80be
000001b0: 26b9 883e 10f0 c83d e062 a33e 8a3d 9abe
000001c0: eda4 82be 1eda bfbd 7a9e 5e3d 18d8 ea3c
000001d0: 692f 06be 3684 753d 962d d03e 46dc 0b3f
000001e0: 8da9 553d 2178 40be a5a6 f039 b9cf f73d
000001f0: 3194 a63d dc16 0a3d 0802 17bd 5010 af3c
00000200: 643e cf3d 035e a03d f17f 4bbc c9ea 46c0
00000210: c5b6 3ebc dbe7 a8bc dbc7 9a3d 9b0d c7bc
00000220: 1932 dbbc 1afd f23c c17e c9bd fb3f 8a40
00000230: b06e 7bbf cce9 903d ac3b d93d e532 eebd
00000240: 3bf4 c13d 7f95 30c0 3d1e f03f d629 19c0
00000250: d364 f0bd 6835 01be 41ea 0040 785b 51c0
00000260: c56e 203e cf0f bb3d 69ec 093e 58b5 1a40
00000270: 0551 003e 3860 af3d 3d10 833e 542a 0240
00000280: 4b0e b63f 5267 bebd cc17 fcbd 03d6 25bd
00000290: 1d3c 203b 0228 48c0 b068 a53f e574 3cc0
000002a0: 5fa1 f3bd f127 e63d 7af3 04be 746a 1dbf
000002b0: 633d 53be 7aa0 71bd 3c85 91bd 92ec c7be
000002c0: e8c4 1ebc 82d4 82be 8d9b b93d 116f 723f
000002d0: 727d a0bd cf83 0abe bb89 11be cd75 aabc
000002e0: a575 dbbc e93d 10be 07bf c53d 4084 40be
000002f0: 3c0c a5bd eac7 dbbd f2ea 863d 8aca 1bbe
00000300: a9a2 42be ece5 d03d 65f8 af3d c944 093e
00000310: bf9e 93bd d9b5 843c 136b 46bd 778a db3e
00000320: 8763 15be eb4b df3d 38dd fc3d 5e76 00be
00000330: 5786 d0bc 639a 55bd ef44 123e 176f 03be
00000340: 0204 c0bd de94 3fbe 0834 58be b56f cbbd
00000350: 9c2b cebd 7a45 c53d ed18 f13d 67a7 8c3d
00000360: e7d7 da3d b5aa f3bd c098 08bd d64e 8f3e
00000370: 6222 b0bd 0e67 84bd 4bff 47be a6b2 69be
00000380: 37e1 d4bd 6f44 2f3c 7feb cb3c 16bf 1abd
00000390: ec6f 0a3d c61b afbd 298c a23e 03d4 d2bd
000003a0: efb8 26be eab1 423e e363 b5be f882 403d
000003b0: fb1c 1ebe 8fec 64bd e35d 843f 394e c53e
000003c0: fac2 08bf 0c4d d13d e0e6 09bf ae03 373e
000003d0: bcf7 13be bed8 54bf 7d5c 3040 96ef a6be
000003e0: 7f43 f4be 804e 583e d4ed c53f 7cb5 19bf
000003f0: c66d 88bc a797 f8bd 7bd8 53be 55ad 563f
0.028794164 -0.054766364 0.023639154 0.05269042 -0.013677531 0.05559744 -0.1924197 -4.0777636
-0.00054558855 -0.078155115 -0.23865385 -0.2822561 0.033241425 -0.06922453 -0.20831814 0.1620143
-0.07636732 0.091645695 0.063256115 -1.8751868 -0.2853557 0.007887086 0.35961688 -0.04436664
0.26366106 -0.51461035 0.40438098 -0.14563616 0.24816546 -0.1451883 0.25869262 -0.76624113
0.105187684 -0.009575914 0.088610694 1.842089 0.03367761 -0.34829095 -0.14456685 0.8256911
0.019865781 0.00044866063 0.008600971 -0.0026704576 -0.004926762 0.3194191 -0.28696063 -14.740979
-0.0057211816 0.0052747694 -0.0043920763 -0.11846178 0.0010438809 0.002625456 -0.0061416174 0.000882445
0.011732758 0.0029909043 -0.0010252194 0.21326534 0.046371527 0.3394099 0.01986623 -1.2424136
0.04815109 -0.25006172 0.40142372 -0.6514568 -0.082015306 0.014448727 0.43690044 0.02717625
0.02486625 0.064882815 -0.7069494 -0.25925854 -0.05498107 0.04747796 0.23172656 0.18198118
-0.010603977 0.046929047 -0.07977371 -0.015646927 -0.007518248 -1.1576627 1.1577195 -5.038462
-0.0028102887 -0.04820034 0.5527572 0.8915548 0.07367818 -0.106028475 -0.2226049 0.43212557
-0.12886523 -0.045758057 0.016189944 -0.77431804 -0.13070337 -0.00048516208 0.057737958 0.16642873
0.12896596 -0.10859396 0.11992014 -0.2515075 0.26703757 0.09811413 0.31911373 -0.30125076
-0.25516453 -0.093677744 0.054350354 0.028667495 -0.13104023 0.05994054 0.4065978 0.54632986
0.05216365 -0.18795826 0.00045900527 0.12100167 0.08133734 0.033713207 -0.03686717 0.021370083
0.10119322 0.07830431 -0.01242064 -3.1080801 -0.011640255 -0.02061837 0.07557651 -0.02429848
-0.026757287 0.029661704 -0.098386295 4.32031 -0.9821577 0.07075843 0.10607085 -0.11630801
0.094704114 -2.7591245 1.8759228 -2.3931785 -0.11737981 -0.12618029 2.0142977 -3.2712078
0.15667255 0.091338746 0.1346909 2.4173183 0.12530906 0.08563274 0.25598326 2.0338335
1.4223112 -0.092970505 -0.123092264 -0.0404873 0.0024449893 -3.127442 1.2922573 -2.9446347
-0.118960135 0.11238087 -0.12983504 -0.6149056 -0.20628886 -0.058990933 -0.071054906 -0.39047676
-0.009690501 -0.25552756 0.09062872 0.94700724 -0.07836427 -0.13526843 -0.14212696 -0.020808125
-0.026789496 -0.14086117 0.09655576 -0.1880045 -0.08058974 -0.1073149 0.06587781 -0.15213981
-0.19007362 0.10200104 0.08592299 0.13405146 -0.07208013 0.016199993 -0.048441958 0.42879078
-0.14588748 0.10903152 0.12346882 -0.12545153 -0.025454683 -0.052149188 0.14284109 -0.12835346
-0.093757644 -0.18709132 -0.21113598 -0.09933416 -0.100669116 0.09632392 0.11772332 0.06867867
0.10685711 -0.11897794 -0.0333488 0.27989835 -0.08600308 -0.064649686 -0.1953098 -0.22822055
-0.10394519 0.010697468 0.024892567 -0.03777989 0.033798143 -0.08550219 0.3174756 -0.10294344
-0.16281484 0.19013181 -0.3542777 0.0469999 -0.15440743 -0.055889662 1.0341152 0.38536242
-0.5342251 0.10219774 -0.5386791 0.17872497 -0.14449972 -0.8314322 2.755645 -0.32604665
-0.47707745 0.21123695 1.5463204 -0.6004255 -0.016653907 -0.121383004 -0.2068805 0.83858234

head.fc1.bias f4 [100]
00000000: 2d71 8ebf 651f 4fbf 6e11 313e edf0 9cbf
00000010: bdd5 a0bf 6f03 48bf 2df0 433d a5f0 31bd
00000020: 2d39 51bf 849d 48bf a347 4bbf 6447 02bf
00000030: 4f15 9dbf 8dfc fa3d 63a7 89bf f8c3 a7bf
00000040: f885 69bf 3509 6abf f2e1 8abf 880f 4d3d
00000050: 8253 50bf 70bf 62bd ab19 35bf e7f8 88bf
00000060: 525f b63e 2e45 b5bf cc23 3cbf c4e5 8cbf
00000070: 9f2f 02bd a825 88bf cb06 1ebf 4e6c 9abf
00000080: 0bcb 32bf 5048 2dbf 4944 6d3e b627 5fbf
00000090: 2620 4bbf 9d43 19bf e08d dcbc 966a efbe
000000a0: f269 3abf b86a 16bf 9336 a7bf 1f8f 2dbf
000000b0: 128e b3bf 72cd fe3d 6cb1 13bf 9222 3bbf
000000c0: ed0d 493d 1c49 0cbf fb03 1fbf 10f6 29bf
000000d0: 01d4 e0bd 5fea f73d ae0e 03bd 8ab2 6cbf
000000e0: bddc 8fbf 3f7f ae3a 9ada 5ebf b663 46be
000000f0: 215d 08bf 0fd4 90bf 5625 20bf 1de3 c5bc
00000100: 0c18 55bf 5893 47bf 7974 df3e d15d 8cbf
00000110: da6e 1fbe 1af9 4bbf 3e24 5abf c06d cb3e
00000120: d3c7 a6bf b49c 633e d663 f4bf ef09 73bf
00000130: 1ef5 75bf 33dc e5be b201 2cbf c106 4dbf
00000140: 10ab 0e3f d86a d7be 085d 79bd 7ba6 8cbf
00000150: 3266 7b3e 2bd0 46bf 1560 54bf f775 76bf
00000160: 24a5 53bf 1b42 79bf 3982 04bf b051 6f3e
00000170: ded1 7dbf b02b 1abf 374a 8fbf 2e43 e03e
00000180: 2dd5 e83e 4ef0 74bf f2d7 13bf 3d0c 4fbf
-1.1128289 -0.8090728 0.17291805 -1.2261025 -1.2565228 -0.7813024 0.04783647 -0.043442387
-0.8172787 -0.7836535 -0.79406184 -0.50890183 -1.2272128 0.122552015 -1.0754207 -1.310668
-0.91220045 -0.914203 -1.0850203 0.05006364 -0.8137742 -0.05535835 -0.7074229 -1.0700959
0.356196 -1.4161737 -0.7349212 -1.1007619 -0.031783696 -1.0636492 -0.61729115 -1.2064302
-0.6984107 -0.67688465 0.2317058 -0.8716997 -0.7934593 -0.59868795 -0.02692312 -0.46761006
-0.7281791 -0.5875659 -1.306353 -0.6779651 -1.4027731 0.12441529 -0.576926 -0.73099625
0.049085546 -0.54799056 -0.6211545 -0.66391087 -0.109779365 0.121052496 -0.03199642 -0.9245993
-1.1239239 0.0013313069 -0.8705231 -0.19373974 -0.53267103 -1.1314715 -0.6255697 -0.024156148
-0.8323982 -0.77959204 0.4364355 -1.096613 -0.1556963 -0.79676974 -0.8521155 0.3973217
-1.3029732 0.22227746 -1.9092968 -0.9493703 -0.96077144 -0.4489456 -0.67190087 -0.8008843
0.5572977 -0.42073703 -0.060879737 -1.0988306 0.24550703 -0.7766139 -0.8295911 -0.9627375
-0.8267386 -0.97366494 -0.51761204 0.23371005 -0.99148357 -0.6022291 -1.1194524 0.43801254
0.4547514 -0.95679176 -0.5775138 -0.8087805

head.fc2.weight f4 [30, 100]
00000000: 0a8f af3f a5d0 a6bf 562b ae3f 4d98 8a3f
00000010: 4bf8 2a3f 7c60 0f3f fb6b 50c0 0302 fe3f
00000020: 5486 4abe 38d3 60bf 1aa8 34bf cb50 90bf
00000030: 2b42 2e3e 9aa3 753e ec80 21bf a2b3 843f
00000040: 0584 26be 5260 023f 65ec e2be 59c8 f03d
00000050: 6243 1b3f 5ebd 973f 6d6e 7a3f 280a f23f
00000060: 9b38 e83d 51b9 1540 0224 6f3c 0585 8e3f
00000070: e5d7 e1bc a5b6 1f3e 29ff febf 8faa 0ec0
00000080: 6ddf aa3e bb1a 96bf f811 203f 44dc f5bc
00000090: c851 053f 18a6 a53f b7a4 b3bf 7b8b 9c3d
000000a0: 7bad f2be 3e39 24be 6861 ee3f 0ce5 a93f
000000b0: bda3 b83f 9974 47be 6348 3bbf a5ba fabe
000000c0: 533f a53f aa9f 033f 3558 22c0 831c 1d3f
000000d0: 1ee6 18bc c920 503f 718c 653f cd72 213f
000000e0: ec5a f5be ee8a 9a3e aee0 4a3f 84f5 763f
000000f0: 5eb6 343f 33bf 07c0 94bd b83f c7d1 a7be
00000100: 0965 433f 6b21 ccbe 9802 2540 fae6 83bf
00000110: f85d cebf bfdb a73f e813 523f 05fc 26bf
00000120: 1669 0a3e c52b df3e 42b1 bd3f ac01 433f
00000130: 5fba 943e 2345 3abf 7cad b0bf e91e fa3d
00000140: 1b19 14bd 494d b33f 4ee7 0cbd de0a bbbf
00000150: c19f 633f 7b18 d2be f4fb c5be beeb 513f
00000160: 4562 563f cd6b 87c0 c623 ca3e a615 063f
00000170: 87b3 0fbf 9ea2 74bd d586 833f c632 693e
00000180: 7f0f 003f c3fe bebe ae81 5cbf e578 4dbd
00000190: f06f 483e e6cf 81be 190b 77be eea6 073e
000001a0: 0817 d93e adf9 2cbe b5be 803c 6ace 263e
000001b0: 7e4d 9b3e 22bd b5bd 2284 6dbd 83a1 493d
000001c0: af35 7a3d 2fc5 1c3c d06e 493e f162 1cbe
000001d0: fc61 263e d2dc 84bd 98bc 2a3e eaa8 8abe
000001e0: adcb fb3d dcd3 a13e 4eee 8cbe e1b5 e4bd
000001f0: f5df 133f 1a2f ad3e 71d8 a33c f4ca 01be
00000200: b26b 97be d0d7 a7bb be5f 29bc 3ab5 eb3d
00000210: c45f f33d b228 a63d 11bc adbd e4ca 84be
00000220: d762 83be 7229 8b3e 39b2 aa3d ec69 2bbf
00000230: b5bf d5bd 069c 1fbc 562d 1fbe 457e 163e
00000240: f773 3a3f 16c9 873d 2c8e 1abe b962 f1bc
00000250: 532b 753d e8e4 cb3d 328e 8fbd 4fb1 503b
00000260: 7eeb 87be 348e a0be 6cab 773e 29e9 cb3e
00000270: 55b3 2dbf 04db e53e a063 90be 1198 563e
00000280: 275e eebc 9c07 acbe cb42 05be 252a 663d
00000290: 8ade 553d 41dd 783d 4ccc 7d3d f7d9 e4be
000002a0: f119 37be 0269 9bbe 9f5e 15bf 4fad c73d
000002b0: bfc5 c7bd bf45 56be fcb7 943f 48dc 29bd
000002c0: 6b98 d3be eef1 d93d 37d3 52be cf21 65bd
000002d0: 3e38 95bd 63de 4e3d edb3 b0be 2c50 493e
000002e0: 2d53 babe 480e 4f3e d85a b13d 6d20 123f
000002f0: 2a31 0abe 591c 07bf a885 0abc da3e 8e3e
00000300: f29f 70be 460d 63bd 6a44 a7be 5632 e83d
00000310: a9c7 053e b1d5 c9be 60e3 8d3d 226a 50be
00000320: 7da9 c53e ec46 f73d 2464 d9bd 185b fd3c
00000330: 0db3 8d3e f18c 62be 356a 3fbd d585 c13d
00000340: 2deb 923d 0688 6f3d 2050 193b c1b6 b9bd
00000350: 6623 75be 0faf 95bd 0e1d 073e 4682 913d
00000360: c7da a43d af0b 9c3e 449b 683e 6c68 0abe
00000370: 6a32 693d e08f 7b3e fa1f 27be 81ae 13be
00000380: cbee ffbd 873f fb3e fd6a ddbc da58 6bbd
00000390: 37bb cabd 5e9e bcbd ce09 833d 853a 123c
000003a0: aeef a63d 9fdb 243e 512c 9cbc 13ce 063e
000003b0: 4f9a afbd d5a3 aa3d 5f6f a73b ea41 ee3d
000003c0: 24ff d73c 1084 e6bd 0f13 1ebe 28d6 b7be
000003d0: 30d5 743f fadc 833e 0c38 44be 2bc5 a7bc
000003e0: cb89 923d cb44 653e 149c 50be 85d2 0abd
000003f0: 14fa b23e 9f58 04be c03d 483e 95f7 643e
1.3715527 -1.3032423 1.3606975 1.0827729 0.66785115 0.560066 -3.2565906 1.9844364
-0.19777805 -0.87822294 -0.70569 -1.1274656 0.17017429 0.2398819 -0.63087344 1.036732
-0.16261299 0.50928223 -0.4432098 0.11756963 0.60649693 1.1854665 0.97824746 1.890935
0.11338922 2.3394358 0.014595987 1.1134344 -0.027568767 0.15597017 -1.9921619 -2.22916
0.33373585 -1.1726907 0.6252742 -0.030012257 0.52077913 1.2941313 -1.4034642 0.07643791
-0.4739798 -0.16037461 1.8623476 1.3273025 1.4424969 -0.19478072 -0.7315733 -0.48970523
1.290995 0.51415503 -2.5366337 0.6137163 -0.009332208 0.81300026 0.8966742 0.630658
-0.4792093 0.3018412 0.79249084 0.9646838 0.7059077 -2.1210449 1.4432855 -0.32777235
0.7632604 -0.39869246 2.5782833 -1.0304863 -1.6122427 1.3113936 0.82061625 -0.652283
0.1351665 0.4358808 1.481972 0.76174426 0.2904844 -0.72761744 -1.3802943 0.12212927
-0.036156755 1.400796 -0.034400277 -1.4612691 0.8891564 -0.41034302 -0.38668787 0.8200034
0.837437 -4.2319093 0.39480418 0.5237678 -0.5613331 -0.059725396 1.0275522 0.22773275
0.50023645 -0.37303743 -0.86135375 -0.050164122 0.19573951 -0.25353926 -0.24125327 0.13247272
0.42400384 -0.16892119 0.015715936 0.16289678 0.3033256 -0.08873965 -0.05798734 0.049226295
0.061086353 0.009568497 0.19671178 -0.15272118 0.16248316 -0.06487431 0.16673505 -0.27081996
0.122947074 0.31606948 -0.27525562 -0.11167503 0.57763606 0.33824998 0.020000668 -0.12675077
-0.29574353 -0.0051221624 -0.010337768 0.115091756 0.118835 0.08113231 -0.084831364 -0.25936043
-0.25661346 0.27180058 0.083347745 -0.669585 -0.10436956 -0.009741789 -0.15544638 0.14696606
0.728332 0.06630151 -0.15093297 -0.02946602 0.05985577 0.0995577 -0.070095435 0.0031843965
-0.26546854 -0.31358492 0.24186486 0.39826325 -0.67851764 0.44893658 -0.28201008 0.20956446
-0.02909763 -0.33599555 -0.13013761 0.056192536 0.052214183 0.06075788 0.06196241 -0.44697544
-0.1788099 -0.30353552 -0.58347505 0.09749853 -0.09754514 -0.20925044 1.1618648 -0.041469842
-0.41327223 0.106418476 -0.20588385 -0.055940446 -0.07286118 0.050505053 -0.34512272 0.1965949
-0.36391583 0.20220292 0.08659905 0.5708073 -0.13495317 -0.5277763 -0.008454718 0.27782327
-0.23498514 -0.05543258 -0.32669383 0.11337726 0.13064446 -0.39420846 0.06928134 -0.20352986
0.38605872 0.12074074 -0.106148034 0.030927226 0.27675667 -0.22124077 -0.046732146 0.094493546
0.071737625 0.05847933 0.0023393705 -0.09068061 -0.23939285 -0.073087804 0.13194677 0.07104926
0.08049541 0.30477664 0.22715479 -0.13516396 0.056932844 0.24566603 -0.16320792 -0.14422037
-0.12496718 0.49071905 -0.027028555 -0.057457782 -0.0989899 -0.09209894 0.063983545 0.008925085
0.08151184 0.16099404 -0.0190641 0.13164549 -0.08574354 0.0833203 0.005109712 0.11633666
0.026366778 -0.11255658 -0.15436958 -0.35905576 0.956378 0.2575453 -0.19162005 -0.02047976
0.07155188 0.22389524 -0.20372039 -0.033892173 0.3495642 -0.12924431 0.19554806 0.2236007

head.fc2.bias f4 [30]
00000000: 8896 863f 7672 abbd b696 7abe 5dd7 05be
00000010: bca1 e7bd f065 b1be 62a7 87bb ee61 5ebd
00000020: d4e3 993e 2c5a 9fbe e0a6 0a3f 4aed 04c0
00000030: bf56 1fc0 a9bd 1cc0 5647 e7bf 85e1 16c0
00000040: aa30 c0bf f130 96bf 4123 d2be c69e 42c0
00000050: d796 7fc0 aa8e d83f a46b 0f3f 6f76 2040
00000060: 7496 1fbf 94a8 27bf f1a2 3e3e d03f 05c0
00000070: 230b 4ac0 9c03 9a3f
1.0514688 -0.08371441 -0.24471554 -0.13070436 -0.11310145 -0.34648085 -0.0041398266 -0.05429261
0.30056632 -0.31123483 0.5416088 -2.076983 -2.4896696 -2.449076 -1.8068645 -2.3575146
-1.5014851 -1.1733686 -0.41042522 -3.0409408 -3.9935815 1.6918538 0.5602362 2.5072286
-0.6233895 -0.65491605 0.18616845 -2.0820198 -3.1569297 1.2032351
