Project-Run/run_cudalstm_mcd_model/model_epoch010.pt (torch, 19526 bytes, 5 tensors)

lstm.weight_ih_l0 f4 [80, 33]
00000000: 5422 ab3d 5c50 183d 9d93 093f 5681 da3d
00000010: 9b03 043f 25f0 923e 0037 543e 7f87 bebd
00000020: 530c d63e 7f4d 653e 72d7 1abe bb74 c93d
00000030: 048f c1bc f706 813e 77c2 7a3e 9d01 d1bd
00000040: fdba 7fbe e957 4e3e a72e 8f3e 2e3f b2bd
00000050: 2dcf 8e3d 1e0a aabe 1e85 093e 5d19 913e
00000060: 0be6 2abf b36d bf3c 6997 393f 7b05 91be
00000070: 498d c2bd 6497 9d3e 3b90 1b3e 71b9 093e
00000080: 71b8 31be fdac f33e fb7b 113e 2825 163c
00000090: 8326 b73d d349 183f 63a3 86be 94be e13d
000000a0: 7ac2 d9bd 7f39 f53d d3a4 723e dc6a db3d
000000b0: c78a 963e 5c7c 68be 1e58 f03e 0fc2 c3bb
000000c0: 4c9a cd3e 185c 0dbe a694 9f3e 62d7 7cbe
000000d0: c81c af3e f516 a53c 14c1 f53d 2fec 113f
000000e0: a280 27be ceb3 443d 57a9 583e 2d04 20bf
000000f0: b972 813e 0bc6 7c3e badb 67be a993 c1be
00000100: db41 eabd f7c7 f43e ce76 85bd 57f4 d2bd
00000110: 078a 003f f6c7 16be 5f2b 423f 3601 343e
00000120: dcdc f53e e51c cbbe a0a3 e33e d94b a63d
00000130: ba9d 50be 2e4b ea3d 076b 10be 1de7 c1bd
00000140: b124 993d ad44 213e 0837 1abd 3d7a 20be
00000150: c992 0b3e 31b7 bd3d a0c3 0e3e a8c0 8ebe
00000160: db97 e53e 8975 543e f310 92be 0c51 313e
00000170: 778f 663e bd76 fb3c 586b c83e 6809 423d
00000180: 0e08 49be 91c4 c73c 502b 48be 3c0c 4bbf
00000190: bf89 d43e be4d 093f 5a10 acbc c558 e03e
000001a0: fe15 1ebd 0cb6 a43d 2086 563e a7a9 0ebe
000001b0: 4dc8 80bd 4a9c 093f 372c e63d 5909 9c3e
000001c0: 10b7 543e 4959 5fbe 159c 0dbe fc58 2c3f
000001d0: c6a9 81be 5a8b 043e b6d2 f7be 89ea 30be
000001e0: 99e4 093e 0878 673d db13 0e3e 82ed 3bbe
000001f0: beb6 99bb c49e afbe c42b 71bd 5523 71be
00000200: 34ad 9e3e 9711 9b3e cff8 1f3e e462 bfbd
00000210: b38b 10bd 97d7 0e3e c343 4d3e a320 82be
00000220: f3a0 823f 6317 6bbe 3730 36be e4ab 5bbe
00000230: c072 d23d 7faf a4bd 934f df3e a587 823e
00000240: f190 90be 843f 97be 5744 c9be b7d1 abbe
00000250: 27ec afbc 63ec f23d 757d 0ebf e057 9fbe
00000260: 31f6 a83b 469d 91be 7fb3 d9bd 17cd 48be
00000270: 8fb2 22be 9e23 d73e ae1d 913d ed11 22be
00000280: 1125 453f 2efb 1f3d 3fb3 393e 1c15 093d
00000290: 6cd3 ccbd d596 8a3d 719e c8b9 0d14 883e
000002a0: eacc 59bd 6459 463f 18e9 653e 37d9 76bd
000002b0: 0c8d d33d c46f 313f e838 53bd 300a 8cbc
000002c0: 4ac8 8b3d 7431 04bf 3992 f63b eb14 34be
000002d0: 8ab0 41bd 346d 8b3e ea0d 7a3e 3f91 62be
000002e0: 60d6 7f3c fe23 db3e 86eb 99be 4cd5 083f
000002f0: cf39 973e a8a1 4abe 2547 233e 04ea 54be
00000300: 6160 2bbe d812 fa3e a3d3 b6bd 385e 1e3c
00000310: c761 c03d c261 f83d a77e 4d3b 420a f3bc
00000320: 9f26 64bd 6b47 6abe e19f 8fbe 564d 623e
00000330: 6ad1 47be c919 2dbe 3d35 42be 9903 7abe
00000340: 85fa d13e 9b7c b63e 984d 9b3e 958e bebe
00000350: 2829 41be a9a8 1dbe f0bb 0c3e 31e0 383f
00000360: 9db1 b7be 4422 f3bd 5d9a 14be 3201 80bb
00000370: 462f e5bd 2d58 963d 591d 423e 54bc 223e
00000380: c385 c5be a2ba 893e 0425 943d 94b1 9d3e
00000390: c541 f5bd c61c cebe 95c4 e73c b3e4 bfbe
000003a0: 1620 babd 3cf7 8cbe 6f0c 983e a868 323e
000003b0: d470 1dbe 2c39 69be 6901 bcbe f451 bb3e
000003c0: aa2f 693e fc1b 57be af2a ad3e 1d0c fabe
000003d0: 9d2d 983e d86f cf3d 6a8c 413e 1bce 493b
000003e0: 312b c13e 5d79 94be fe27 013f 86c6 fe3e
000003f0: 97ad ec3d 2f71 713e 26ed ed3d e77d b1be
0.08356157 0.03718601 0.53740865 0.106692 0.51568 0.2869884 0.20724106 -0.093031876
0.41806278 0.22392844 -0.15121248 0.09836718 -0.023627765 0.25200626 0.24488245 -0.10205386
-0.24973674 0.20150723 0.2796528 -0.08703457 0.069731094 -0.33210844 0.13429686 0.28339663
-0.6675727 0.023367738 0.7249666 -0.28324494 -0.09499604 0.30779564 0.15191738 0.13449647
-0.17355515 0.47592917 0.14207451 0.009164132 0.089428924 0.59487647 -0.2629653 0.11022678
-0.106327966 0.11973857 0.23695688 0.10713741 0.29402754 -0.2270369 0.46942228 -0.0059740613
0.40156782 -0.13804662 0.31168097 -0.24691537 0.34201646 0.020152548 0.11999717 0.5700101
-0.16357663 0.048023038 0.21158348 -0.6250637 0.2528284 0.24684922 -0.22642413 -0.37807968
-0.11438342 0.4780881 -0.06516801 -0.103005104 0.50210613 -0.14724717 0.7584743 0.17578587
0.48020065 -0.39670482 0.44460773 0.081199355 -0.20372668 0.11440121 -0.14103328 -0.094679095
0.074777015 0.15748854 -0.03765014 -0.1567163 0.13630213 0.092634566 0.13941813 -0.2788136
0.4484242 0.20747961 -0.28528556 0.17316073 0.22515665 0.030696267 0.39144397 0.04737225
-0.19631979 0.024385722 -0.19547772 -0.79315543 0.41511342 0.5363425 -0.02100389 0.43817726
-0.038595192 0.08042535 0.20949602 -0.13931905 -0.06288204 0.53754103 0.11238902 0.30475882
0.20772958 -0.21811403 -0.13829072 0.6732328 -0.2532484 0.12943783 -0.48402947 -0.17276968
0.1346611 0.056510955 0.13874762 -0.18352321 -0.004690974 -0.34300816 -0.05887963 -0.23548634
0.30991518 0.30286857 0.15622257 -0.09345034 -0.035289478 0.13949428 0.2004538 -0.25415525
1.0205368 -0.2295814 -0.1779183 -0.2145229 0.10275793 -0.08041286 0.43615398 0.25494114
-0.28235582 -0.29540646 -0.39309952 -0.33558437 -0.02147491 0.118614934 -0.5566018 -0.3112173
0.0051563014 -0.28440303 -0.10629939 -0.19609486 -0.15888427 0.4201936 0.07085739 -0.1582715
0.77009684 0.039057903 0.18134783 0.033467397 -0.10001263 0.0676705 -0.0003826502 0.26577798
-0.053173937 0.7748015 0.224522 -0.060265746 0.10329637 0.69311166 -0.051567942 -0.017094702
0.068253115 -0.5163796 0.0075247553 -0.17586105 -0.0472875 0.27231753 0.2441937 -0.2212572
0.015615076 0.42800897 -0.30062503 0.53450465 0.29536292 -0.1978823 0.15945108 -0.20792395
-0.16735984 0.48842502 -0.08927085 0.009666018 0.093936495 0.12128021 0.0031356008 -0.029667977
-0.055700894 -0.22878806 -0.28051665 0.22099814 -0.19513479 -0.16904368 -0.18965621 -0.24415435
0.41011444 0.3564194 0.30332637 -0.37218156 -0.18863356 -0.1539637 0.13743567 0.7221709
-0.35877696 -0.1187177 -0.1451201 -0.0039063925 -0.11190657 0.07341037 0.18956508 0.15892154
-0.38578615 0.26900202 0.07233623 0.30799544 -0.11975435 -0.40256327 0.02829198 -0.3747917
-0.09088151 -0.27532375 0.29696986 0.17422736 -0.15375072 -0.22775716 -0.36719826 0.36585963
0.22772089 -0.21006769 0.33821627 -0.48837367 0.297223 0.101287544 0.1890122 0.0030793014
0.37728265 -0.28998843 0.5045165 0.49760836 0.11556547 0.23578332 0.11617498 -0.34666368

lstm.weight_hh_l0 f4 [80, 20]
00000000: af20 afbf 6caf 1fbe bf05 9f3e 9d4e f1bc
00000010: 3caa 4abe baf9 fcbd 4c3b b2be 8d82 21bd
00000020: d800 963e bc04 a03d 4ac8 d2bc 6659 2b3d
00000030: 2df7 163f 7694 683e 7dc7 78bd 076b 093e
00000040: 2d71 463e a30d 4ebd ebaa 833e 2bd3 973e
00000050: 4848 57bc 87ae 1abe 04da 77bd f241 62bd
00000060: 98a2 4ebd a3fb b93e d9c8 c8bd b0d1 dfbc
00000070: 3956 b73e e3cd babe 7b53 8d3e 25cd 9c3d
00000080: c4a6 15bd 5a40 0f3f 00e2 b3be 21e9 3ebc
00000090: 8290 89bd bc35 c8bd 0d41 2b3d c72d a8be
000000a0: a933 47bd 71ed 883c 8c78 b03f 144f 67be
000000b0: 4004 d1bc 1f53 4fbe 19f7 6ebe ec54 01bf
000000c0: 8c30 e33e d10e 143f 4882 63be 55f2 7dbe
000000d0: b26b c4bd dd16 02bf 007f 08bf 5ff4 293e
000000e0: 450a 31bf 4e7d 1a3e 691e 97be a2c4 46bf
000000f0: a819 a03d 6652 f83e ff91 1a3f 8a0e c7be
00000100: f6ef d2bf 29c1 743e 1015 d7be 8ae9 8ebf
00000110: 3c63 cebe 5d74 1ebe a9ae fd3e c29c 28bf
00000120: 2378 6cbf ae89 753e a86a 533f be77 0dbf
00000130: ff6c e73c 1e14 183f 607f ecbe f01c 02bf
00000140: ed2c a23c bad6 bf3e 4c05 08be b856 56bf
00000150: ee54 253e 2f29 9dbe 1559 893e 10fa a5be
00000160: cf68 d63c e8a9 463e c6b0 51bd 1e53 533e
00000170: 729d e0be 18b5 0a3f 08c7 b7be d0c6 653e
00000180: 63ac a5be 8d6d 303f e434 f4be cba8 a0be
00000190: 7f4f cabe c4d4 873d 7793 c43e 36f2 15bf
000001a0: 976a 8fbe aa9b 9dbf 4070 03bc 77c0 3cbf
000001b0: 9a16 1f3f d1a6 e73e 2787 f63e 1541 64be
000001c0: f46d 54bf 4a4b 083e 5b85 d6be a926 1c3e
000001d0: ef53 08bf 70b9 9d3e 614b 7bbe a606 44bf
000001e0: fe60 b13d fd71 2b3f 8b0d 87bd 92f4 1f3e
000001f0: c2db 73be 54de 453f 3c46 6c3d 7e88 3d3e
00000200: 9cd8 6f3f 8d23 343e cfc0 883f 2adb 263f
00000210: 2872 83bf 190a c5be 38ed c5bf 33f3 073f
00000220: 230e 553c a68b 8e3e 6703 39be da43 2ebe
00000230: c489 c03e b5b6 213f a060 6a3c 3814 5e3f
00000240: a06a 47be a038 f03e 230c cbbd aeeb 05be
00000250: 5a09 093f dee4 533e b249 903e c887 b73e
00000260: f744 c5be 2432 a03e ef1d d9be 13ab e33e
00000270: 41e7 fbbd 8f2d d13e bc1b 1dbf 1690 233e
00000280: 52c7 86be 0893 cd3d 7827 f13e b600 a23e
00000290: 4b19 0fbf c58f eebe 914c b93e e4ee 08bf
000002a0: b4b7 803e ad3d 49bf 1ea1 93be f1b0 053e
000002b0: d8d2 08bf 2c5f 8abe 74f1 3a3f 61db 14bf
000002c0: 8a22 ac3e 8a9a 8ebe 9bf4 6e3d 993f 31bf
000002d0: da43 093f 00c5 3d3e 14ee 2a3e 2b7d b93c
000002e0: 1e1c c4bf 67e6 eebd 131c 7e3e 4347 f5be
000002f0: e048 7dbe 23e9 41bf 1d91 84be d08e ff3e
00000300: 1fd0 08be 6c6a b63d 5f27 e33e a518 30be
00000310: f05e dd3e c3e3 203e 2410 10be 8a30 5dbf
00000320: 3f79 c4bd f36d 0b3f 1b69 2d3c 1622 85be
00000330: ac20 83be 41c6 e7bd 1ee8 583e b7b5 2bbf
00000340: d0fb 6e3e 54c2 083f b2af 15bf 4e56 a3be
00000350: 94d1 31be ca70 d43e 2198 bd3d fc0b 243e
00000360: 523c 2cbe 30d4 abbe ad94 ccbd 7b73 28bf
00000370: e4b0 14bd 1782 4abe 3bb3 683e 63f2 aabe
00000380: 36eb 2fbe f54a 28be 5e3d 653d 83cf aebc
00000390: 7a8a 133e cf3a e1bd 1804 c93d b0b1 3bbf
000003a0: 5946 08bf bf03 e13e f8e9 7abd 7743 903d
000003b0: 0b44 f8be d361 423e e9ee 85be 3960 8f3e
000003c0: b895 ad3e 7103 553e 04eb 08bf 52b8 a83f
000003d0: 4ca5 78be 5930 78be 0760 2a3d d496 9abe
000003e0: e423 be3d 868a 4ebf 9319 c63e 2508 283f
000003f0: 3a9c 39bf dca3 343d 4619 6bbf fde0 5d3e
-1.3681849 -0.15594262 0.3105907 -0.029456431 -0.19791502 -0.12352319 -0.34810865 -0.039431144
0.2929752 0.07813403 -0.02573027 0.041833304 0.5897091 0.22712883 -0.06073712 0.13419734
0.1937911 -0.050305974 0.25716338 0.29653296 -0.013139792 -0.1510564 -0.06051065 -0.05523867
-0.05044803 0.36324796 -0.09803934 -0.027321666 0.3580797 -0.36485204 0.27602753 0.07656316
-0.036535993 0.5595757 -0.35133362 -0.011652262 -0.06717016 -0.09775874 0.041810084 -0.32847425
-0.04863325 0.016714783 1.3786788 -0.2258876 -0.025514722 -0.20246552 -0.23336448 -0.50520205
0.44372976 0.5783511 -0.22217667 -0.24799474 -0.09590854 -0.50816137 -0.53318787 0.16597126
-0.69156295 0.15086862 -0.2951539 -0.7764379 0.078173935 0.48500365 0.6037902 -0.3887828
-1.647948 0.2390181 -0.42008257 -1.116502 -0.40310085 -0.15474077 0.49547318 -0.65864193
-0.92370814 0.23978302 0.8258462 -0.5526084 0.028250216 0.59405696 -0.4619093 -0.50825405
0.019796813 0.3746851 -0.1328327 -0.8372607 0.1614568 -0.30695483 0.26825777 -0.32417345
0.026173024 0.19400752 -0.051193975 0.20637175 -0.4387012 0.5418258 -0.35894036 0.22439122
-0.32358083 0.6891716 -0.47696602 -0.3137878 -0.39513776 0.06632379 0.38393757 -0.5857271
-0.2801101 -1.231313 -0.008022368 -0.7373118 0.6214386 0.45244458 0.48149988 -0.22290452
-0.82980275 0.1330997 -0.41898617 0.15249123 -0.5325307 0.3080554 -0.24540474 -0.76572645
0.08661078 0.6697081 -0.0659438 0.1562064 -0.238143 0.7729237 0.05768417 0.18509099
0.93689895 0.17591687 1.068384 0.6517817 -1.0269213 -0.38484266 -1.5463018 0.5310547
0.013003859 0.27840918 -0.18067704 -0.17018071 0.37605107 0.63169414 0.014305264 0.867496
-0.19474268 0.469182 -0.09914424 -0.13078186 0.53529894 0.20692775 0.28181225 0.3584578
-0.38529179 0.31288254 -0.4240565 0.44466457 -0.122999676 0.4085507 -0.61370444 0.15972933
-0.26323944 0.100378096 0.47100425 0.31641167 -0.5589797 -0.46594062 0.36191228 -0.5348952
0.25140154 -0.78609735 -0.2883386 0.13055779 -0.5344672 -0.27025735 0.7302468 -0.58147246
0.336201 -0.2785228 0.058338743 -0.6923767 0.5361916 0.18532181 0.16692382 0.022642693
-1.5321081 -0.116650395 0.24815397 -0.4790593 -0.24734831 -0.75746363 -0.25891963 0.49913645
-0.13360642 0.08907017 0.44365975 -0.17196901 0.43236494 0.15711884 -0.14068657 -0.8640219
-0.09593438 0.54464644 0.010584141 -0.26002568 -0.25610864 -0.11317111 0.21182296 -0.6707415
0.23338246 0.5342152 -0.58471215 -0.31901783 -0.17365104 0.414923 0.09257532 0.16020197
-0.16819885 -0.33560324 -0.09989295 -0.6580121 -0.03630151 -0.19776188 0.22724621 -0.3338805
-0.1717957 -0.16434844 0.055966727 -0.021339184 0.14408293 -0.10997545 0.09815234 -0.73318005
-0.5323234 0.4394817 -0.061258286 0.07044118 -0.48489413 0.1898263 -0.26158836 0.280031
0.3390329 0.20802094 -0.53483605 1.318125 -0.24281806 -0.24237193 0.041595485 -0.30193198
0.09284189 -0.8068012 0.38691387 0.6563743 -0.7250401 0.04410158 -0.9183544 0.21667857

lstm.bias_ih_l0 f4 [80]
00000000: 6f53 c7be bd8a fdbe 4d10 47be b892 9bbf
00000010: fc85 0cbf 40f8 76bf 7023 bdbe bd2f 653e
00000020: 76dc 44bf 8ead f9be 44a1 5cbf 4026 c8be
00000030: a549 18bf f1a6 47bf d8e1 06bf 15eb 38be
00000040: af9a 0abe 6798 35bc 6371 80bd b571 ae3e
00000050: 8517 e5bd 9a14 34bf 26c1 16bf 99a5 453f
00000060: 70a2 e3be 1af6 50bf d70a 8fbf 3f7a 133e
00000070: ee88 08be cbfc e83e 0ceb 03bf 3196 e0be
00000080: c33a cc3c 84cd c23e 186a 15bf 7e61 a6be
00000090: 433c 3ebf 82a5 14bf c2bf 4abe bb26 283e
000000a0: 13ff 14bd 3efd 1bbe 7d70 e6bd c069 c73e
000000b0: 8db7 32be ad65 273e 26d9 64be 1159 853f
000000c0: 137a a93d 1713 7d3d 2bd0 913c 5fec e73d
000000d0: d55c 89be 4418 cabd 6606 e2bd ecf5 273e
000000e0: de7a 213e bd30 313e c605 28be bacf 463f
000000f0: ab5f 76bf 4bfd 60bf 7cfe 02bf 3ba5 0d3e
00000100: a73b fbbe efe9 a2be f0be 1dbf 91c3 783f
00000110: 9593 52bf 1595 0d3e 5cc2 52bf 2561 1ebf
00000120: 1a93 4fbf c415 9cbe 6439 55bf bb03 99bf
00000130: 8555 64be 5ee6 7bbf dd7e 8dbf 6c31 163f
-0.38930842 -0.4951991 -0.19439812 -1.215415 -0.54891944 -0.9647255 -0.369411 0.22381492
-0.76898897 -0.48765224 -0.8618357 -0.39091682 -0.5948737 -0.7798911 -0.5268836 -0.18058427
-0.1353557 -0.011083699 -0.06271627 0.34071127 -0.111861266 -0.70343935 -0.5888847 0.77205807
-0.44459867 -0.8162552 -1.1175183 0.14402102 -0.13333485 0.45505366 -0.5153053 -0.43864587
0.024930364 0.3804742 -0.5836501 -0.32496256 -0.743107 -0.58065045 -0.19799712 0.16421025
-0.03637607 -0.15233323 -0.11251924 0.38947868 -0.17452832 0.1634738 -0.2234846 1.0417806
0.08275237 0.061785784 0.017799458 0.11324381 -0.26828638 -0.098679096 -0.11036377 0.16402406
0.15769526 0.17303748 -0.16408452 0.77660716 -0.9623973 -0.87886494 -0.5116956 0.13832562
-0.4906895 -0.31819102 -0.6161947 0.9717341 -0.8225644 0.13826402 -0.8232782 -0.6186698
-0.81083834 -0.30485356 -0.83290696 -1.1954263 -0.22298248 -0.9839839 -1.1054341 0.5866916

lstm.bias_hh_l0 f4 [80]
00000000: c1b8 3abe 27b8 d2be a895 a8bd ce9c 5cbf
00000010: 92a5 49bf 936e 2dbf 607e 36be 60a1 56bc
00000020: 993d 7bbf d940 0bbe 833f 4bbf aee0 c4be
00000030: 8090 02bf d6ec 97bf 3d79 21bf aa53 95be
00000040: dfa9 823d 4187 843c 12dc 48be 855b a83e
00000050: df55 3040 80f2 1440 f70b 1440 daf9 6640
00000060: 2bbe 2f40 27bd 0c40 eed2 fd3f c582 4f40
00000070: fa7b 3c40 d079 5340 a19a 1740 3134 1740
00000080: e9be 3540 e583 5840 ba5d 1d40 991a 2740
00000090: 6d0d 1640 f6bc 2640 4058 2c40 7fef 3e40
000000a0: 29eb cdbc 041c 243c b740 26be 38ab d03e
000000b0: d07c 193d 59d1 81bd 79e0 8fbe 947e 613f
000000c0: 60fd 79be 8c3c 56be 702a 91be 9403 b6bd
000000d0: 353b 9cbe 4021 813e 718e 9ebe 1b42 8b3e
000000e0: ba94 163e 9734 8cbd 820f 443e d72f 683f
000000f0: 291f 2abf 34e1 70bf bc15 0cbf 849f 8abe
00000100: 6649 33bf e980 50be 2cea 09bf b2c1 843f
00000110: bb7b 27bf e270 86bd 5a03 06bf e0e6 02bf
00000120: 4b63 78bf 2ab7 eabe edc2 60bf dd02 92bf
00000130: 4b1d 8b3b bac5 afbf d286 93bf f2fe f23e
-0.1823454 -0.41156122 -0.0823167 -0.86176765 -0.78768265 -0.6774685 -0.17821646 -0.013099998
-0.98140866 -0.13598956 -0.79393786 -0.38452667 -0.5100174 -1.1869152 -0.6307562 -0.29165393
0.063800566 0.016177775 -0.196152 0.32882324 2.7552412 2.327301 2.3132303 3.6089997
2.745982 2.199045 1.9829996 3.2423565 2.945067 3.3043098 2.3688128 2.3625605
2.8397772 3.3830502 2.4588456 2.6109984 2.3445694 2.6052833 2.6928864 2.9833677
-0.025136547 0.010016445 -0.16235624 0.4075563 0.037472546 -0.06338758 -0.28100947 0.8808377
-0.24413061 -0.20921534 -0.2835269 -0.08887401 -0.3051392 0.2522068 -0.3096805 0.27198872
0.14705172 -0.06845968 0.19146541 0.90698 -0.66453797 -0.9409363 -0.54720664 -0.27074826
-0.7003387 -0.20361675 -0.5387294 1.0371611 -0.6542317 -0.065644994 -0.52348864 -0.5113354
-0.9702651 -0.45842868 -0.87797433 -1.1407124 0.0042454354 -1.3732216 -1.1525519 0.47460133

head.net.0.weight f4 [1, 20]
00000000: 4233 b23f 0408 df3f 653f b1bf ee23 07bd
00000010: 412b 8dbf e474 b13f aac8 f7bf 57ff c3bb
00000020: 2374 263f 8a38 3f3d d231 cc3f 9ae2 773f
00000030: 351f c7bf 3214 6dbe 50b6 77bf ee9a f93f
00000040: 4e07 cb3e 6e62 fc3f 56b8 e3bf 041e 5ebc
1.3921893 1.7424321 -1.3847471 -0.03299325 -1.1028825 1.3863797 -1.9358113 -0.0059813666
0.6502096 0.04668478 1.5952704 0.9683014 -1.5556399 -0.23152235 -0.9676256 1.9500406
0.3965401 1.9717538 -1.779063 -0.013556961
