Project-Run/run_cudalstm_mcd_model/model_epoch025.pt (torch, 19526 bytes, 5 tensors)

lstm.weight_ih_l0 f4 [80, 33]
-0.08404127 0.13086018 0.7058784 0.19552298 1.138753 0.13853718 0.27867872 -0.017163191
0.51949775 -0.042787477 -0.13550611 -0.01488682 -0.07208893 0.34734032 0.12233729 -0.039532598
-0.0226856 0.57150084 0.16736141 0.26818618 0.28848642 -0.5481367 0.016632538 0.29436475
-0.9247089 -0.0035201171 0.47099197 -0.22907722 -0.06318917 0.3170737 0.03865038 0.20496221
-0.10381268 0.6662192 0.01989441 -0.14123467 0.25187933 0.74532694 -0.5009796 -0.015589527
-0.05731878 0.008105693 0.10401981 0.055038914 0.38995865 -0.38423368 0.8167803 0.18712617
0.20005406 -0.18058324 0.41231194 -0.38087097 0.5027683 0.16422352 0.22496717 0.63888407
-0.1788666 0.0072778636 0.1272146 -0.6071802 0.3778203 0.16598883 -0.110530995 -0.36251464
-0.16880444 0.614455 -0.1672767 -0.2665029 0.49609023 -0.24981683 0.83881676 -0.021898987
0.25331044 -0.47202155 0.47359207 -0.038002905 -0.11757284 -0.03852412 -0.015140152 -0.37783575
-0.14813355 0.052971397 0.1059792 -0.31509173 0.22346945 0.22142646 0.14046544 -0.4271709
0.6083839 0.10390217 0.04048973 -0.023618497 0.084119506 0.12294635 0.8713277 -0.18438761
-0.07123635 -0.22955468 -0.15725943 -0.8393396 0.42621452 0.51899153 -0.007659741 0.44875455
-0.22933505 0.1505588 0.13449724 -0.23830144 -0.0014486058 0.66629326 -0.0691384 0.30987108
0.4424514 -0.18839164 -0.08800102 0.9319545 -0.30824283 0.1462649 -0.70126 -0.11122629
0.13599384 -0.13748248 0.097093284 -0.3289146 0.036302928 -0.35496438 -0.23347186 -0.2426174
0.26788163 -0.26643005 0.18155578 -0.1894446 -0.0238844 0.09878933 0.2854804 -0.17213173
1.3726647 -0.45817932 -0.30765417 -0.36807227 0.04462748 -0.1300728 0.5558939 0.19196115
-0.2949761 -0.35351753 -0.40367964 -0.5715672 0.19178247 0.17089835 -0.7089124 -0.21317436
0.2551941 -0.45712504 -0.06328134 -0.0975444 -0.010754043 0.407507 0.095949635 -0.09677054
0.8456933 0.12302981 0.24272649 -0.12097009 -0.026980419 0.054015137 -0.06943967 0.3538054
-0.18538909 0.96572745 -0.016191619 0.054250993 0.02611219 0.8711705 0.010813944 0.022328079
-0.03450894 -0.39117038 0.00014240296 -0.2338353 0.053696685 0.3068616 0.21458068 -0.21955729
0.13624465 0.36664155 -0.3850938 0.67769384 0.33780888 -0.1002326 0.02134699 -0.08662217
-0.14517127 0.61860996 -0.03972443 0.028279545 0.014192766 0.15133092 -0.17267577 -0.04625393
-0.15715332 -0.142164 -0.42583725 0.4027237 -0.32411107 -0.1248973 -0.3194659 -0.2522669
0.42216706 0.5777661 0.34958243 -0.5506657 -0.1919239 -0.23254171 0.1240977 0.4243395
-0.29408944 -0.287168 -0.3438424 0.06087511 -0.43042135 0.046520077 0.23816732 0.12644279
-0.39763805 0.23120116 0.032201637 0.42830387 -0.1576858 -0.37241453 -0.08179022 -1.0958737
0.37376025 -0.2743744 0.30521452 0.26103288 0.061411522 -0.36092207 -0.3594832 0.44720086
0.34661797 -0.43259782 0.41277742 -0.7367251 0.4085016 0.363088 0.31033954 -0.09600632
0.5054633 -0.21947029 0.46952894 0.66610014 0.36104348 0.39145964 0.40206546 -0.45613423
00000000: d41d acbd 3600 063e 72b4 343f 2d37 483e
00000010: a9c2 913f b1dc 0d3e faae 8e3e d299 8cbc
00000020: cefd 043f ec41 2fbd 1dc2 0abe d9e7 73bc
00000030: 5ca3 93bd 97d6 b13e f98b fa3d efec 21bd
00000040: 27d7 b9bc e14d 123f ca60 2b3e b34f 893e
00000050: 7eb4 933e b052 0cbf f640 883c fab6 963e
00000060: b9b9 6cbf c4b1 66bb dc25 f13e 3893 6abe
00000070: 5369 81bd 7c57 a23e dc4f 1e3d 9de1 513e
00000080: be9b d4bd 578d 2a3f 9af9 a23c d29f 10be
00000090: 54f6 803e bfcd 3e3f 3340 00bf 376b 7fbc
000000a0: 19c7 6abd becd 043c 5708 d53d 7c70 613d
000000b0: a9a8 c73e 47ba c4be 8418 513f 019e 3f3e
000000c0: f9da 4c3e d0ea 38be 8d1a d33e 8501 c3be
000000d0: 6cb5 003f 362a 283e cb5d 663e e88d 233f
000000e0: ce28 37be 257b ee3b 8b44 023e 2970 1bbf
000000f0: aa71 c13e faf8 293e 135e e2bd 859b b9be
00000100: 12db 2cbe ec4c 1d3f 954a 2bbe 1173 88be
00000110: 8aff fd3e fccf 7fbe b2bc 563f 8165 b3bc
00000120: e8b1 813e cfac f1be a97a f23e efa8 1bbd
00000130: 07ca f0bd 78cb 1dbd 660e 78bc b073 c1be
00000140: 52b0 17be 89f8 583d 9f0b d93d b453 a1be
00000150: 2dd5 643e 9ebd 623e 2cd6 0f3e 25b6 dabe
00000160: 0cbf 1b3f a9ca d43d 8fd8 253d 947b c1bc
00000170: d946 ac3d 4ccb fb3d 550f 5f3f 1bd0 3cbe
00000180: 5de4 91bd 6210 6bbe 9e08 21be f6de 56bf
00000190: ca38 da3e a1dc 043f 91fe fabb 28c3 e53e
000001a0: cfd6 6abe 162c 1a3e a5b9 093e 4b05 74be
000001b0: 25df bdba 3292 2a3f 6f98 8dbd 6ca7 9e3e
000001c0: fd88 e23e bde9 40be e139 b4bd 9294 6e3f
000001d0: 01d2 9dbe 77c6 153e c685 33bf 9cca e3bd
000001e0: f841 0b3e 35c8 0cbe d8d8 c63d 7f67 a8be
000001f0: 61b2 143d e4bd b5be 3f13 6fbe b270 78be
00000200: c827 893e 8569 88be c2e9 393e c4fd 41be
00000210: 38a9 c3bc 0f52 ca3d 7d2a 923e 4d43 30be
00000220: 7ab3 af3f 7b96 eabe d984 9dbe f873 bcbe
00000230: 4ecb 363d ce31 05be 104f 0e3f 7791 443e
00000240: 1b07 97be 4000 b5be 19af cebe 3a52 12bf
00000250: a062 443e faff 2e3e 487b 35bf 614a 5abe
00000260: cda8 823e 4b0c eabe a699 81bd 5cc5 c7bd
00000270: ba31 30bc c2a4 d03e 3e81 c43d a22f c6bd
00000280: 5b7f 583f 0ef7 fb3d 4b8d 783e 2bbf f7bd
00000290: 0a06 ddbc fa3e 5d3d 6336 8ebd fb25 b53e
000002a0: a3d6 3dbe ea39 773f 49a4 84bc 4a36 5e3d
000002b0: 3be9 d53c 0805 5f3f f82c 313c 60e9 b63c
000002c0: 3f59 0dbd 7c47 c8be 0152 1539 8572 6fbe
000002d0: 0ef1 5b3d f71c 9d3e 0abb 5b3e a0d3 60be
000002e0: b883 0b3e 71b8 bb3e 042b c5be 587d 2d3f
000002f0: 49f5 ac3e c046 cdbd e2df ae3c f766 b1bd
00000300: c7a7 14be 395d 1e3f 15b6 22bd 81aa e73c
00000310: c688 683c 7ef6 1a3e ebd1 30be c374 3dbd
00000320: cdec 20be 7193 11be 5707 dabe cd31 ce3e
00000330: e3f1 a5be 28ca ffbd 0991 a3be 2129 81be
00000340: 4826 d83e 7be8 133f 78fc b23e 6df8 0cbf
00000350: b387 44be 6a1f 6ebe ef26 fe3d 0743 d93e
00000360: e492 96be af07 93be 1c0c b0be 2e58 793d
00000370: 3060 dcbe d68b 3e3d 22e2 733e 387a 013e
00000380: 3797 cbbe ffbf 6c3e dde5 033d a54a db3e
00000390: 6378 21be 1ead bebe a281 a7bd 9745 8cbf
000003a0: 815d bf3e cd7a 8cbe 1445 9c3e 1aa6 853e
000003b0: a68a 7b3d c7ca b8be 2f0e b8be 83f7 e43e
000003c0: e977 b13e 767d ddbe 9057 d33e 049a 3cbf
000003d0: 1f27 d13e ace6 b93e d3e4 9e3e f69e c4bd
000003e0: 0b66 013f d2bc 60be 1966 f03e 8a85 2a3f
000003f0: b1da b83e 666d c83e 86db cd3e 6d8a e9be

lstm.weight_hh_l0 f4 [80, 20]
-2.3134308 -0.12708202 0.46409342 -0.037856255 0.116676085 -0.43438497 -0.25956407 0.24266753
0.34537253 0.06287393 -0.37957156 -0.09059165 1.062921 0.2769833 -0.3713545 0.20381773
0.10547521 0.082416736 0.5120538 0.4767651 -0.2826532 -0.75678384 0.017487025 -0.38463813
-0.006905408 0.5821185 0.12845773 -0.079050355 0.23430924 -0.41196433 -0.0872126 0.063827306
0.60585463 0.5069026 -0.6702821 -0.15571968 -0.1821176 -0.3746394 0.40607682 -0.5334413
-0.09770996 -0.032201152 2.2286284 -0.2865544 0.07957631 -0.072032325 -0.25646484 -0.64053446
0.65058106 0.42236227 -0.3599562 -0.3936885 -0.44027862 -0.49793264 -0.9076209 0.31545168
-0.51077396 0.21606638 -0.4061474 -1.169446 0.18439445 0.8095466 0.68372285 -0.89202225
-2.121824 0.7432026 -0.62029004 -1.0316216 -0.5735156 -0.21206048 1.2319363 -1.4278011
-1.6933266 0.3105835 1.0726955 -0.08723788 0.010249215 1.0332792 -0.54303193 -0.16606468
0.068354405 0.66235596 0.053880095 -0.92513937 0.12829621 -0.3011176 0.1269949 -0.43185356
0.172745 0.41877103 -0.30581018 0.19848673 -0.28146803 0.64569825 -0.32284078 0.11372589
-0.38940823 0.4361255 -0.74801004 -0.54730725 -0.35856634 -0.007527246 0.4331695 -0.67013884
-0.43851238 -2.0801287 0.021139001 -0.9601814 0.9367715 0.66443646 0.17193834 -0.12962581
-0.77172333 -0.20238903 -0.39591917 0.10910236 -0.42699957 0.17761582 -0.12763654 -0.8907593
0.32778117 1.0849199 -0.52970284 0.24189316 -0.5026272 1.5779642 0.06516516 0.2670485
1.1782978 -0.12329517 1.4566379 1.1771063 -2.7782123 -0.57976943 -1.9961597 0.7599477
0.12732498 0.47322607 -0.4235313 0.22554407 -0.12766424 0.7502967 -0.17307767 1.0908318
-0.33230513 0.66949457 0.11211288 -0.45617932 0.5564797 0.20420584 0.45767272 0.56556284
-0.5465292 0.5300171 -0.81435347 0.72713983 -0.38507038 0.66141057 -0.8774629 0.71153903
-0.61848664 0.1429229 0.8574324 0.6975665 -0.6641987 -0.5389699 0.81176746 -0.5921353
0.3763227 -0.7035993 -0.04385004 0.14602377 -1.052743 -0.55842763 1.4812204 -0.9108574
0.56806433 -0.23369195 -0.08098171 -0.64276284 0.3604549 -0.24917176 0.5937774 0.12627412
-2.166497 -0.14023715 0.42958775 -0.2511453 -0.12954715 -0.9198058 -0.19634862 0.37579632
-0.6382557 0.3529993 0.36557096 -0.11408289 0.29372305 0.058571186 -0.43903676 -1.0243993
-0.09153493 0.9289036 0.32239604 -0.096793815 -0.30707812 -0.34307724 0.15437718 -0.877212
0.48828787 0.947391 -1.4938694 -0.32301912 0.12370944 0.14783315 -0.01812907 0.047652267
-0.18510029 -0.16598563 -0.014928718 -1.4141953 -0.12672155 0.015011792 0.29262143 0.2091706
-0.34314564 -0.19750217 -0.0011792827 0.24852993 0.70888394 -0.38140163 -0.13324596 -1.2346095
0.03295034 0.3456842 0.123587124 -0.16790642 -0.30150026 0.13099827 -0.23547885 0.3058056
0.6058477 -0.66860515 -0.60415095 1.7675227 0.006611915 -0.06762756 -0.0778976 -0.07507213
0.5248499 -1.0966115 0.6114255 1.0631698 0.16085398 -0.70847386 -1.1500903 0.22404231
00000000: 400f 14c0 ca21 02be a79d ed3e 290f 1bbd
00000010: dff3 ee3d b567 debe 95e5 84be d67d 783e
00000020: abd4 b03e 0cc4 803d 3457 c2be 1d88 b9bd
00000030: cc0d 883f c1d0 8d3e 2d22 bebe 98b5 503e
00000040: 6303 d83d 1bca a83d f515 033f 8e1a f43e
00000050: ecb7 90be 96bc 41bf f340 8f3c 4aef c4be
00000060: c346 e2bb b805 153f 6c8a 033e 27e5 a1bd
00000070: c3ee 6f3e fdec d2be 859c b2bd e4b7 823d
00000080: 4a19 1b3f 5ec4 013f 9c97 2bbf fb74 1fbe
00000090: 097d 3abe bcd0 bfbe 4de9 cf3e 9c8f 08bf
000000a0: 291c c8bd 5be5 03bd d9a1 0e40 42b7 92be
000000b0: e8f8 a23d af85 93bd 5c4f 83be 11fa 23bf
000000c0: 7b8c 263f de3f d83e 2e4c b8be 8a91 c9be
000000d0: 336c e1be 07f1 febe d859 68bf e282 a13e
000000e0: 15c2 02bf 8140 5d3e 8df2 cfbe 68b0 95bf
000000f0: e6d1 3c3e 723e 4f3f 7608 2f3f 925b 64bf
00000100: f7cb 07c0 8742 3e3f 54cb 1ebf 2d0c 84bf
00000110: ebd1 12bf 6226 59be 17b0 9d3f 30c2 b6bf
00000120: edbe d8bf cd04 9f3e 164e 893f c6a9 b2bd
00000130: 53ec 273c 7e42 843f 2404 0bbf dc0c 2abe
00000140: 65fd 8b3d 2990 293f 60b1 5c3d efd5 6cbf
00000150: 1560 033e 162c 9abe f30a 023e e91b ddbe
00000160: 11e4 303e 2869 d63e 2793 9cbe 1b40 4b3e
00000170: 941c 90be 7b4c 253f 634b a5be 1fe9 e83d
00000180: 8460 c7be d74b df3e 967d 3fbf 541c 0cbf
00000190: 0296 b7be 1ea7 f6bb 65c8 dd3e 388e 2bbf
000001a0: b284 e0be d420 05c0 b32b ad3c 73ce 75bf
000001b0: 42d0 6f3f 8218 2a3f 9b10 303e a1bc 04be
000001c0: a98f 45bf 123f 4fbe ebb5 cabe 0f71 df3d
000001d0: b09f dabe ece0 353e 27b3 02be cd08 64bf
000001e0: efd2 a73e a8de 8a3f 9b9a 07bf d7b2 773e
000001f0: 2dac 00bf bbfa c93f 5075 853d 95ba 883e
00000200: 76d2 963f 2e82 fcbd 1c73 ba3f 6bab 963f
00000210: 3bce 31c0 c56b 14bf 2982 ffbf ef8b 423f
00000220: 7b61 023e b04a f23e 18d9 d8be 06f5 663e
00000230: 6aba 02be 7213 403f 463b 31be 60a0 8b3f
00000240: e623 aabe ff63 2b3f 709b e53d 5690 e9be
00000250: 7475 0e3f 561b 513e 1454 ea3e bac8 103f
00000260: 56e9 0bbf 33af 073f 7879 50bf d625 3a3f
00000270: f227 c5be 3452 293f 69a1 60bf 6c27 363f
00000280: 2455 1ebf 615a 123e b180 5b3f b893 323f
00000290: ed08 2abf eef9 09bf fecf 4f3f 2e96 17bf
000002a0: 5ead c03e 151f 34bf 199c 33bd 4187 153e
000002b0: 48c0 86bf 1df5 0ebf a198 bd3f f32d 69bf
000002c0: aa6c 113f f14c 6fbe bdd9 a5bd 1b8c 24bf
000002d0: 8b8d b83e e226 7fbe cc01 183f 014e 013e
000002e0: e3a7 0ac0 549a 0fbe edf2 db3e 1e96 80be
000002f0: 02a8 04be 6578 6bbf 9d0f 49be 6068 c03e
00000300: ba64 23bf 53bc b43e 1e2c bb3e 4aa4 e9bd
00000310: de62 963e 57e8 6f3d 6dc9 e0be 841f 83bf
00000320: aa76 bbbd a0cc 6d3f 1811 a53e d63b c6bd
00000330: 5839 9dbe d2a7 afbe 0d15 1e3e f790 60bf
00000340: de00 fa3e 3788 723f 1d37 bfbf c362 a5be
00000350: 605b fd3d 9361 173e 6a83 94bc 062f 433d
00000360: ee8a 3dbe 23f8 29be 9597 74bc 5a04 b5bf
00000370: 4bc3 01be 05f4 753c 7ad2 953e d130 563e
00000380: c9b0 afbe 023e 4abe 2992 9aba a17e 7e3e
00000390: 6b79 353f 1347 c3be a171 08be af07 9ebf
000003a0: f0f6 063d 85fd b03e 3f1b fd3d a9ef 2bbe
000003b0: 3e5e 9abe 6924 063e 5e21 71be 8d92 9c3e
000003c0: d618 1b3f b529 2bbf a3a9 1abf 2f3e e23f
000003d0: c3a8 d83b 5180 8abd c788 9fbd 6bbf 99bd
000003e0: 905c 063f c45d 8cbf 6286 1c3f f315 883f
000003f0: e8b6 243e 8b5e 35bf 2936 93bf 596b 653e

lstm.bias_ih_l0 f4 [80]
-0.37681887 -0.72150207 -0.2002001 -1.5448682 -0.56945425 -1.0601734 -0.5727608 0.38834962
-0.942726 -0.5152569 -0.9903836 -0.076745495 -0.38662887 -1.0315 -0.8224076 -0.23295946
-0.1664516 -0.05068446 0.049138498 0.6033337 -0.56717885 -0.94496083 -1.1222502 0.8932141
-0.451397 -1.0189211 -1.6382278 0.2625832 -0.2317381 0.5382622 -0.7066004 -0.8247326
-0.026640689 0.41061735 -0.78566754 -0.5079283 -0.9451047 -0.7392305 -0.49249065 0.1937629
0.013393949 -0.10546713 -0.15129292 0.58312124 -0.19543996 0.16285223 -0.33122462 1.4584906
0.09056784 0.111837275 0.08335971 0.16566782 -0.2713325 -0.13101166 -0.44741353 0.3223916
0.28841388 0.12750024 -0.29923248 1.3833151 -0.9512041 -0.93736243 -0.6505904 0.20228691
-0.65136164 -0.12857784 -0.7211299 1.3241849 -0.93287575 0.122122265 -0.61059093 -0.77954113
-0.87243277 -0.50026983 -0.92051893 -1.363697 -0.255957 -1.0445374 -1.2651469 0.70780224
00000000: 67ee c0be 5cb4 38bf 4101 4dbe 3ebe c5bf
00000010: c1c7 11bf c3b3 87bf 74a0 12bf c3d5 c63e
00000020: 7e56 71bf e0e7 03bf c889 7dbf be2c 9dbd
00000030: 38f4 c5be 3108 84bf 4e89 52bf ed8c 6ebe
00000040: 4a72 2abe 829a 4fbd 7345 493d 1474 1a3f
00000050: a232 11bf f4e8 71bf e5a5 8fbf aea9 643f
00000060: 821d e7be 026c 82bf 73b1 d1bf 4e71 863e
00000070: c14c 6dbe 8dcb 093f c4e3 34bf ad21 53bf
00000080: 933d dabc 703c d23e 8221 49bf 9707 02bf
00000090: 62f2 71bf 363e 3dbf bc27 fcbe c869 463e
000000a0: 4b72 5b3c 27ff d7bd 88ec 1abe 6f47 153f
000000b0: 6a21 48be bcc2 263e 4696 a9be d2af ba3f
000000c0: a27b b93d f10a e53d 7fb8 aa3d d3a4 293e
000000d0: 18ec 8abe ec27 06be 6313 e5be 8310 a53e
000000e0: fcaa 933e 6c8f 023e 0035 99be 7810 b13f
000000f0: 1d82 73bf fcf6 6fbf 188d 26bf 4d24 4f3e
00000100: a3bf 26bf e9a9 03be f89b 38bf e47e a93f
00000110: f2d0 6ebf 3d1b fa3d b04f 1cbf 0290 47bf
00000120: c157 5fbf af11 00bf 21a7 6bbf a08d aebf
00000130: cc0c 83be 67b3 85bf 55f0 a1bf 8732 353f

lstm.bias_hh_l0 f4 [80]
-0.16985382 -0.6378643 -0.08811938 -1.1912136 -0.80821747 -0.772918 -0.3815635 0.15143493
-1.1551526 -0.16359982 -0.9224851 -0.07035564 -0.301771 -1.4385194 -0.9262802 -0.34402937
0.03270483 -0.023422942 -0.08429756 0.59144527 2.2999315 2.0857563 1.7798504 3.7301571
2.7391796 1.9964001 1.46229 3.3609335 2.8466735 3.3875241 2.1775208 1.9764612
2.7881846 3.4131804 2.256837 2.4280205 2.142567 2.4466858 2.3983777 3.0129166
0.024633506 0.056882415 -0.20112935 0.6011968 0.016560938 -0.064009465 -0.3887494 1.297555
-0.23631613 -0.15916456 -0.21796757 -0.036450468 -0.3081858 0.21987492 -0.6467348 0.43035546
0.2777707 -0.1139975 0.05631742 1.5136824 -0.65334576 -0.9994361 -0.68610233 -0.20678753
-0.8610108 -0.014003806 -0.6436646 1.389609 -0.76454306 -0.081786215 -0.3108053 -0.6722073
-1.0318507 -0.65384567 -0.9655863 -1.3089831 -0.028730715 -1.4337708 -1.3122647 0.59571075
00000000: 29ee 2dbe 134b 23bf ef77 b4bd b079 98bf
00000010: 57e7 4ebf f4dd 45bf 4b5c c3be c211 1b3e
00000020: 0adc 93bf b686 27be fc27 6cbf 9e16 90bd
00000030: ba81 9abe 6721 b8bf b320 6dbf 9e24 b0be
00000040: 80f5 053d 78e1 bfbc 33a4 acbd f568 173f
00000050: 1432 1340 087d 0540 23d2 e33f e5ba 6e40
00000060: b84e 2f40 0a8a ff3f 522c bb3f 8919 5740
00000070: e62f 3640 32cd 5840 805c 0b40 aefc fc3f
00000080: 9e71 3240 8c71 5a40 0470 1040 b064 1b40
00000090: d11f 0940 8096 1c40 057f 1940 a0d3 4040
000000a0: 35cc c93c 89fd 683d daf4 4dbe 09e8 193f
000000b0: ceaa 873c 6517 83bd 290a c7be 4816 a63f
000000c0: dbfc 71be 09fc 22be e432 5fbe 164d 15bd
000000d0: 87ca 9dbe e426 613e 6990 25bf 8d57 dc3e
000000e0: f637 8e3e 8577 e9bd 18ad 663d 58c0 c13f
000000f0: ab41 27bf 0bdb 7fbf 67a4 2fbf 1cc0 53be
00000100: 346b 5cbf 3870 65bc 34c7 24bf b5de b13f
00000110: 18b9 43bf 887f a7bd df21 9fbe c715 2cbf
00000120: af13 84bf 6e62 27bf aa30 77bf c28c a7bf
00000130: ad5c ebbc cd85 b7bf 4af8 a7bf 8080 183f

head.net.0.weight f4 [1, 20]
1.6464735 2.1745708 -1.7298768 -0.03711871 -1.2472153 1.5938134 -1.9273851 -0.009313654
0.6368822 0.04427537 1.9459429 1.3361238 -1.7023445 -0.27041063 -1.0272353 2.3069508
0.3066156 2.5472865 -2.099061 -0.015963413
00000000: a5bf d23f 2b2c 0b40 9a6c ddbf ca09 18bd
00000010: c0a4 9fbf 1402 cc3f 8eb4 f6bf 4c98 18bc
00000020: b60a 233f 175a 353d a814 f93f 1b06 ab3f
00000030: 6de6 d9bf 4373 8abe 727c 83bf 15a5 1340
00000040: b8fc 9c3e be06 2340 0457 06c0 b4c5 82bc
