Project-Run/run_cudalstm_mcd_model/model_epoch017.pt (torch, 19526 bytes, 5 tensors)

lstm.weight_ih_l0 f4 [80, 33]
0.09262658 0.11492482 0.6403916 0.19294165 0.9352759 0.18294513 0.23766455 -0.18631074
0.48242134 0.20696539 -0.07248897 0.08118585 -0.08755788 0.35778695 0.287639 -0.13872059
-0.22353923 0.34837732 0.24281631 0.026645118 0.14457422 -0.34175625 0.17139442 0.33646932
-0.79849666 0.028573284 0.610173 -0.19278437 -0.13432692 0.28593206 0.067903996 0.119310126
-0.10366533 0.5821061 0.027854485 -0.056797788 0.1676711 0.6776039 -0.44198006 0.00638511
-0.11018046 0.060303193 0.23237841 0.07455882 0.32787472 -0.32573977 0.6185722 0.033838343
0.34326604 -0.11935285 0.41611034 -0.30370042 0.44759804 0.088421084 0.1780449 0.6438418
-0.31483975 0.060717363 0.19812064 -0.6956292 0.3352088 0.22950858 -0.24126557 -0.49493092
-0.25064653 0.5995478 -0.16062687 -0.24519835 0.46492088 -0.20550711 0.8100976 0.07438348
0.30460203 -0.362358 0.44706553 -0.12792502 -0.20163213 0.0032248357 -0.08945001 -0.2822811
-0.08617095 0.03456934 0.065856926 -0.4333461 0.23713121 0.14516419 0.20638281 -0.42837566
0.51976615 0.05564839 -0.1169475 0.056437086 0.13457754 0.074062236 0.62430793 -0.12520559
-0.006465231 -0.19466104 -0.14245158 -0.8677845 0.4261171 0.527847 -0.0026622443 0.46838874
-0.13830909 0.090224355 0.17858283 -0.21360894 -0.08657234 0.5847742 0.07951747 0.25250062
0.34746197 -0.1857619 -0.15260303 0.8398067 -0.3315857 0.10709548 -0.6145705 -0.12098224
0.17225114 -0.038749855 0.10366483 -0.32251695 0.040287096 -0.40758082 -0.113495246 -0.25747833
0.31050798 0.06220541 0.2432338 -0.124923065 -0.089197606 0.07355711 0.24458185 -0.1693113
1.2600733 -0.3680862 -0.2503073 -0.2655391 0.06028515 -0.12592398 0.44978824 0.2538551
-0.2949969 -0.2980254 -0.38320163 -0.4421027 0.098470084 0.13916722 -0.6114084 -0.23762417
0.14685047 -0.44816712 -0.08717194 -0.22052161 -0.06877207 0.40911904 0.13354476 -0.17745966
0.8497733 0.13739288 0.24957383 -0.06056801 -0.13393366 0.06185436 -0.028519554 0.2748177
-0.13361871 0.80911636 0.14887132 0.012789853 0.07821378 0.8005437 -0.03140616 -0.048279278
0.0752038 -0.49163827 0.015747918 -0.17286897 0.049453363 0.30994043 0.25501227 -0.21734639
0.047860056 0.3682129 -0.31763247 0.67556006 0.25815818 -0.13901901 0.11257332 -0.09782056
-0.18597287 0.5709165 -0.033072345 0.05878803 0.013068092 0.09505568 -0.11574417 -0.036415882
-0.11477759 -0.21148358 -0.33643004 0.37406877 -0.26157764 -0.07920531 -0.2792467 -0.20035103
0.5355247 0.41795194 0.3184684 -0.5407188 -0.22461474 -0.28801 0.14596818 0.4908672
-0.2690612 -0.23941429 -0.21021324 0.007294799 -0.23493303 0.061304126 0.21490341 0.13007382
-0.43176225 0.2671499 -0.008091118 0.37012777 -0.015990926 -0.34245002 -0.020722063 -0.72301406
0.17758115 -0.30919725 0.2660272 0.2559391 -0.054979682 -0.33549663 -0.3359451 0.41553578
0.26328883 -0.28545484 0.39058366 -0.5984488 0.3534049 0.23699102 0.22462879 -0.056796268
0.41242522 -0.2042479 0.45032355 0.5678 0.27994394 0.3715032 0.30557594 -0.431395
00000000: 01b3 bd3d b45d eb3d b4f0 233f 7f92 453e
00000010: 3e6e 6f3f f855 3b3e 565e 733e 3ec8 3ebe
00000020: eeff f63e bcee 533e 1975 94bd c444 a63d
00000030: 8c51 b3bd da2f b73e 6b45 933e c50c 0ebe
00000040: 78e7 64be 835e b23e d7a4 783e dd46 da3c
00000050: 440b 143e adfa aebe 0582 2f3e b545 ac3e
00000060: 476a 4cbf 8512 ea3c 4c34 1c3f 4469 45be
00000070: ff8c 09be b065 923e 4011 8b3d de58 f43d
00000080: 7d4e d4bd e804 153f 172f e43c cca4 68bd
00000090: f9b1 2b3e 7377 2d3f 364b e2be 2f3a d13b
000000a0: 4ba6 e1bd 7b00 773d 9bf4 6d3e 4bb2 983d
000000b0: 32df a73e 5dc7 a6be bf5a 1e3f 139a 0a3d
000000c0: 91c0 af3e 446f f4bd 6a0c d53e 9f7e 9bbe
000000d0: 922b e53e 1d16 b53d 6751 363e d1d2 243f
000000e0: ad32 a1be c5b2 783d 23e0 4a3e c114 32bf
000000f0: 7da0 ab3e 4c04 6b3e 520e 77be 9667 fdbe
00000100: be54 80be f77b 193f 5f7b 24be 4715 7bbe
00000110: 1c0a ee3e 7570 52be 8e62 4f3f 5e56 983d
00000120: ccf4 9b3e fd86 b9be c6e5 e43e c7fe 02be
00000130: a778 4ebe c457 533b 9131 b7bd 2687 90be
00000140: 657a b0bd 9598 0d3d ffdf 863d 8adf ddbe
00000150: 86d2 723e eca5 143e 0456 533e 0e54 dbbe
00000160: 650f 053f 91ef 633d 2c82 efbd 932a 673d
00000170: b2ce 093e f1ad 973d a5d2 1f3f e535 00be
00000180: 4ada d3bb 3955 47be d4de 11be 2027 5ebf
00000190: 052c da3e fb20 073f 0c79 2ebb a6d0 ef3e
000001a0: e6a0 0dbe 8cc7 b83d 6bde 363e 4dbc 5abe
000001b0: d74c b1bd c3b3 153f 0eda a23d c347 813e
000001c0: 89e6 b13e 5e38 3ebe f843 1cbe 92fd 563f
000001d0: 9ac5 a9be e054 db3d 7e54 1dbf 89c5 f7bd
000001e0: 9a62 303e 2bb8 1ebd 3a4e d43d f120 a5be
000001f0: 1504 253d 6fae d0be 3270 e8bd 33d4 83be
00000200: e7fa 9e3e 1acb 7e3d 4812 793e aad7 ffbd
00000210: 3cad b6bd 1ca5 963d aa73 7a3e f15f 2dbe
00000220: 154a a13f cb75 bcbe 4728 80be bef4 87be
00000230: 90ed 763d 37f2 00be a54a e63e 4cf9 813e
00000240: d509 97be c996 98be 0133 c4be 495b e2be
00000250: afaa c93d da81 0e3e 4385 1cbf c053 73be
00000260: f85f 163e 2976 e5be 3487 b2bd 6bd0 61be
00000270: 5fd8 8cbd 0d78 d13e f5bf 083e fcb7 35be
00000280: be8a 593f b8b0 0c3e 4890 7f3e 2916 78bd
00000290: e825 09be ff5a 7d3d d7a1 e9bc e8b4 8c3e
000002a0: 58d3 08be 4022 4f3f b971 183e 888c 513c
000002b0: 8c2e a03d 6ff0 4c3f bfa3 00bd 7ec0 45bd
000002c0: 7304 9a3d 03b8 fbbe c701 813c 9004 31be
000002d0: 9c8f 4a3d 83b0 9e3e f890 823e 0d90 5ebe
000002e0: e808 443d 6786 bc3e b9a0 a2be 81f1 2c3f
000002f0: 4f2d 843e 005b 0ebe d78c e63d 2556 c8bd
00000300: ac6f 3ebe 9527 123f de76 07bd b8cb 703d
00000310: 8d1b 563c 8dac c23d 480b edbd d228 15bd
00000320: 8310 ebbd 278f 58be 8f40 acbe f185 bf3e
00000330: 81ed 85be 6536 a2bd 6cf9 8ebe d228 4dbe
00000340: 2618 093f ccfd d53e 4a0e a33e 8c6c 0abf
00000350: 6801 66be 0c76 93be af78 153e f252 fb3e
00000360: 64c2 89be 0529 75be 2442 57be 3609 ef3b
00000370: 4992 70be 091a 7b3d a40f 5c3e 1232 053e
00000380: f10f ddbe dfc7 883e 9c90 04bc 6381 bd3e
00000390: 67ff 82bc 9c55 afbe 51c1 a9bc 7317 39bf
000003a0: d5d7 353e 1a4f 9ebe b834 883e 730a 833e
000003b0: 6032 61bd 37c6 abbe ff00 acbe 1bc1 d43e
000003c0: cbcd 863e 2327 92be 95fa c73e f133 19bf
000003d0: 7df1 b43e c6ad 723e 1705 663e 34a3 68bd
000003e0: 6629 d33e 5d26 51be cf90 e63e 575b 113f
000003f0: d054 8f3e ab35 be3e 7374 9c3e cedf dcbe

lstm.weight_hh_l0 f4 [80, 20]
-1.8505933 -0.083137885 0.4798582 -0.008384616 -0.09319035 -0.30911732 -0.25401548 0.06579893
0.2876692 0.0044589974 -0.1578378 -0.042099137 0.8797342 0.2745824 -0.2177681 0.10174925
0.19659826 -0.017098997 0.34859136 0.38621768 -0.12092343 -0.29773563 -0.105760865 -0.11388257
-0.021809023 0.50510544 -0.04413892 -0.09661673 0.26832676 -0.35715088 0.17851532 0.12720436
0.12215622 0.6430189 -0.38955334 0.018646387 -0.079115406 -0.1969639 0.12277832 -0.42646784
-0.17015247 -0.073721625 1.7847992 -0.23591413 0.07897846 -0.19139446 -0.33368415 -0.5276794
0.5598022 0.6839156 -0.24833582 -0.36897534 -0.30406046 -0.4837603 -0.66281503 0.26832283
-0.7331979 0.15198919 -0.4053749 -1.1114868 0.24400678 0.64528686 0.6056073 -0.7098191
-1.9624356 0.546705 -0.5775365 -1.1652316 -0.44486833 -0.23048596 0.85043865 -0.87505674
-1.2829442 0.21813287 1.0133106 -0.32685384 -0.034585945 0.92580616 -0.40029046 -0.3871367
0.12696263 0.6622573 -0.12996785 -0.9609567 0.17890479 -0.25396547 0.102009706 -0.37531227
0.15629672 0.38906127 -0.19722494 0.22165565 -0.62569207 0.65720624 -0.26146284 0.24708027
-0.43762973 0.73259974 -0.641652 -0.40660143 -0.3639871 0.030352334 0.49197924 -0.7475482
-0.34625742 -1.7318017 -0.023780823 -0.9224078 0.8064231 0.6386893 0.27412924 -0.17022021
-0.93603563 -0.0077229156 -0.4218336 0.11516818 -0.6437037 0.2676387 -0.21328056 -0.9365843
0.20318082 0.69228256 -0.34477141 0.1838386 -0.36384958 1.2469019 0.013730189 0.25390956
1.1595961 -0.14781232 1.526973 0.90341985 -1.9661692 -0.64558035 -1.8464584 0.6210719
0.16904086 0.4708591 -0.2435655 -0.060231652 0.2158546 0.7174844 -0.062586635 0.9278381
-0.23982547 0.62855625 -0.048466712 -0.32938784 0.5364965 0.21965194 0.2709555 0.42677507
-0.4716094 0.43792275 -0.50743973 0.5714731 -0.21552613 0.47392154 -0.7155049 0.3519796
-0.40541768 0.21016146 0.5866253 0.4960993 -0.61861837 -0.46595943 0.50772923 -0.55449903
0.40846887 -0.75082976 0.011170569 0.17468023 -0.9052787 -0.4097089 0.9948028 -0.68793666
0.3917349 -0.27855858 -0.06293241 -0.60926366 0.45636114 0.08636744 0.33064798 0.06781212
-1.9037235 -0.092597485 0.37868696 -0.36623803 -0.16810526 -0.86294955 -0.24367258 0.41395476
-0.4190585 0.13145828 0.50211924 -0.1481129 0.4497467 0.21135989 -0.27087185 -0.8815686
-0.054386087 0.82060754 0.08550655 -0.015577847 -0.44240713 -0.12555315 0.054411814 -0.7515765
0.40186432 0.83054364 -1.0340149 -0.26440105 -0.09586111 0.22437383 0.000811284 0.1818782
-0.059406303 -0.21543829 -0.19367681 -1.0267149 -0.24157476 -0.14599444 0.31928813 0.053278696
-0.27574313 -0.23009306 0.1417322 0.11406633 0.43027332 -0.13711005 -0.085507974 -1.0426866
-0.09221425 0.428213 0.21918146 -0.22620729 -0.5222259 0.033587612 -0.15798382 0.32617676
0.49526456 -0.19930853 -0.5074106 1.6089437 -0.065649174 -0.22425622 0.0798003 -0.2420429
0.35946897 -0.9818922 0.54055244 0.6976656 -0.5936709 -0.24015759 -1.0843931 0.22885229
00000000: 3ee0 ecbf 3244 aabd f9af f53e a15f 09bc
00000010: 95da bebd a044 9ebe 510e 82be 97c1 863d
00000020: 6149 933e c81c 923b 3ba0 21be 2570 2cbd
00000030: 4336 613f 1096 8c3e 9afe 5ebe e961 d03d
00000040: 0e51 493e 3213 8cbc 917a b23e 53be c53e
00000050: b4a6 f7bd ce70 98be 2799 d8bd 443b e9bd
00000060: d6a8 b2bc 974e 013f 03cb 34bd fede c5bd
00000070: 2062 893e 7bdc b6be b8cc 363e dc41 023e
00000080: 0a2d fa3d e39c 243f 8973 c7be 4fc0 983c
00000090: 4207 a2bd e8b0 49be 3373 fb3d fe59 dabe
000000a0: 733c 2ebe 5dfb 96bd 4d74 e43f 7993 71be
000000b0: 75bf a13d e9fc 43be a6d8 aabe ff15 07bf
000000c0: 324f 0f3f 1815 2f3f bf4b 7ebe 56ea bcbe
000000d0: d0ad 9bbe 6eaf f7be 3fae 29bf 9c61 893e
000000e0: dcb2 3bbf 0ea3 1b3e 4d8d cfbe 3345 8ebf
000000f0: eadc 793e 8531 253f 1409 1b3f b4b6 35bf
00000100: 1731 fbbf dcf4 0b3f 6fd9 13bf 4f26 95bf
00000110: c8c5 e3be 8304 6cbe 59b6 593f b803 60bf
00000120: 8437 a4bf 395e 5f3e 29b4 813f 6359 a7be
00000130: fea9 0dbd a201 6d3f dff2 ccbe c836 c6be
00000140: 7e02 023e b289 293f 4b16 05be 4201 76bf
00000150: d132 373e c307 82be 77ea d03d ee28 c0be
00000160: 3f0c 203e 0a33 c73e 56f5 49be b3f9 623e
00000170: 5b2d 20bf ab3e 283f 75de 85be 9c02 7d3e
00000180: 0111 e0be a88b 3b3f 4e43 24bf 102e d0be
00000190: 845c babe 75a5 f83c b4e4 fb3e 525f 3fbf
000001a0: a748 b1be aeab ddbf 00d0 c2bc eb22 6cbf
000001b0: bf71 4e3f 2481 233f ab5a 8c3e 354e 2ebe
000001c0: 08a0 6fbf 8310 fdbb 93fa d7be 4bdd eb3d
000001d0: c4c9 24bf f107 893e 3866 5abe fdc3 6fbf
000001e0: a20e 503e 6e39 313f e185 b0be 3040 3c3e
000001f0: 7e4a babe 7b9a 9f3f 96f4 603c 6f00 823e
00000200: a56d 943f 1d5c 17be da73 c33f 8646 673f
00000210: 6fab fbbf c144 25bf c058 ecbf 91fe 1e3f
00000220: 0c19 2d3e 7214 f13e 3c69 79be 77b5 76bd
00000230: fd08 5d3e 0fad 373f 6c2d 80bd cc86 6d3f
00000240: cf94 75be 10e9 203f 0885 46bd 86a5 a8be
00000250: d657 093f 70ec 603e aeba 8a3e 4382 da3e
00000260: ca76 f1be 6937 e03e 92e7 01bf 104c 123f
00000270: e2b2 5cbe d8a5 f23e 542b 37bf ac36 b43e
00000280: e892 cfbe 9134 573e 132d 163f ba00 fe3e
00000290: c65d 1ebf 3c92 eebe 8bfa 013f a6f3 0dbf
000002a0: d522 d13e 6136 40bf c304 373c 60df 323e
000002b0: 58c0 67bf 5dc5 d1be 65ab 7e3f 9e1c 30bf
000002c0: 7a91 c83e 3b9f 8ebe b5e2 80bd b4f8 1bbf
000002d0: 2ba8 e93e 6ae1 b03d b14a a93e 15e1 8a3d
000002e0: 36ad f3bf c0a3 bdbd 42e3 c13e 8d83 bbbe
000002f0: c923 2cbe 43ea 5cbf 4e85 79be e1f1 d33e
00000300: d68e d6be 009d 063e e38a 003f e8aa 17be
00000310: 3345 e63e ba6e 583e b7af 8abe 7bae 61bf
00000320: f2c3 5ebd 5613 523f 0f1e af3d 3a3a 7fbc
00000330: 3083 e2be 0191 00be ecde 5e3d 5167 40bf
00000340: 29c1 cd3e 829e 543f 9a5a 84bf 935f 87be
00000350: d452 c4bd 41c2 653e 59ac 543a 473e 3a3e
00000360: 0654 73bd db9b 5cbe 3753 46be 656b 83bf
00000370: 605f 77be 917f 15be bc79 a33e c33a 5a3d
00000380: 342e 8dbe 849d 6bbe 3f22 113e 9c9b e93d
00000390: c94c dc3e 9466 0cbe ce1e afbd c176 85bf
000003a0: d3da bcbd bc3e db3e 1b71 603e e2a2 67be
000003b0: 99b0 05bf 2a93 093d 83c6 21be a400 a73e
000003c0: 5193 fd3e 8917 4cbe a9e5 01bf def1 cd3f
000003d0: 1373 86bd 6ca3 65be 576e a33d 18da 77be
000003e0: 510c b83e 4a5d 7bbf a561 0a3f 369a 323f
000003f0: d1fa 17bf dfeb 75be 65cd 8abf 4158 6a3e

lstm.bias_ih_l0 f4 [80]
-0.39261878 -0.6390157 -0.23473348 -1.3916694 -0.5668859 -1.0453424 -0.51392806 0.29882511
-0.8749531 -0.45681438 -0.89891195 -0.27300775 -0.52328736 -0.93404144 -0.6974593 -0.18456121
-0.09986018 0.03409526 0.088585466 0.51385 -0.3326463 -0.796705 -0.8485627 0.8627624
-0.4760272 -0.9338331 -1.5299149 0.21808137 -0.16174386 0.4652304 -0.6244064 -0.611991
-0.051347136 0.37289643 -0.6731815 -0.43140954 -0.8135071 -0.53661484 -0.34133524 0.18294281
-0.09811359 -0.11493309 -0.1254392 0.49322554 -0.19820642 0.15649612 -0.25331277 1.3279041
0.054947335 0.08592161 0.017553067 0.12282024 -0.2627183 -0.08909874 -0.2927159 0.3184105
0.22760265 0.08652958 -0.2562436 1.08905 -0.96286774 -0.9624848 -0.6098496 0.20552707
-0.6066416 -0.17575534 -0.6694002 1.1855124 -0.8848563 0.14627197 -0.70480025 -0.7071659
-0.8680212 -0.41014254 -0.8710998 -1.2958995 -0.18903168 -1.0293981 -1.2511088 0.6196812
00000000: 5405 c9be 8896 23bf f95d 70be 3922 b2bf
00000010: 6f1f 11bf c8cd 85bf ca90 03bf 9bff 983e
00000020: edfc 5fbf 93e3 e9be 181f 66bf acc7 8bbe
00000030: 29f6 05bf 571d 6fbf b18c 32bf 9dfd 3cbe
00000040: 7e83 ccbd 79a7 0b3d 4c6c b53d ac8b 033f
00000050: 9e50 aabe dcf4 4bbf 683b 59bf ffdd 5c3f
00000060: d6b9 f3be b00f 6fbf 40d4 c3bf b950 5f3e
00000070: 2fa0 25be ae32 ee3e 19d9 1fbf 71ab 1cbf
00000080: 6051 52bd 48ec be3e 9f55 2cbf b6e1 dcbe
00000090: 0042 50bf 975f 09bf 7ec3 aebe 5c55 3b3e
000000a0: c7ef c8bd 0a62 ebbd 2273 00be 0f88 fc3e
000000b0: a0f6 4abe 8540 203e 36b2 81be c3f8 a93f
000000c0: 7510 613d abf7 af3d 73cb 8f3c 2e89 fb3d
000000d0: 0383 86be 6679 b6bd dcde 95be b306 a33e
000000e0: ab10 693e 6c36 b13d 5c32 83be fe65 8b3f
000000f0: 807e 76bf 6765 76bf 1a1f 1cbf b075 523e
00000100: dd4c 1bbf 35f9 33be d05d 2bbf dfbe 973f
00000110: f185 62bf 52c8 153e ca6d 34bf d308 35bf
00000120: a336 5ebf 34fe d1be 6600 5fbf 09e0 a5bf
00000130: 8591 41be 51c3 83bf 5524 a0bf 6da3 1e3f

lstm.bias_hh_l0 f4 [80]
-0.18565415 -0.5553784 -0.12265286 -1.0380148 -0.8056491 -0.75808454 -0.3227336 0.061909966
-1.0873725 -0.10515274 -0.8310141 -0.26661766 -0.43842983 -1.3410642 -0.8013319 -0.29563063
0.09929655 0.061356697 -0.044850197 0.5019621 2.5344615 2.2340243 2.0535436 3.6996956
2.7145543 2.081478 1.570603 3.3164241 2.9166732 3.314497 2.259717 2.1892076
2.763479 3.3754714 2.3693173 2.5045388 2.2741644 2.649316 2.549543 3.0021014
-0.086874135 0.047416393 -0.17527609 0.5113021 0.0137939425 -0.07036566 -0.3108375 1.1669685
-0.2719364 -0.18507946 -0.28377327 -0.07929735 -0.2995713 0.26178786 -0.49203342 0.42637408
0.21695913 -0.15496731 0.09930592 1.2194173 -0.6650094 -1.0245553 -0.6453615 -0.20354737
-0.81629074 -0.061181616 -0.5919349 1.2509365 -0.7165236 -0.05763632 -0.40501276 -0.59983206
-1.0274477 -0.5637206 -0.9161672 -1.2411855 0.03819503 -1.418632 -1.2982266 0.50758964
00000000: 1f1c 3ebe 472d 0ebf 6c31 fbbd abdd 84bf
00000010: 053f 4ebf d411 42bf 573d a5be 4e95 7d3d
00000020: 062f 8bbf 525a d7bd 57bd 54bf 1c82 88be
00000030: e079 e0be fea7 abbf 1624 4dbf e65c 97be
00000040: fd5b cb3d 2951 7b3d d7b4 37bd 9780 003f
00000050: 9e34 2240 41fa 0e40 426d 0340 d0c7 6c40
00000060: 42bb 2d40 f036 0540 8509 c93f 4b40 5440
00000070: c6aa 3a40 b820 5440 349f 1040 fa1b 0c40
00000080: d7dc 3040 b907 5840 e5a2 1740 5d4a 2040
00000090: e98b 1140 658e 2940 b62b 2340 6e22 4040
000000a0: 11eb b1bd b137 423d 937b 33be b2e4 023f
000000b0: fdff 613c df1b 90bd 1826 9fbe 395f 953f
000000c0: 3f3b 8bbe 7885 3dbe bb4a 91be a666 a2bd
000000d0: 6961 99be 0f09 863e ceeb fbbe b44d da3e
000000e0: 892a 5e3e c0af 1ebe e760 cb3d de15 9c3f
000000f0: 0e3e 2abf a124 83bf 6936 25bf b96e 50be
00000100: 6ef8 50bf 9399 7abd 0c89 17bf b01e a03f
00000110: 176e 37bf 1014 6cbd d55d cfbe 988e 19bf
00000120: 6883 83bf fe4f 10bf ef89 6abf 2bdf 9ebf
00000130: 6472 1c3d bc95 b5bf 4a2c a6bf 65f1 013f

head.net.0.weight f4 [1, 20]
1.5719888 2.0130126 -1.6819954 -0.0416358 -1.2221512 1.5378686 -2.0342462 -0.0027015926
0.63128203 0.03821456 1.7819011 1.0208089 -1.5757987 -0.24370901 -1.003388 2.0822053
0.32464665 2.342806 -1.9510349 -0.010080246
00000000: ee36 c93f 33d5 0040 a04b d7bf 4d8a 2abd
00000010: 736f 9cbf e1d8 c43f 1731 02c0 340d 31bb
00000020: b39b 213f df86 1c3d 5615 e43f dea9 823f
00000030: c6b3 c9bf db8e 79be 056f 80bf da42 0540
00000040: 1638 a63e 89f0 1540 83bb f9bf 9e27 25bc
