Project-Run/run_cudalstm_mcd_model/model_epoch027.pt (torch, 19526 bytes, 5 tensors)

lstm.weight_ih_l0 f4 [80, 33]
0	0xbde60af6	-0.112325594
1	0x3e0af8b7	0.1357144
2	0x3f3658ab	0.71229047
3	0x3e1f7299	0.1557106
4	0x3f97d3b2	1.1861479
5	0x3e2d1b31	0.16904904
6	0x3ead9014	0.33898985
7	0xbce441d2	-0.027863417
8	0x3f0aa4c7	0.5415768
9	0xbd6f3691	-0.058401648
10	0xbdd328ef	-0.10310542
11	0xbd40241e	-0.046909444
12	0xbd9c62fc	-0.07636067
13	0x3eb8e06d	0.36108723
14	0x3e20ac4e	0.15690729
15	0xbdde8853	-0.108658455
16	0x3cacc328	0.021089152
17	0x3f0ac160	0.54201317
18	0x3e40cc7a	0.18828002
19	0x3e5f69a8	0.21817648
20	0x3e971122	0.2950526
21	0xbf15cf82	-0.58519757
22	0x3c2e24ac	0.01062886
23	0x3e9bbfed	0.30419865
24	0xbf754742	-0.95811856
25	0x3821175d	3.840715e-05
26	0x3ef787ef	0.48345897
27	0xbe462042	-0.19348243
28	0xbd908f1c	-0.07058546
29	0x3ea0ea72	0.31428868
30	0x3d1652df	0.036700126
31	0x3e25ab7d	0.16178699
32	0xbd9be613	-0.076122425
33	0x3f34d1d6	0.70632684
34	0x3d43d27f	0.047808167
35	0xbe19ed40	-0.1503191
36	0x3e61501d	0.22003217
37	0x3f40c4eb	0.7530047
38	0xbef179a7	-0.47163126
39	0x3cf62532	0.030047033
40	0xbd2d772f	-0.04234999
41	0xbd152e34	-0.036421016
42	0x3d855c51	0.065117486
43	0x3d02946e	0.031879835
44	0x3e98519c	0.29749763
45	0xbeb9e870	-0.36310148
46	0x3f497203	0.78689593
47	0x3e836b69	0.25667885
48	0x3db0e661	0.08637691
49	0xbe15281e	-0.14566085
50	0x3ecf2d7f	0.40464398
51	0xbeda83b8	-0.42678618
52	0x3ef11903	0.47089395
53	0x3e4e194f	0.20126842
54	0x3e2ee546	0.17079648
55	0x3f13a12b	0.576678
56	0xbe1a9591	-0.15096118
57	0x3c1e009c	0.0096437
58	0x3d94d98b	0.072680555
59	0xbf1bad1c	-0.6081102
60	0x3eb5e9b3	0.3552986
61	0x3dd56891	0.10420335
62	0xbdd2e656	-0.10297839
63	0xbe69fbf5	-0.2285002
64	0xbdc839bb	-0.09776636
65	0x3f1bbc54	0.6083424
66	0xbe05dffb	-0.13073723
67	0xbe9221c2	-0.2854138
68	0x3efedb24	0.49776566
69	0xbe648827	-0.22317563
70	0x3f71b3f2	0.944152
71	0xbca7664b	-0.02043452
72	0x3e90248a	0.28152877
73	0xbef5fccc	-0.4804443
74	0x3f0f5284	0.55985284
75	0xbcaa5205	-0.020791063
76	0xbdafc386	-0.08582215
77	0xbd0bbf4a	-0.034117974
78	0xbd0569f6	-0.032571755
79	0xbecea78c	-0.40362203
80	0xbe350a1a	-0.17679635
81	0x3c68ed7a	0.014216775
82	0x3dcfb9b0	0.10142839
83	0xbec2d7cc	-0.38055265
84	0x3e7e35bb	0.24825184
85	0x3e6c7bf2	0.23094156
86	0x3e16ef74	0.14739782
87	0xbee2b5c3	-0.44279298
88	0x3f2f343e	0.6843909
89	0x3e3c18ab	0.18368785
90	0x3d1be151	0.038056675
91	0x3d5dc500	0.054142952
92	0x3dbca032	0.09210242
93	0x3de2fc57	0.11083286
94	0x3f4f797b	0.8104474
95	0xbe2573a2	-0.16157392
96	0xbc7b1309	-0.015324363
97	0xbe389b75	-0.18028052
98	0xbe313cfb	-0.17308418
99	0xbf510abf	-0.8165702
100	0x3eef2897	0.46710655
101	0x3f02d522	0.51106465
102	0xbce64a43	-0.028111583
103	0x3ee01766	0.43767852
104	0xbe78fae5	-0.24314459
105	0x3e2523f1	0.16126992
106	0x3e1ad8cd	0.15121765
107	0xbe7b6144	-0.24548823
108	0xbb519270	-0.0031978153
109	0x3f2edfa1	0.6830998
110	0xbe00a380	-0.1256237
111	0x3e966861	0.2937651
112	0x3eee14c3	0.46500215
113	0xbe29ae05	-0.1657029
114	0xbdbf0fa7	-0.09329157
115	0x3f6bad74	0.92061543
116	0xbea55ed8	-0.32298923
117	0x3e3cb9de	0.18430278
118	0xbf405de8	-0.7514329
119	0xbdedbe5b	-0.11608573
120	0x3e09931e	0.13435027
121	0xbe17c967	-0.14822923
122	0x3dd12e89	0.10213954
123	0xbeabe290	-0.3357129
124	0x3d668d44	0.056287065
125	0xbec7ea9a	-0.39046174
126	0xbe53be12	-0.20677975
127	0xbe7446d6	-0.23855147
128	0x3e81e9f8	0.25373816
129	0xbe74f132	-0.23920134
130	0x3e3a2785	0.18179138
131	0xbe1ad00a	-0.15118423
132	0xbd2b9bb5	-0.04189654
133	0x3ddb3551	0.10703529
134	0x3e955455	0.29165903
135	0xbe41d163	-0.18927531
136	0x3fae860d	1.3634659
137	0xbee3a7cb	-0.44463953
138	0xbe7ec1b0	-0.24878573
139	0xbe95ee51	-0.29283383
140	0x3d7366e4	0.059424296
141	0xbdf742a3	-0.12073257
142	0x3f0b6ff8	0.54467726
143	0x3e518071	0.20459153
144	0xbe9566fd	-0.29180136
145	0xbeadc581	-0.33939746
146	0xbecefcf8	-0.40427375
147	0xbf23e210	-0.6401682
148	0x3e568300	0.2094841
149	0x3e3ebd40	0.1862688
150	0xbf2d8395	-0.67778903
151	0xbe808e55	-0.2510859
152	0x3e7fb56a	0.24971548
153	0xbee8e812	-0.45489556
154	0xbd3abd73	-0.04559083
155	0xbdc9c011	-0.09851087
156	0xbd526645	-0.051367063
157	0x3edc7e26	0.43064994
158	0x3e1b145c	0.15144485
159	0xbe083275	-0.13300498
160	0x3f5ce28f	0.862832
161	0x3e0f42fe	0.13990399
162	0x3e90c91b	0.2827843
163	0xbe05d38e	-0.13068983
164	0xbd7c9cd2	-0.061672993
165	0x3d48c804	0.049018875
166	0xbd8aee6c	-0.067837566
167	0x3ebfb434	0.37442172
168	0xbe44d2e1	-0.19221069
169	0x3f78491f	0.96986574
170	0xbd81be12	-0.06335081
171	0x3d6c917a	0.057755925
172	0x3d14061c	0.03613864
173	0x3f6f6c64	0.93524766
174	0x3d0438b6	0.032280646
175	0x3d5bb337	0.05363771
176	0xbc4e1205	-0.012577538
177	0xbecad486	-0.39615268
178	0xbb59c56d	-0.0033229247
179	0xbe6302fc	-0.22169107
180	0x3d5ab414	0.053394392
181	0x3eb27dd9	0.3486164
182	0x3e7a3dad	0.2443759
183	0xbe7707cc	-0.24124068
184	0x3e38fdbe	0.18065545
185	0x3ecff336	0.40615243
186	0xbeaf7500	-0.3426895
187	0x3f4112c9	0.7541929
188	0x3e8482b5	0.25880972
189	0xbe29c1a5	-0.16577776
190	0x3d15a918	0.036538213
191	0xbde3987f	-0.11113071
192	0xbe3797d5	-0.17929013
193	0x3f2b0446	0.66803396
194	0xbd37bcec	-0.044857904
195	0xbd4793ec	-0.048725054
196	0xbd5075c6	-0.050893568
197	0x3e2512d1	0.16120459
198	0xbdda3658	-0.106548965
199	0x3ca86b64	0.02055902
200	0xbe003557	-0.12520348
201	0xbe3b0a90	-0.18265748
202	0xbec10312	-0.37697655
203	0x3eef64b6	0.46756524
204	0xbe96ba25	-0.29438892
205	0xbdf6b73b	-0.12046667
206	0xbea2413e	-0.316904
207	0xbe6864f3	-0.22694759
208	0x3eef97ac	0.46795404
209	0x3f140792	0.5782405
210	0x3e9a8e74	0.30186808
211	0xbf0c9997	-0.5492186
212	0xbe6e1980	-0.23251915
213	0xbe351d99	-0.17687072
214	0x3dd13f40	0.10217142
215	0x3ebdc948	0.37067628
216	0xbec230c5	-0.37927833
217	0xbe6262df	-0.22108029
218	0xbebf2285	-0.37331024
219	0x3d80edab	0.062953316
220	0xbefb747e	-0.49112314
221	0x3d20bfbb	0.03924535
222	0x3e745ba5	0.23863085
223	0x3ca66d54	0.020315804
224	0xbeee4ea1	-0.46544364
225	0x3e89739f	0.26846024
226	0x3d6a3dd7	0.05718788
227	0x3ecbb7c8	0.3978865
228	0xbe85132b	-0.25991186
229	0xbecc1434	-0.39859164
230	0xbce3c8aa	-0.027805645
231	0xbf88a808	-1.0676279
232	0x3eedde63	0.4645873
233	0xbe66322e	-0.2248008
234	0x3e8ecbbf	0.2788982
235	0x3e7bcd91	0.24590136
236	0x3de7b8de	0.113145575
237	0xbeaeecf4	-0.34165156
238	0xbea3c245	-0.31984153
239	0x3ee1cb6d	0.44100514
240	0x3ebf4568	0.3735764
241	0xbec70163	-0.38868245
242	0x3ed3d59b	0.41373906
243	0xbf44a00e	-0.76806724
244	0x3ed2ca15	0.411698
245	0x3ec4e533	0.38456115
246	0x3ea44d5b	0.32090268
247	0xbe1b1ceb	-0.1514775
248	0x3ef3e679	0.47636774
249	0xbe5caf56	-0.2155126
250	0x3ee9a498	0.45633388
251	0x3f28fc93	0.660104
252	0x3ebbf98e	0.36713833
253	0x3ec5edf9	0.3865812
254	0x3ef17d6b	0.47166
255	0xbeeb0d8d	-0.45908776

lstm.weight_hh_l0 f4 [80, 20]
0	0xc01d070b	-2.4535549
1	0xbe3665c2	-0.17812255
2	0x3f06443b	0.5244786
3	0x3dbc7fe2	0.09204079
4	0x3e461691	0.19344546
5	0xbf00492b	-0.50111645
6	0xbe3e3eeb	-0.18578689
7	0x3e94fba1	0.29098228
8	0x3ebb6034	0.36596835
9	0xbc994a2c	-0.018712126
10	0xbeef7190	-0.4676633
11	0xbe0e37d1	-0.1388848
12	0x3f97e2c6	1.1866081
13	0x3e9d0c02	0.30673224
14	0xbeab05d5	-0.33402887
15	0x3e2f183e	0.17099091
16	0x3daba28b	0.08380612
17	0x3d87b1eb	0.06625732
18	0x3f0b4a32	0.5441009
19	0x3f01418f	0.5049066
20	0xbe8c9e08	-0.27464318
21	0xbf342d8d	-0.70382005
22	0xbd9e0d43	-0.07717373
23	0xbf094546	-0.5362133
24	0xbd7da1c5	-0.061921854
25	0x3f2a0df3	0.66427535
26	0x3dadfe94	0.084958225
27	0xbb8ab4f5	-0.0042329975
28	0x3ea141a2	0.31495386
29	0xbeb47805	-0.35247818
30	0x3bc852d0	0.0061133876
31	0x3e0b4d3c	0.13603681
32	0x3f0fcf64	0.5617583
33	0x3ec852d3	0.3912569
34	0xbf4d6aff	-0.8024139
35	0xbd802c67	-0.06258469
36	0xbe2609eb	-0.16214721
37	0xbe954abe	-0.29158586
38	0x3eb64e2a	0.3560651
39	0xbf1b8bd2	-0.60760224
40	0xbda35ade	-0.07976316
41	0xbe568e78	-0.20952785
42	0x40176b8d	2.3659394
43	0xbe8be4dc	-0.27323043
44	0x3e7f38dc	0.24924034
45	0xbe3d054e	-0.18459055
46	0xbe27aed6	-0.16375288
47	0xbf3b544f	-0.7317552
48	0x3f0d00b1	0.5507918
49	0x3ee08006	0.43847674
50	0xbec5b4db	-0.38614544
51	0xbecc9148	-0.3995459
52	0xbeb14084	-0.34619534
53	0xbecd7a17	-0.4013221
54	0xbf661e2f	-0.89889807
55	0x3eafca15	0.34333864
56	0xbf0800a9	-0.5312601
57	0x3e0742a4	0.13209015
58	0xbe8e5265	-0.27797237
59	0xbf9fb363	-1.247662
60	0x3e2945d1	0.16530539
61	0x3f42084a	0.757939
62	0x3f5ae195	0.8550046
63	0xbf7914b0	-0.9729719
64	0xc00445f6	-2.06677
65	0x3f30c803	0.69055194
66	0xbf1ed1da	-0.6203896
67	0xbf85afad	-1.0444237
68	0xbf417bef	-0.7557973
69	0xbe57a074	-0.21057302
70	0x3fa2bf1f	1.2714576
71	0xbfcbab04	-1.5911565
72	0xbfdf095f	-1.7424735
73	0x3eb042c5	0.3442594
74	0x3f83f989	1.0310527
75	0xbe26a8e2	-0.16275361
76	0x3d9fcb7b	0.07802483
77	0x3f6bc59f	0.9209842
78	0xbf100f1e	-0.56273067
79	0xbe280eb5	-0.1641186
80	0x3c9a18c0	0.01881063
81	0x3f232784	0.6373217
82	0x3e101fee	0.1407468
83	0xbf620649	-0.8829084
84	0x3e2ddbca	0.16978374
85	0xbeabc900	-0.33551788
86	0x3d76e01a	0.060272314
87	0xbeef15e9	-0.46696404
88	0x3e28f9e7	0.1650158
89	0x3ef078ef	0.46967265
90	0xbea1c294	-0.31593764
91	0x3e7ad47f	0.24495123
92	0xbe9d796c	-0.307567
93	0x3f26cef9	0.65159565
94	0xbedc7b83	-0.43062982
95	0x3de570fb	0.1120319
96	0xbef87c73	-0.48532447
97	0x3eb04275	0.34425703
98	0xbf4a7fa9	-0.79101044
99	0xbf1ae0ad	-0.6049908
100	0xbeb81ccc	-0.3595947
101	0xbe264934	-0.16238862
102	0x3ee79138	0.4522798
103	0xbf2be31f	-0.67143434
104	0xbec824db	-0.39090618
105	0xc00b17a9	-2.173319
106	0x3da988e8	0.08278066
107	0xbf72b849	-0.94812447
108	0x3f6ccb24	0.9249747
109	0x3f34d216	0.70633066
110	0x3e34b99c	0.1764893
111	0x3c464781	0.012102009
112	0xbf466bf4	-0.77508473
113	0xbe5265b7	-0.20546614
114	0xbee2cf1f	-0.44298646
115	0x3df5e681	0.12006856
116	0xbed914c6	-0.4239866
117	0x3e07994b	0.1324207
118	0xbe112cc3	-0.14177231
119	0xbf740c04	-0.95330834
120	0x3e6cb1bb	0.23114674
121	0x3f641741	0.8909798
122	0xbf0376dd	-0.51353246
123	0x3e8ddf95	0.27709642
124	0xbed824a1	-0.42215446
125	0x3fcc37a7	1.5954484
126	0x3ddcac5a	0.10775061
127	0x3ea16b76	0.315273
128	0x3f8f3781	1.1188813
129	0xbe5f96f1	-0.21834923
130	0x3fb2f266	1.3980224
131	0x3f9f2920	1.2434425
132	0xc03b5c2b	-2.9275005
133	0xbef8b843	-0.4857808
134	0xc003e7b5	-2.0610173
135	0x3f3e10b7	0.74244255
136	0x3e13068d	0.14357968
137	0x3eea4f1e	0.45763487
138	0xbe697c7f	-0.22801398
139	0x3e9eb7e0	0.3099966
140	0xbe332e84	-0.17498213
141	0x3f58f39c	0.8474672
142	0xbe57e420	-0.21083117
143	0x3f8b0cf3	1.0863327
144	0xbec340d2	-0.3813539
145	0x3f358e7b	0.7092053
146	0x3e1145f8	0.14186847
147	0xbeff79a8	-0.49897504
148	0x3f0f0a95	0.5587552
149	0x3e447d9b	0.1918854
150	0x3f1dfa3b	0.61709946
151	0x3f2279f6	0.6346735
152	0xbf1f37ba	-0.62194407
153	0x3f0b5162	0.54421055
154	0xbf798206	-0.97464025
155	0x3f56dd49	0.83931404
156	0xbed80e61	-0.4219847
157	0x3f3eb611	0.7449656
158	0xbf79fb32	-0.9764892
159	0x3f4f353f	0.8094062
160	0xbf036468	-0.5132508
161	0x3de4de1c	0.111751765
162	0x3f6641b1	0.8994399
163	0x3f462866	0.77405393
164	0xbf3beb5d	-0.7340601
165	0xbf0db7b2	-0.5535842
166	0x3f3de3fc	0.74176
167	0xbf0c34d5	-0.54768115
168	0x3edc8cd8	0.43076205
169	0xbf2d12fa	-0.6760708
170	0xbc1fb48b	-0.009747635
171	0x3e5be6ed	0.2147481
172	0xbf941bf7	-1.1571034
173	0xbf1c08eb	-0.6095111
174	0x3fc26678	1.5187521
175	0xbf67216f	-0.9028539
176	0x3f1e0ce4	0.6173842
177	0xbe3ec4f6	-0.18629822
178	0xbe489b7c	-0.19590563
179	0xbf19da94	-0.6009915
180	0x3e92733a	0.28603536
181	0xbeafbc28	-0.3432324
182	0x3f2c90ca	0.6740843
183	0x3e203457	0.15644966
184	0xc00b7f28	-2.179636
185	0xbe4ebe9c	-0.20189899
186	0x3ef300bc	0.47461498
187	0xbe8a5f0a	-0.27025634
188	0xbe21e60d	-0.15810414
189	0xbf513755	-0.81725055
190	0xbe6c1a34	-0.2305687
191	0x3e9fcbcb	0.3121017
192	0xbf2394d4	-0.6389897
193	0x3eed1a9d	0.46309367
194	0x3ed71338	0.4200685
195	0xbe25ef38	-0.16204536
196	0x3e5666a7	0.20937596
197	0x3baf7dbd	0.0053555653
198	0xbede1042	-0.4337178
199	0xbf832897	-1.0246762
200	0xbd818f52	-0.06326164
201	0x3f6a5c83	0.9154741
202	0x3eac3dbd	0.33640853
203	0xbd46e243	-0.048555624
204	0xbe8b5aed	-0.27217808
205	0xbea254e8	-0.31705403
206	0x3e40bedd	0.18822809
207	0xbf6fe9c2	-0.9371606
208	0x3efcec75	0.49399152
209	0x3f88904d	1.0669037
210	0xbfb82454	-1.4386086
211	0xbe60b567	-0.219442
212	0xbb5c549f	-0.0033619774
213	0x3e14e356	0.14539847
214	0xbddf4c07	-0.10903173
215	0x3e049164	0.12946087
216	0xbe873e94	-0.2641493
217	0xbdf0f42b	-0.11765321
218	0xbd7f6fd0	-0.062362492
219	0xbfaded2a	-1.3588002
220	0xbe26853b	-0.16261761
221	0x3c3a7bbd	0.011382041
222	0x3e8faa63	0.28059682
223	0x3e2acf03	0.16680531
224	0xbed41ba2	-0.41427332
225	0xbe2966d9	-0.1654314
226	0x3d13ec37	0.036113944
227	0x3ebfd010	0.37463427
228	0x3f45d429	0.77276856
229	0xbed9f1ac	-0.42567194
230	0xbe4dadce	-0.20085832
231	0xbfa91798	-1.3210325
232	0x3e1d26c3	0.15346818
233	0x3eb8ed55	0.3611857
234	0x3db346aa	0.087537125
235	0xbe6999e9	-0.22812618
236	0xbe7c7eca	-0.24657741
237	0x3e1ce330	0.1532104
238	0xbe5affa8	-0.21386588
239	0x3eb613e4	0.3556205
240	0x3f1fe94a	0.62465346
241	0xbf3ee06b	-0.74561185
242	0xbf1f6b07	-0.62272686
243	0x3fe4b03f	1.7866286
244	0x3cca9b03	0.024732118
245	0xbd845ec2	-0.06463386
246	0xbd8c89a1	-0.06862188
247	0xbe018e33	-0.12651901
248	0x3f058b82	0.52166
249	0xbf9e09e0	-1.2346764
250	0x3f1ef07e	0.6208571
251	0x3f8f17e4	1.1179166
252	0x3e65f880	0.22458076
253	0xbf4361d1	-0.7632113
254	0xbf943fe9	-1.1582004
255	0x3e242a84	0.16031843

lstm.bias_ih_l0 f4 [80]
0	0xbec32453	-0.3811365
1	0xbf32a157	-0.69777435
2	0xbe8019fc	-0.25019825
3	0xbfc91cdb	-1.5711931
4	0xbf1e8885	-0.6192706
5	0xbf8cb78e	-1.0993516
6	0xbf0d16f1	-0.5511313
7	0x3edea7cb	0.4348739
8	0xbf752d26	-0.95772016
9	0xbf085142	-0.5324899
10	0xbf830a42	-1.0237505
11	0xbb8348c8	-0.004006479
12	0xbee08b94	-0.4385649
13	0xbf8784b8	-1.0587378
14	0xbf59f3cf	-0.8513765
15	0xbe63c2af	-0.22242235
16	0xbe0094a4	-0.12556702
17	0x3c6b078a	0.014345059
18	0x3c3e6c5c	0.011622515
19	0x3f19fd67	0.60152286
20	0xbf17ca82	-0.5929338
21	0xbf6bb456	-0.92072046
22	0xbf992349	-1.1963893
23	0x3f632a13	0.88736075
24	0xbed8af28	-0.42321134
25	0xbf8ab73f	-1.0837172
26	0xbfdde590	-1.7335682
27	0x3e9909f7	0.29890415
28	0xbe42e549	-0.19032778
29	0x3f011b01	0.5043183
30	0xbf48a2c6	-0.7837337
31	0xbf62bdce	-0.8857087
32	0xbc9dcf5b	-0.019263914
33	0x3ed9258d	0.4241146
34	0xbf4ab667	-0.79184574
35	0xbee167c0	-0.44024467
36	0xbf6fc9de	-0.936674
37	0xbf41f592	-0.75765336
38	0xbf0d3876	-0.5516428
39	0x3dfc797b	0.12327858
40	0x3d9058e7	0.07048207
41	0xbd966fac	-0.073455185
42	0xbdef491d	-0.11683867
43	0x3f1577cb	0.58385915
44	0xbe340bfb	-0.17582695
45	0x3e0c5fea	0.13708463
46	0xbeb2002e	-0.34765762
47	0x3fbe740b	1.4879164
48	0x3d92d1cf	0.07168924
49	0x3e010409	0.12599196
50	0x3da8a185	0.082339324
51	0x3e30eea4	0.17278534
52	0xbe96af95	-0.29430833
53	0xbe106d20	-0.14104128
54	0xbefbb6f5	-0.49163023
55	0x3eab34f5	0.3343884
56	0x3e9bc4a9	0.30423477
57	0x3e000a6a	0.12503973
58	0xbeabf361	-0.3358412
59	0x3fb17801	1.3864747
60	0xbf7c8d81	-0.9865342
61	0xbf6ceff2	-0.9255363
62	0xbf2fa86b	-0.6861636
63	0x3e4b93fe	0.19880673
64	0xbf30b962	-0.6903287
65	0xbe22fcf8	-0.15916812
66	0xbf3d8aa7	-0.7403969
67	0x3facb390	1.3492298
68	0xbf6dbee1	-0.92869383
69	0x3e03b73e	0.1286287
70	0xbf23a2fc	-0.6392057
71	0xbf4a7f9d	-0.7910097
72	0xbf647c43	-0.8925211
73	0xbefc67dc	-0.49297988
74	0xbf67a24a	-0.9048201
75	0xbfb1ba6a	-1.3885014
76	0xbe8331d6	-0.2562396
77	0xbf893da1	-1.0721933
78	0xbfa7a234	-1.3096375
79	0x3f3cf3d9	0.7380958

lstm.bias_hh_l0 f4 [80]
0	0xbe325a43	-0.17417245
1	0xbf1d380e	-0.6141366
2	0xbe0d6eab	-0.13811748
3	0xbf9bd84d	-1.2175385
4	0xbf5ba81b	-0.85803384
5	0xbf4fe549	-0.81209236
6	0xbeb84923	-0.359933
7	0x3e4ab5dd	0.19795938
8	0xbf95c752	-1.1701453
9	0xbe392c1d	-0.18083234
10	0xbf74b2b6	-0.9558519
11	0x3b1c32ba	0.0023833946
12	0xbeb5190f	-0.3537068
13	0xbfbb9dee	-1.4657571
14	0xbf748b34	-0.9552491
15	0xbeaabf7c	-0.33349216
16	0x3d96b5f5	0.07358924
17	0x3d2a6b94	0.0416065
18	0xbdf97956	-0.12181346
19	0x3f16f248	0.5896344
20	0x40118c36	2.2741828
21	0x40070a14	2.1099901
22	0x3fda54bf	1.7057112
23	0x406e5b04	3.7243052
24	0x40311c94	2.7673693
25	0x3ff73ecd	1.931604
26	0x3faef835	1.3669497
27	0x40596c8d	3.3972504
28	0x4038d679	2.8880904
29	0x4056a10a	3.353579
30	0x40066ccd	2.1003907
31	0x3ff52e8b	1.9154829
32	0x4032ea53	2.795552
33	0x405b4eb2	3.4266782
34	0x40100aca	2.2506585
35	0x401fb99b	2.4957035
36	0x4009aa03	2.1510017
37	0x401b68c8	2.4282703
38	0x4015b5ed	2.3392289
39	0x403c50dd	2.9424355
40	0x3da75d9e	0.08172153
41	0x3db60e3c	0.08889434
42	0xbe2aaccf	-0.16667484
43	0x3f1a1865	0.60193473
44	0x3d142abb	0.036173563
45	0xbdb7dd15	-0.08977715
46	0xbecf7411	-0.4051824
47	0x3fa9da81	1.3269807
48	0xbe82a8f7	-0.25519535
49	0xbe147d85	-0.14501007
50	0xbe603e71	-0.2189882
51	0xbcf04ae3	-0.029332584
52	0xbea98e04	-0.33116162
53	0x3e56e1ae	0.20984527
54	0xbf30e246	-0.69095266
55	0x3ee27bfd	0.4423522
56	0x3e9651a3	0.2935916
57	0xbdee81cd	-0.11645851
58	0x3ca1759f	0.019709406
59	0x3fc227e1	1.516842
60	0xbf304d0f	-0.6886758
61	0xbf7cd3f2	-0.987609
62	0xbf38bfba	-0.7216755
63	0xbe57506b	-0.21026771
64	0xbf6664f3	-0.89997786
65	0xbd36a853	-0.04459412
66	0xbf29b5e3	-0.6629316
67	0x3fb51361	1.4146539
68	0xbf42a707	-0.76036114
69	0xbd9a2c4b	-0.075279795
70	0xbeadc8d6	-0.33942288
71	0xbf2f0562	-0.6836759
72	0xbf86a5c2	-1.0519335
73	0xbf2584ae	-0.6465558
74	0xbf732bd3	-0.94988745
75	0xbfaab98c	-1.3337874
76	0xbcedad3c	-0.029013269
77	0xbfbb1007	-1.4614266
78	0xbfadaa29	-1.3567554
79	0x3f2041d2	0.62600434

head.net.0.weight f4 [1, 20]
0	0x3fd13a74	1.6345963
1	0x400ef261	2.2335436
2	0xbfd81c2f	-1.6883601
3	0xbd2862c1	-0.041109804
4	0xbfaa8e5a	-1.3324692
5	0x3fd17e03	1.6366581
6	0xc000a56e	-2.010097
7	0xba9c7afd	-0.0011938509
8	0x3f170ea7	0.5900673
9	0x3d52618b	0.051362555
10	0x4005dc9a	2.0915895
11	0x3fa7dcd0	1.3114262
12	0xbfe42b0e	-1.7825639
13	0xbe6c6696	-0.23086008
14	0xbf6f7cf0	-0.93550014
15	0x4015ac17	2.3386285
16	0x3e9a829b	0.3017777
17	0x402930cd	2.6436036
18	0xc0088e2c	-2.1336775
19	0xbcd59d22	-0.026075903
