Project-Run/run_cudalstm_mcd_model/model_epoch001.pt (torch, 19526 bytes, 5 tensors)

lstm.weight_ih_l0 f4 [80, 33]
0	0x3caba9e1	0.020955028
1	0xbc2c99f3	-0.010534751
2	0x3e9da20e	0.307877
3	0xbdb8775a	-0.090071395
4	0x3e10c852	0.14138916
5	0x3e54bab0	0.2077434
6	0x3d4cbcc8	0.049984723
7	0x3eff8b31	0.49910882
8	0x3e7b8311	0.24561717
9	0x3e305f36	0.1722382
10	0xbdb56d4b	-0.088587366
11	0x3c87d6c9	0.01658191
12	0xbcc974e3	-0.024591869
13	0x3d308f99	0.043105695
14	0x3da7957d	0.081828095
15	0x3e3d2a55	0.1847318
16	0xbe457cb3	-0.1928585
17	0x3dc30eac	0.09524283
18	0x3e304c26	0.17216548
19	0xbe2e717a	-0.17035475
20	0xbd18b16b	-0.037278574
21	0xbeb6b518	-0.3568504
22	0x3e00d64d	0.1258175
23	0x3e67c88a	0.22635093
24	0xbec5e758	-0.38653064
25	0x3d16cd85	0.036817092
26	0x3e8b081c	0.27154624
27	0xbe2402d6	-0.16016707
28	0x3c352bb2	0.011057781
29	0x3e3add97	0.18248592
30	0x3d9a09c5	0.07521395
31	0x3df24926	0.11830358
32	0x3df61d98	0.12017363
33	0x3e31c2b3	0.17359428
34	0x3e60089b	0.21878283
35	0xbd0792df	-0.03309905
36	0xbe81a03f	-0.2531757
37	0x3e40d4b7	0.18831144
38	0x3c3f2f1e	0.011668948
39	0x3e7b5d2b	0.2454726
40	0xbdd085aa	-0.101817444
41	0x3df9d4e0	0.12198806
42	0x3db31c6f	0.08745658
43	0x3c85e0bd	0.016342515
44	0xbd0acb7e	-0.03388547
45	0xbdd55035	-0.10415689
46	0x3d98e1ab	0.07464918
47	0xbd800157	-0.062502556
48	0x3ddeaa9f	0.10872387
49	0xbdcda4c7	-0.100411944
50	0xbe436313	-0.19080763
51	0xbe5fb646	-0.21846876
52	0x3d3a05e8	0.04541579
53	0xbe2ee762	-0.17080453
54	0xbd4134b8	-0.047169417
55	0x3e61358a	0.2199308
56	0xbcb339d8	-0.021878168
57	0x3ca9804d	0.020691061
58	0x3e725e23	0.23668723
59	0xbee50bc6	-0.44735545
60	0xbd2589a5	-0.04041447
61	0xb97cc347	-0.00024105339
62	0xbe5acafc	-0.21366495
63	0xbe9fb030	-0.31189108
64	0x3e1ac0a0	0.15112543
65	0x3e7be72f	0.24599908
66	0x3e7ce285	0.24695785
67	0xbd8fcc1f	-0.07021355
68	0x3ea8d96e	0.32978386
69	0x3d2947bf	0.041328188
70	0x3d93fa15	0.07225434
71	0xbdb00a57	-0.08595722
72	0x3e082a90	0.13297486
73	0xbd14a4ad	-0.03628986
74	0x3e7ec336	0.24879155
75	0x3dc35207	0.0953713
76	0xbe8cb080	-0.2747841
77	0x3e71f0ee	0.23627064
78	0xbe385a87	-0.18003283
79	0x3ded7b95	0.11595837
80	0x3db183d3	0.086677216
81	0x3e835b1e	0.25655454
82	0xbed09003	-0.40734872
83	0xbdf8f383	-0.12155821
84	0x3ea4ced2	0.3218904
85	0xbe37fcb9	-0.179675
86	0xbe5cfddc	-0.21581215
87	0xbe4b324f	-0.1984341
88	0x3e902e1e	0.28160185
89	0x3d88b01e	0.06674217
90	0xbe8d59d0	-0.27607584
91	0x3dc0b42b	0.09409364
92	0x3dd6b3da	0.10483523
93	0xbe0074ec	-0.12544602
94	0x3e61fc93	0.22069006
95	0x3e1c6484	0.15272719
96	0x3d0a4bb7	0.033763614
97	0x3e10a118	0.14123952
98	0xbe3eddd7	-0.18639313
99	0x3deddf8d	0.116149046
100	0x3ecb797e	0.3974113
101	0x3e8040bc	0.25049388
102	0xbe0fa1fb	-0.14026634
103	0x3e938312	0.28810936
104	0x3e6ea0fb	0.23303597
105	0x3ece3015	0.4027106
106	0x3ca83ab2	0.0205358
107	0x3cedbd8c	0.029021047
108	0x3da5ad96	0.080897495
109	0x3eb57cb0	0.35446692
110	0xbd54adf6	-0.051923715
111	0x3cbc9f38	0.02302514
112	0xbdee53a3	-0.11637046
113	0xbec75480	-0.38931656
114	0xbe1b7377	-0.15180765
115	0x3eac3232	0.33632046
116	0x3e6584d4	0.22413951
117	0x3ce063d5	0.027391354
118	0x3d1848e5	0.037178893
119	0x3c28360c	0.010266792
120	0x3e74c3cc	0.23902816
121	0x3e24ed5e	0.16106173
122	0x3e7a727b	0.24457733
123	0x3cf0177a	0.02930807
124	0xbc93c368	-0.018037513
125	0x3e8cc670	0.27495146
126	0x3e6df7f2	0.23239115
127	0xb99c60b3	-0.00029826685
128	0x3dce71b4	0.10080281
129	0x3dab2c1a	0.08358021
130	0xbe987cad	-0.2978262
131	0xbdee56d7	-0.11637657
132	0xbde5a6e7	-0.11213475
133	0x3e4575a1	0.19283153
134	0x3df550cf	0.11978304
135	0xbeee63f4	-0.46560633
136	0x3ebe9989	0.37226513
137	0xbdb7588a	-0.08952434
138	0xbdfd21c3	-0.12359955
139	0xbe24ce61	-0.16094352
140	0xbe0ecc85	-0.13945206
141	0xbe20586a	-0.15658727
142	0x3e431bee	0.19053623
143	0x3d09416e	0.033509664
144	0x3a3d5f07	0.0007223938
145	0xbe7b78a8	-0.24557745
146	0xbe6e86a3	-0.23293547
147	0x3c15daec	0.009146433
148	0x3b9a35ab	0.0047061048
149	0x3e6de7ae	0.2323291
150	0xbea93f0c	-0.33055913
151	0xbe69dd06	-0.2283822
152	0xbe28254c	-0.16420478
153	0xbde1b894	-0.110215336
154	0xbe87631f	-0.2644281
155	0xbe4bf141	-0.1991625
156	0x3b29b1ae	0.002589326
157	0x3e3e7a11	0.18601252
158	0xbe23d796	-0.16000208
159	0xbe4e708e	-0.20160124
160	0x3e443ecb	0.19164579
161	0xbe0e0ee0	-0.13872862
162	0x3da27e9b	0.07934304
163	0x3e3d9c2f	0.1851661
164	0x3dd125ad	0.10212264
165	0x3e22bde6	0.15892753
166	0x3e5164aa	0.20448557
167	0x3e6e2b5b	0.23258726
168	0x3dd91e11	0.10601438
169	0x3ef46846	0.47735804
170	0x3e8c62ca	0.2741912
171	0xbc8d1b7d	-0.017225021
172	0x3e05685d	0.13028093
173	0x3ea803fd	0.32815543
174	0x3b26d1b7	0.002545459
175	0xbd813a5e	-0.06309961
176	0x3dc838dd	0.09776471
177	0xbeb98a40	-0.3623829
178	0xbc90ac9c	-0.017660432
179	0xbd57f784	-0.052726284
180	0xbe318aac	-0.17338055
181	0x3db49e1a	0.08819218
182	0x3dc377a3	0.09544303
183	0xbd072bc4	-0.033000723
184	0xbe09fa29	-0.13474335
185	0x3e7fae0c	0.24968737
186	0x3d9dfca9	0.07714207
187	0x3ec5baa2	0.38618952
188	0xbdc73283	-0.09726431
189	0xbd992c17	-0.074791126
190	0x3d8f2929	0.069902726
191	0xbe34d36c	-0.17658776
192	0xbe3db1a2	-0.18524793
193	0x3e5789d9	0.21048678
194	0xbd74c444	-0.059757486
195	0xbe1603bd	-0.14649864
196	0xbe6834d2	-0.226764
197	0x3d4ecc8a	0.050488032
198	0x3db4d111	0.08828939
199	0xbbcd446e	-0.006264261
200	0x3d61d7dc	0.0551375
201	0x3d81ef59	0.0634448
202	0x3da889c3	0.08229401
203	0x3d8a21c0	0.067447186
204	0xbcd0e43c	-0.025499456
205	0xbe24007d	-0.16015811
206	0xbdce6f68	-0.10079843
207	0xbe2278c3	-0.1586638
208	0x3e45da04	0.19321448
209	0x3e496f75	0.19671424
210	0x3d9670f8	0.07345766
211	0xbe074d87	-0.13213168
212	0xbdb061a6	-0.08612375
213	0xbe12712a	-0.14300981
214	0x3cf9e369	0.030503945
215	0x3edb7373	0.42861518
216	0xbe6f6cf7	-0.2338141
217	0xbdcd10b1	-0.10012949
218	0xbdbd7c1e	-0.09252189
219	0xbcf87a19	-0.030331658
220	0x3c4e87ca	0.012605617
221	0x3d389509	0.045064006
222	0xbd9090b5	-0.07058851
223	0x3c25306a	0.010082344
224	0xbeb62fda	-0.35583383
225	0x3e95d233	0.29261932
226	0xbd142914	-0.036171988
227	0x3e51ae94	0.20476753
228	0xbddcb7c7	-0.1077724
229	0xbeba63be	-0.36404222
230	0xb9f94dff	-0.00047551093
231	0xbe18f69c	-0.14937824
232	0xbe32f467	-0.17476045
233	0xbe7c4cff	-0.24638747
234	0x3eab24d4	0.33426535
235	0x3db53259	0.08847494
236	0xbe667eda	-0.22509328
237	0xbe44ffcf	-0.19238208
238	0xbe42dce9	-0.19029583
239	0x3e394eef	0.18096517
240	0x3dcaa870	0.09895408
241	0xbd188695	-0.037237722
242	0x3e357594	0.17720634
243	0xbe6acc50	-0.22929502
244	0x3db7e843	0.08979847
245	0xbdb6b510	-0.08921254
246	0x3dc921c8	0.098208964
247	0x3c5645c0	0.013078153
248	0x3e2a209e	0.16614005
249	0xbe836d2c	-0.2566923
250	0x3f01d91d	0.50721914
251	0x3eb8da5c	0.36104095
252	0x3d8b57ce	0.06803857
253	0x3de8d07b	0.113678895
254	0xbe0d9ba8	-0.1382891
255	0xbddceaa2	-0.1078694

lstm.weight_hh_l0 f4 [80, 20]
0	0xbf0384ba	-0.513744
1	0xbe8cea3a	-0.2752245
2	0x3e7b2493	0.2452567
3	0xbe2e5185	-0.17023285
4	0xbe946d69	-0.28989723
5	0xbd8183b9	-0.06323952
6	0xbe5731e4	-0.21015126
7	0xbe1944a5	-0.14967592
8	0x3e63ecc4	0.22258288
9	0x3c1b95e6	0.009496188
10	0x3e1aaa9c	0.15104145
11	0x3dc878db	0.09788676
12	0x3e4ade9c	0.19811481
13	0x3e72d499	0.23713912
14	0xbd1c8892	-0.03821618
15	0xbce3dc79	-0.02781509
16	0x3d8dfede	0.06933378
17	0xbdaa832c	-0.083258
18	0x3e257833	0.16159134
19	0x3d43e631	0.04782695
20	0x3bec68f8	0.0072146617
21	0x3d183fd8	0.03717026
22	0xbd42711b	-0.047471147
23	0xbc42fb05	-0.011900668
24	0xbe2c78fe	-0.1684303
25	0x3d9264c0	0.07148123
26	0xbd4026dd	-0.046912063
27	0xbcd3bb2e	-0.02584609
28	0x3cfc5ef3	0.030806994
29	0xbe00b4bb	-0.12568943
30	0x3ddfb27e	0.109227166
31	0x3d2ea11a	0.042634107
32	0x3d8386dc	0.06422207
33	0x3eb57db2	0.3544746
34	0xbe9217a6	-0.28533667
35	0xbe8372c7	-0.25673506
36	0x3cde212e	0.02711543
37	0xbe52ed22	-0.20598271
38	0x3e202964	0.1564079
39	0xbe975a0d	-0.2956089
40	0x3ced5e2d	0.02897557
41	0x3dc4e48e	0.09613906
42	0x3e8bf90f	0.27338454
43	0xbef4115f	-0.47669503
44	0xbdbfb6e7	-0.09361058
45	0xbdfd3a50	-0.12364638
46	0xbe2ac05d	-0.16674943
47	0xbee6ef67	-0.45104524
48	0x3e459ff2	0.19299296
49	0x3e3728b7	0.17886625
50	0xbc89ce1e	-0.016821917
51	0x3e2664ef	0.1624944
52	0x3d4075ae	0.046987228
53	0xbf1041f7	-0.56350654
54	0xbeb8175a	-0.35955316
55	0x3dec5e2c	0.11541399
56	0xbe59ec66	-0.21281585
57	0x3e3e6f62	0.18597177
58	0xbe5c1055	-0.21490605
59	0xbdb28afe	-0.08717917
60	0xbbbf2d8e	-0.005834288
61	0x3ed8ea32	0.42366177
62	0x3e7f0b61	0.24906684
63	0x3df1b72c	0.118025154
64	0xbef883e3	-0.48538122
65	0x3e5e81c7	0.21729194
66	0xbdacb6ac	-0.084332794
67	0xbeebd9b3	-0.4606453
68	0xbe11fb56	-0.14256033
69	0xbde3a1a7	-0.11114817
70	0x3d8d1ac9	0.068898745
71	0x3e386f8a	0.18011299
72	0x3e4ed610	0.20198846
73	0xbde5b6f4	-0.11216536
74	0xbe7699c6	-0.24082097
75	0xbe73df58	-0.23815668
76	0xbe6968b8	-0.22793853
77	0xbbea9c72	-0.007159763
78	0xbe3d3d14	-0.1848033
79	0xbea19682	-0.3156014
80	0x3e01e5f8	0.12685382
81	0x3e00c917	0.1257671
82	0xbb164fc5	-0.002293573
83	0x3e0a4d77	0.13506113
84	0xbe19e52c	-0.15028828
85	0xbeb14dc0	-0.3462963
86	0x3ef1c596	0.4722106
87	0xbea0c07e	-0.3139686
88	0xbd84b97a	-0.06480689
89	0xbe53fb68	-0.20701373
90	0x3e2e9ecc	0.17052764
91	0x3e43cb95	0.19120629
92	0xbe55036f	-0.20802091
93	0x3ef4dad5	0.47823206
94	0xbe18b60a	-0.14913192
95	0x3d50493e	0.0508511
96	0xbdb976d3	-0.09055867
97	0x3eae2544	0.34012806
98	0xbead7e68	-0.33885503
99	0xbe927080	-0.28601456
100	0xbea224f7	-0.31668827
101	0xbd254f68	-0.04035893
102	0x3e380a0c	0.17972583
103	0xbf023d1c	-0.50874496
104	0xbe171230	-0.14753032
105	0xbe08bd9e	-0.13353583
106	0xbdf84242	-0.12122013
107	0xbea9e544	-0.33182728
108	0x3edee50b	0.4353412
109	0x3d8e25aa	0.069407776
110	0x3f170321	0.5898915
111	0x3d26222d	0.040559936
112	0xbe98bc21	-0.2983103
113	0xbcbfd9be	-0.023419257
114	0xbeea194c	-0.45722425
115	0x3e85f609	0.26164272
116	0xbe94dfaf	-0.29076907
117	0x3eac7b3d	0.33687773
118	0xbe6db1d2	-0.23212364
119	0xbdcd172e	-0.10014187
120	0xbc90e22f	-0.017685978
121	0x3e65606b	0.22400062
122	0xbe1fdac4	-0.15610796
123	0xbe30813c	-0.17236799
124	0xbe44a045	-0.19201763
125	0x3eaf22ee	0.34206337
126	0xbe67faeb	-0.22654311
127	0xbd634015	-0.055481035
128	0x3f234010	0.63769627
129	0x3ea30805	0.31842056
130	0x3ef91b53	0.4865366
131	0x3ea9ae8f	0.3314099
132	0xbe5f78d0	-0.2182343
133	0xbebea980	-0.37238693
134	0xbf043b30	-0.5165281
135	0x3ebee8ab	0.37286887
136	0xbb2fb36a	-0.002680982
137	0x3d40e6d8	0.04709515
138	0xbe0bd214	-0.13654357
139	0xbea78a3a	-0.32722646
140	0x3e9cd691	0.3063245
141	0x3e861125	0.26184955
142	0x3d0783f7	0.033084836
143	0x3d4021b2	0.046907134
144	0x3d8f344c	0.06992397
145	0x3e9b8061	0.30371383
146	0xbde68ae9	-0.11256964
147	0x3eac68e1	0.33673766
148	0x3e7f8e5b	0.24956648
149	0x3daa3038	0.08309978
150	0x3db5923e	0.08865784
151	0x3e36772a	0.17818895
152	0x3a8b7d9a	0.001064229
153	0x3df4a128	0.119448006
154	0xbe926305	-0.2859117
155	0x3e3f4ad2	0.18680885
156	0x3dc50ed7	0.09621971
157	0x3d248aea	0.04017154
158	0xbe566a15	-0.20938905
159	0xbccf2416	-0.025285762
160	0xbd70f1da	-0.058824398
161	0x3e1acfb6	0.15118298
162	0x3d156e16	0.03648194
163	0xbe702786	-0.23452577
164	0xbf01d851	-0.507207
165	0xbc9aea5b	-0.018910578
166	0x3ea5fb5c	0.32418334
167	0xbec17f08	-0.3779223
168	0x3ee550ad	0.44788113
169	0xbee8c6e5	-0.45464244
170	0x3bed5701	0.0072430377
171	0x3f102aef	0.5631551
172	0xbe772393	-0.24134664
173	0xbabc6a6c	-0.0014374978
174	0x3e5dd26d	0.21662302
175	0xbda9d61d	-0.08292792
176	0x3ceee0d2	0.029159937
177	0xbd5f0ffd	-0.054458607
178	0xbed9c476	-0.425327
179	0xbf24574e	-0.64195716
180	0x3eee5952	0.4655252
181	0x3ecbc3ee	0.3979792
182	0x3d1d095a	0.038338996
183	0xbdc223d7	-0.09479492
184	0xbf15144f	-0.58234113
185	0x3e1a0955	0.15042622
186	0xbdccbd01	-0.09996987
187	0xbecda06b	-0.40161452
188	0xbdf9962b	-0.121868454
189	0xbe70872f	-0.23489068
190	0xbd757829	-0.059929047
191	0x3edd49c1	0.43220332
192	0xbdde2ad4	-0.108480126
193	0xbd68d05b	-0.05683933
194	0x3da4efac	0.08053526
195	0x3e66f00c	0.22552508
196	0x3e5386e4	0.20656925
197	0x3e63fbe6	0.2226406
198	0xbe8696af	-0.26286837
199	0xbebc64bc	-0.36795604
200	0x3d914736	0.070936605
201	0x3e9d8c3e	0.3077106
202	0xba7b3db9	-0.00095840875
203	0xbe7e6b79	-0.24845685
204	0xbde172bc	-0.11008212
205	0x3c65ab71	0.014017926
206	0xbd480b55	-0.048838932
207	0xbed5154b	-0.41617808
208	0x3ec5ed69	0.38657692
209	0x3e1540cb	0.14575498
210	0x3eedfa11	0.46479848
211	0xbd638e4d	-0.05555563
212	0xbe88883c	-0.2666644
213	0x3e8b5ee4	0.27220833
214	0xbe0cd0f9	-0.13751592
215	0x3e4e292f	0.20132898
216	0xbda1136d	-0.07865033
217	0xbe1ecf5d	-0.1550879
218	0xbddb872a	-0.1071914
219	0xbe46bd71	-0.19408204
220	0x3dcf26df	0.10114836
221	0xbe56d730	-0.20980525
222	0x3cbda14b	0.0231482
223	0x3e01346c	0.12617654
224	0xbe486d7b	-0.19573013
225	0xbd7e6426	-0.062107228
226	0xbcc1cbbe	-0.023656722
227	0xbe75cea2	-0.24004605
228	0xbde8f0fa	-0.11374088
229	0xbe7b9644	-0.2456904
230	0x3e1d0c99	0.15336837
231	0xbdc3952f	-0.09549939
232	0xbef2600b	-0.473389
233	0xbd8935e9	-0.06699736
234	0xbea1f521	-0.3163233
235	0xbc40eb57	-0.011774859
236	0xbe72aa4f	-0.2369778
237	0x3d51dbe4	0.051235095
238	0xbe3ad27f	-0.1824436
239	0xbd4f4c7f	-0.05061006
240	0xbd4f3591	-0.050588194
241	0x3e309764	0.17245251
242	0xbe462eed	-0.19353838
243	0x3d92ab85	0.07161621
244	0xbda658c2	-0.08122398
245	0xbed7ac68	-0.42123723
246	0x3e26c7f9	0.16287221
247	0xbe5ae1bb	-0.21375172
248	0xbe8c6cee	-0.27426857
249	0xbf37bf45	-0.7177623
250	0xbd6dc17a	-0.05804584
251	0x3ecda72f	0.40166613
252	0xbe8f3b44	-0.27974904
253	0x3e607ba6	0.21922168
254	0xbedbe69a	-0.42949373
255	0xbdfc2730	-0.12312162

lstm.bias_ih_l0 f4 [80]
0	0xbe735638	-0.23763359
1	0xbe8e6f0b	-0.27819094
2	0xbe14bec8	-0.14525902
3	0xbf243c95	-0.6415494
4	0xbec1db7b	-0.37862763
5	0xbf165efb	-0.5873868
6	0xbe955d36	-0.29172677
7	0x3e0dfdd4	0.13866359
8	0xbee47fbb	-0.446287
9	0xbf01b6c2	-0.5066949
10	0xbf00fe65	-0.50388175
11	0xbecb9bcc	-0.397673
12	0xbedf7ff0	-0.43652296
13	0xbe850ae3	-0.25984868
14	0xbe137182	-0.14398769
15	0xbe2e7f11	-0.1704066
16	0xbdf2ea3b	-0.11861082
17	0x3d54548e	0.05183845
18	0xbde6fc4b	-0.1127859
19	0x3e48d715	0.19613297
20	0x3e5a33e6	0.2130886
21	0xbe839002	-0.25695807
22	0xbe6d697d	-0.23184772
23	0x3ebf0fbb	0.3731669
24	0xbedea98b	-0.43488726
25	0xbee5c4c5	-0.44876686
26	0xbedaa13a	-0.4270113
27	0x3da2bde6	0.079463765
28	0xbc06d12c	-0.008228581
29	0x3e9f05a8	0.31059003
30	0xbe852205	-0.26002517
31	0xbdd408ee	-0.10353266
32	0x3d31dc9b	0.043423276
33	0x3e6f6274	0.233774
34	0xbee38345	-0.44436088
35	0xbd0fd69d	-0.03511678
36	0xbefda453	-0.49539432
37	0xbe8ad701	-0.2711716
38	0xbd1d5bb5	-0.038417537
39	0x3e29ea23	0.16593222
40	0xbb284cf5	-0.0025680636
41	0xbe2de217	-0.16980778
42	0xbdac73d1	-0.08420528
43	0x3e8ee473	0.27908668
44	0xbd01d5b5	-0.031697948
45	0x3e0bb191	0.13641955
46	0xbe10c201	-0.14136507
47	0x3ef37a5f	0.475543
48	0x3df24c00	0.11830902
49	0x3d85d98b	0.06535634
50	0xbc386d74	-0.011256564
51	0x3d199ba1	0.037501935
52	0xbe35df60	-0.17760992
53	0xbe23f6b5	-0.1601208
54	0x3e3dbe82	0.18529704
55	0x3cda1d29	0.026625233
56	0x3d8d0576	0.06885807
57	0x3db6ea4d	0.08931408
58	0xbd07e64b	-0.03317861
59	0x3e8d4942	0.27594954
60	0xbf4dc238	-0.8037448
61	0xbf4b283d	-0.79358274
62	0xbf17bd25	-0.59272987
63	0x3da14786	0.0787497
64	0xbeb7c384	-0.35891354
65	0xbeb72124	-0.35767472
66	0xbf10aa4f	-0.5650987
67	0x3f013e77	0.5048594
68	0xbf10cd71	-0.5656348
69	0x3e41b60e	0.18917105
70	0xbf258769	-0.64659745
71	0xbea5e11d	-0.3239831
72	0xbf2d5a01	-0.6771546
73	0xbe65f24c	-0.2245571
74	0xbf16a3ba	-0.58843577
75	0xbf5ce7bf	-0.86291116
76	0xbf09da8d	-0.5384911
77	0xbf2db8da	-0.67860186
78	0xbf4fb498	-0.8113494
79	0x3e8b91ec	0.27259767

lstm.bias_hh_l0 f4 [80]
0	0xbcfb419b	-0.030670932
1	0xbe4738d1	-0.19455267
2	0xbd07e602	-0.033178337
3	0xbe936721	-0.2878962
4	0xbf1e0d4c	-0.6173904
5	0xbe99aac1	-0.30013087
6	0xbdcde2bd	-0.100530125
7	0xbdc937f8	-0.09825128
8	0xbf28a0f9	-0.65870625
9	0xbe1ec02a	-0.15502992
10	0xbedf3942	-0.43598372
11	0xbec8563a	-0.39128286
12	0xbeb40d5f	-0.3516645
13	0xbf2ab7f1	-0.6668692
14	0xbe7dcee1	-0.2478595
15	0xbe901de1	-0.28147796
16	0x3da4f4b4	0.08054486
17	0x3da1ff2e	0.0791
18	0xbe7c2183	-0.24622159
19	0x3e3caaa4	0.18424469
20	0x404521d6	3.0801902
21	0x403185b7	2.7737863
22	0x402ae57d	2.6702569
23	0x404d72a2	3.2101216
24	0x40305d55	2.7556965
25	0x40244209	2.5665305
26	0x402b1abf	2.6735075
27	0x404b60fc	3.1777945
28	0x40447e2e	3.0702014
29	0x404a3adf	3.1598432
30	0x4027f12e	2.6240954
31	0x402ca697	2.6976678
32	0x4036ee08	2.8582783
33	0x404f205c	3.23635
34	0x402647cc	2.5981321
35	0x4039a798	2.900854
36	0x4025e7af	2.5922658
37	0x403a8b81	2.9147646
38	0x40368f14	2.8524828
39	0x403f0ba7	2.9850862
40	0x3c0e12fe	0.00867152
41	0xbbf4606d	-0.007457784
42	0xbe094284	-0.1340428
43	0x3e9825ec	0.29716432
44	0x3e38a13e	0.18030259
45	0xbdb93911	-0.09044088
46	0xbe4ba9a8	-0.19888937
47	0x3ea11346	0.31460017
48	0xbe5594b1	-0.20857503
49	0xbe5294b0	-0.20564532
50	0xbea00aab	-0.3125814
51	0xbe28913b	-0.16461651
52	0xbe5b9c43	-0.21446328
53	0x3e4357f2	0.19076517
54	0xbc65b147	-0.014019317
55	0x3e09d1c3	0.13458924
56	0x3d6e7272	0.058214612
57	0xbe1bd5f4	-0.15218335
58	0x3ea50e13	0.322373
59	0x3ed009b3	0.406324
60	0xbf0181b3	-0.5058853
61	0xbf5b0c26	-0.8556541
62	0xbf20d465	-0.6282409
63	0xbea9209c	-0.3303269
64	0xbf118ce9	-0.56855637
65	0xbe78eeb7	-0.24309812
66	0xbef9ab08	-0.487633
67	0x3f11fe4a	0.5702864
68	0xbecb6b26	-0.39730185
69	0xbc717677	-0.014737717
70	0xbeb19134	-0.34681094
71	0xbe5dd92c	-0.21664876
72	0xbf562a32	-0.83658135
73	0xbec19a7e	-0.3781318
74	0xbf222d43	-0.63350314
75	0xbf4ee615	-0.8081983
76	0xbe9f5e49	-0.3112662
77	0xbf88af3f	-1.0678481
78	0xbf5bc495	-0.85846835
79	0x3e245c1b	0.1605076

head.net.0.weight f4 [1, 20]
0	0x3f120e77	0.5705332
1	0x3f4ce05b	0.8002984
2	0xbf34ad07	-0.7057652
3	0xbd0f893f	-0.035042997
4	0xbf1193c0	-0.56866074
5	0x3f4c0a9e	0.797037
6	0xbf624efd	-0.88401777
7	0xbc0b9079	-0.008518332
8	0x3f0168d6	0.5055059
9	0x3d15d4b8	0.036579818
10	0x3f4da33d	0.80327207
11	0x3ef3b7ee	0.47601265
12	0xbf421604	-0.75814843
13	0xbe7863b7	-0.24256788
14	0xbf47defa	-0.7807461
15	0x3f5341c8	0.8252225
16	0x3f05148c	0.5198448
17	0x3f5196d3	0.81870764
18	0xbf43fed6	-0.76560724
19	0xbc92c122	-0.017914359
