Project-Run/run_cudalstm_mcd_model/model_epoch033.pt (torch, 19526 bytes, 5 tensors)

lstm.weight_ih_l0 f4 [80, 33]
00000000: c10b f5bd 0d22 2d3e e044 3e3f 2085 4f3e
00000010: 19fa 9b3f 441f 073d cf4d cc3e 2dad b2bb
00000020: 16f1 173f 8799 f53b e5c7 e0bd e70e a7bd
00000030: ab7d b2bd 4945 be3e 0c66 f23d e621 c3bd
00000040: cf3a cf3d 9701 143f d7e6 243e 69ff 783e
00000050: 7a55 8b3e b346 2bbf 245c 25bd 5008 ac3e
00000060: 41d6 80bf 4e65 05bd a587 023f a007 26be
00000070: ab6d 5dbc 37ba c83e ab28 22bc 5d33 463e
00000080: 8162 01be 3aa1 3d3f 12c1 e43c 8123 32be
00000090: 1299 6c3e 2b68 3b3f 13d9 0abf 4ace e13c
000000a0: 01ec 4dbd 3945 5abd 71c9 aa3d c429 303d
000000b0: 5109 d03e 586b 9cbe 29c4 673f 6695 103e
000000c0: 62e2 d73d fe24 2fbd 4f08 003f 1068 debe
000000d0: 3915 0c3f f5e7 393e 9251 d53d ec39 113f
000000e0: a110 9abe 198f 9d3c d151 9e3d 2a5e 11bf
000000f0: 5a33 d43e 6f9b 9c3d f8bf adbd d860 31be
00000100: d445 94be 3490 193f c810 36be 7f9a a4be
00000110: 0580 ea3e d868 6dbe 4968 7b3f 81cd a9bd
00000120: ffc1 773e 58e5 d4be 07a8 103f 0975 8d3b
00000130: ec30 d7bd c521 483d eb81 60bc 386e e0be
00000140: 0fbd 11be b01b a03d fadd 2d3e c309 09bf
00000150: 3801 263e d066 6c3e 24c7 783d 4013 e0be
00000160: 16b9 223f 6ed6 3a3e 9a79 363e 3720 25bd
00000170: abc3 743d 18ba ee3d 1583 4b3f fc58 5cbe
00000180: 757a a93c 54ea 3fbe 1b67 2bbe 18a4 4dbf
00000190: 57a4 df3e 77b5 ec3e 0473 8dbd a5ee e33e
000001a0: 0a12 8bbe e0ad 433e 6202 1c3e ac9b 8fbe
000001b0: ddde 253c 74ff 253f c488 49be 67ed 733e
000001c0: a4da 023f 6611 33be f39d 8fbd cc21 7c3f
000001d0: 9d5d b6be 092a 493e 191f 47bf 68b6 a8bd
000001e0: a18f 2e3e e79d 18be 8501 f63d 018d a8be
000001f0: 4a08 5b3d 0160 c7be 26f1 49be cefe 65be
00000200: 0d17 863e 4680 e7bd e67d 523e da21 20be
00000210: 71b7 74bd 13e6 8e3d 08f2 9f3e 4721 06be
00000220: 2d0a b23f 3095 e8be aa0e 88be 6546 7fbe
00000230: b52d a63d 198f e6bd 15ae 053f 7cc9 813e
00000240: 98bb bcbe c7a2 7abe 332a d1be b1bb 1bbf
00000250: 2650 643e 48f5 6f3e 4291 39bf ba05 4dbe
00000260: 83f6 863e c32b e4be 181b debc b38d 04be
00000270: d177 e7bd e1dd f13e f36c ff3d b1aa 04be
00000280: b56d 673f 8734 213e a7dc b23e 9737 28be
00000290: 2475 63bd 1f6f b03d a4f2 57bd b38a bc3e
000002a0: 3091 24be 96f3 883f 8ba0 18be 6482 083e
000002b0: 2fa0 dcbc 8ab1 793f 102e 5c3d b626 743d
000002c0: 163c dfbd f456 c9be 75f0 9ebd f30d 1bbe
000002d0: d089 a53b 7dcf b13e 46f0 3c3e 2bd0 48be
000002e0: 4656 e23d 1a35 a03e 09e5 d3be aaec 3e3f
000002f0: f2fa ba3e 3c7b 38be d5ad 7abd cc2d d2bd
00000300: da20 05be 10b0 3e3f e67f 52bc 298d 06bd
00000310: 003f 1dbd 6bf6 5d3e b957 d2bd 0fc2 c83d
00000320: 93e3 f8bd 161c a8be 4f72 f4be b163 f93e
00000330: 1422 abbe 866b 4f3c d9fb d0be d408 6cbe
00000340: 05ec e53e a6d7 073f 444d 613e b2d6 23bf
00000350: b604 69be 581c 32be 07fc fcbc 46b9 a63e
00000360: b98d bcbe 068b 4ebe 12fc f7be 3092 0a3e
00000370: 4fd7 2dbf 8b3d 273e 0441 a53e 35d3 3cbd
00000380: 442b bebe d0f3 853e 4a7f 3ebd 57da de3e
00000390: f1ce 82be f313 eebe cd47 23bd e05d acbf
000003a0: d76c e03e d09c d9be 2731 af3e 66d8 c13e
000003b0: 210c 1f3e fdf0 d6be abdc b3be 07c0 ea3e
000003c0: 4e96 f83e c779 e1be 3f14 d63e a7a5 5bbf
000003d0: e762 e53e 9e1a f63e d177 af3e 6592 b5bd
000003e0: 96be 0e3f 1b28 47be ad0b 033f 4f7d 4d3f
000003f0: fc89 c73e 4ebf d13e 1ea3 083f f3d1 00bf
-0.119651325 0.1690752 0.74323845 0.20265627 1.2185699 0.0329888 0.39903113 -0.005452773
0.5935224 0.0074951085 -0.10975627 -0.08157139 -0.087153755 0.37162235 0.1183587 -0.0952795
0.10118639 0.57814926 0.16103683 0.24316181 0.2721365 -0.66904753 -0.040371075 0.33600092
-1.0065385 -0.032567315 0.5098823 -0.16213846 -0.013514916 0.3920457 -0.009897391 0.19355531
-0.12635233 0.7407414 0.027924094 -0.17396356 0.23105267 0.7320582 -0.5423748 0.027564187
-0.0502739 -0.053288672 0.08339203 0.04300858 0.40632108 -0.30550647 0.9053369 0.14119491
0.10541226 -0.042759888 0.5001268 -0.43438768 0.54719883 0.18154891 0.10415949 0.56729007
-0.30090812 0.019233273 0.07730449 -0.5678431 0.41445428 0.07646834 -0.08483881 -0.17322099
-0.28959525 0.5998566 -0.17779839 -0.3214912 0.45800796 -0.23184526 0.98206 -0.0829115
0.24195097 -0.41581225 0.5650639 0.00431693 -0.10507378 0.04886033 -0.01370285 -0.4383409
-0.14232276 0.07817781 0.16979209 -0.5353052 0.16211402 0.23086095 0.06073679 -0.43764687
0.6356367 0.18245861 0.17819825 -0.040313926 0.059756916 0.11656588 0.7949689 -0.2151832
0.020688275 -0.18741733 -0.1673855 -0.8032851 0.4368007 0.46232197 -0.06906703 0.4451801
-0.271622 0.19109297 0.15235284 -0.28048456 0.0101239355 0.64842916 -0.19681078 0.2382103
0.5111487 -0.17487106 -0.07012548 0.9848907 -0.35618296 0.19644941 -0.77781826 -0.08237916
0.17046978 -0.14903985 0.120120086 -0.32920077 0.053474702 -0.38940433 -0.19720897 -0.22460482
0.2618946 -0.11303763 0.20555839 -0.15637913 -0.059745256 0.06977477 0.31239343 -0.13098632
1.3909355 -0.4542632 -0.26573688 -0.24929197 0.08114187 -0.112577625 0.52218753 0.25349033
-0.36861873 -0.24476157 -0.40852508 -0.6083327 0.22296199 0.23433411 -0.7248727 -0.20021716
0.2635995 -0.44564638 -0.027112529 -0.12944679 -0.1130215 0.47239593 0.12471952 -0.12955739
0.90401775 0.15742694 0.3493397 -0.16427456 -0.055531636 0.08614945 -0.052721635 0.3682457
-0.1607101 1.0699337 -0.14904992 0.1333099 -0.02693185 0.9753653 0.053754866 0.05960723
-0.10900132 -0.39324152 -0.07760707 -0.1514204 0.005051829 0.34728613 0.18451032 -0.1961066
0.110516116 0.31290513 -0.41385677 0.7457987 0.3651958 -0.1801576 -0.061200935 -0.10262641
-0.13000813 0.744874 -0.012847876 -0.032849465 -0.03839016 0.21676032 -0.10270638 0.09802639
-0.12152781 -0.32833928 -0.4774346 0.4870887 -0.33424437 0.012659913 -0.40817145 -0.23050243
0.4490663 0.5306343 0.22002131 -0.63999474 -0.22755703 -0.17393625 -0.030881895 0.32563227
-0.36826876 -0.2017022 -0.48434502 0.13532329 -0.6790666 0.1633207 0.32276165 -0.04609986
-0.37142384 0.26162577 -0.04650811 0.43525955 -0.2554851 -0.46499595 -0.039863396 -1.3466148
0.43833038 -0.4250245 0.34217188 0.3786041 0.1553197 -0.41980734 -0.35129294 0.4584963
0.48552173 -0.4403822 0.41812322 -0.8579964 0.4480202 0.48067182 0.342711 -0.08865813
0.5575956 -0.19448893 0.5118969 0.8026933 0.3897246 0.40966266 0.533739 -0.5032036

lstm.weight_hh_l0 f4 [80, 20]
00000000: d4af 3bc0 cdcb febd 061d fd3e 162c 89bc
00000010: b225 9f3e 208a 24bf 27b1 b7bd 9242 a13e
00000020: 58e6 d93e 8e45 a43c 00be 0cbf be40 f9bd
00000030: 406a ac3f db67 c33e 60aa 37be ebc4 323e
00000040: 3615 8f3d 7d4c 1e3e 4b86 e73e 776b 563f
00000050: a913 a9be cc64 3dbf 6b26 a03c 4c9e d3be
00000060: f0d3 8fbd 22c2 323f b2ca 333e d76d b5bd
00000070: dde2 7e3e 1bc2 b8be 3248 5cbd 7a74 0c3e
00000080: 6b34 423f 0a37 d63e dd36 4fbf 8dbb c6bc
00000090: 5d65 55be 0d79 5abe 2d30 ea3e 3b19 12bf
000000a0: 7073 10be fa34 55be 29be 2240 c4cc aabe
000000b0: b45c a33e 8a89 47be 6e5e 60be 7ee6 4ebf
000000c0: b3a1 153f f84b 273f ff62 8fbe dbf4 68be
000000d0: c255 1bbf f84c a6be 2c3d 77bf 8733 263f
000000e0: 851e 13bf 2991 593e 3b1a d8be 13b6 9ebf
000000f0: 6230 433e 892c 553f 28f4 7b3f f45b 83bf
00000100: a97a 0bc0 81f7 283f e256 2abf 83fe 7bbf
00000110: 0fab 14bf 7a5b 5dbe 4292 cf3f b79f f3bf
00000120: 2a01 01c0 0c33 c23e 83b7 923f c67b 1cbe
00000130: e9c6 133e ed46 543f 33e2 67bf 205a dbbd
00000140: 3f4c 913c 35ed 3f3f ef79 783d a52b 6cbf
00000150: 03ae 483e dcaa afbe 9d3f d83d ff88 09bf
00000160: a559 173e 121c 1d3f 2af9 93be 2795 663e
00000170: ef7a 1dbe fadc 2a3f 146e 0abf aab2 7d3e
00000180: 153c 23bf 5649 af3e bb9f 78bf acfe 0dbf
00000190: 6b0e efbe 159f e5bd a99d ad3e 414b 32bf
000001a0: 16c9 e5be beeb 14c0 bfba 973c 192f 81bf
000001b0: f0d9 733f edf3 323f 647f 923d 70eb 413e
000001c0: 4058 42bf 2cbb 9bbe 6ffa e7be b33a 5f3e
000001d0: 8935 e9be 2b2e 493e 9bcd 3bbe 03d4 5fbf
000001e0: 5894 a43e 6fe9 ad3f c334 40bf 2a03 a73e
000001f0: 0ceb fbbe 3df4 f73f 6fd6 75bb c2f5 a73e
00000200: 7a41 af3f 8801 26be 595a a43f 2bb1 b53f
00000210: 1b9c 5cc0 1e96 0bbf 88b6 09c0 f149 343f
00000220: 64f8 143e b924 3e3f 01d6 20be ca8a f23e
00000230: 070b bbbe faa4 4a3f 1172 00be 1558 773f
00000240: a025 c1be ff28 3e3f 082c 383e 2131 1abf
00000250: fc15 003f 6ac2 993e 65ef 683f 8692 323f
00000260: d976 25bf 4549 233f c125 9bbf 741c 533f
00000270: 65de 0ebf 6fea 4f3f f934 87bf a054 843f
00000280: afe9 18bf 7a84 3a3e ffef 8b3f ebf8 563f
00000290: 91f2 1bbf 8f9e 26bf ee55 723f d9c2 17bf
000002a0: 5859 bb3e 150c 3ebf e6af 20be d37e ae3d
000002b0: b760 a1bf c686 1cbf dac6 e43f 305b 6ebf
000002c0: 651c 203f 7b49 b9bd 5f7b 73bd b5a9 25bf
000002d0: bd2d 8b3e 97b5 cdbe 8a99 4d3f 4e21 ac3e
000002e0: b430 18c0 d52d 16be 651a ba3e c1d3 60be
000002f0: 241a 063d eec5 4ebf e2dd 9dbd c8c2 073f
00000300: 9fe3 5ebf a0dd 113f f51c 823e da85 c03d
00000310: 3921 1a3e 307c 9dbc 1391 24bf a830 96bf
00000320: b2d5 9dbd 2f43 a03f c612 893e 5c57 a8be
00000330: a0ab cabe f4b0 84be 344e 143e 789e 86bf
00000340: a919 293f cae6 7f3f 145b c8bf cd41 47be
00000350: 6025 6bbe b773 32bd 739e 3abd 75f1 b43e
00000360: b0c1 9abe 52b3 4c3e 2805 8cbe 2e81 dbbf
00000370: 7a81 59be 690d f33d 85c1 d73e 54bb e93c
00000380: db0f ccbe 0529 85bd 807c 323c bfdb c83e
00000390: 2c74 783f 09f2 d8be 183a a0be db00 cbbf
000003a0: 88ce b53e d9be d53e f914 e93e 8259 94be
000003b0: bb04 a3be 2bc5 c13e c6b9 8abe 8b5a 6c3e
000003c0: 0330 3d3f 89c0 5dbf bb86 7abf ad58 ea3f
000003d0: 3e0b 6ebd c373 1d3e f1dd 43bd 3acb a63d
000003e0: 78b0 373f 9e8f 9cbf de36 493f 8d60 b23f
000003f0: cab3 d33e 516c 91bf 5741 a1bf ac92 d43e
-2.9326067 -0.12441216 0.49436206 -0.016744655 0.31083447 -0.6427326 -0.08969336 0.31496102
0.4255855 0.020052698 -0.54977417 -0.12170552 1.3469925 0.38165173 -0.17936087 0.1745793
0.069864675 0.15458865 0.45219645 0.8375773 -0.33022812 -0.7398193 0.01954957 -0.41331708
-0.07022846 0.69827473 0.17557791 -0.08858841 0.24891229 -0.3608559 -0.05377979 0.13716307
0.75861233 0.41838866 -0.8094309 -0.024259353 -0.20839448 -0.2133524 0.4573988 -0.5706975
-0.14106536 -0.2082099 2.5428565 -0.3335935 0.31906664 -0.1948606 -0.21911022 -0.80820453
0.5844986 0.65350294 -0.28005216 -0.22749655 -0.6067773 -0.32480597 -0.96577716 0.64922374
-0.57468444 0.2124678 -0.42207512 -1.2399315 0.19061425 0.8327108 0.9841943 -1.0262437
-2.1793616 0.6600266 -0.6653882 -0.9843523 -0.58073515 -0.21616927 1.6216509 -1.9033116
-2.015696 0.3792957 1.1462253 -0.15281591 0.14431347 0.82920724 -0.9057953 -0.10710549
0.017736552 0.74971324 0.06066316 -0.92254096 0.1959763 -0.34310043 0.10559008 -0.53724664
0.1478029 0.61370957 -0.28901035 0.22517835 -0.15378927 0.66743433 -0.54074216 0.24775186
-0.6376355 0.34235638 -0.9711873 -0.55466723 -0.46690688 -0.11211983 0.33909348 -0.6964608
-0.4487998 -2.3268886 0.018521665 -1.0092498 0.9525442 0.6990345 0.07153204 0.18937469
-0.7591591 -0.30416238 -0.45308253 0.21799736 -0.45548657 0.19646518 -0.18340151 -0.8743288
0.32144427 1.3586863 -0.7508051 0.326196 -0.49202764 1.9371411 -0.0037511846 0.32804686
1.3691857 -0.16211522 1.2840072 1.4194692 -3.447028 -0.54525936 -2.1517658 0.70425326
0.14547879 0.74274784 -0.15706636 0.47371513 -0.3653185 0.79157984 -0.12543513 0.9661878
-0.37724018 0.74281305 0.17985547 -0.60231215 0.50033545 0.3003114 0.9099029 0.6975483
-0.6463447 0.63783675 -1.2120897 0.8246529 -0.558081 0.8121709 -1.0563041 1.0338326
-0.5973157 0.18214598 1.0932616 0.8397357 -0.60917 -0.6508569 0.9466237 -0.5928169
0.365916 -0.74237186 -0.156921 0.085202836 -1.260764 -0.6114315 1.7873185 -0.9310789
0.62543327 -0.090472184 -0.059443828 -0.6471208 0.27183333 -0.40177605 0.80312407 0.3361916
-2.3779726 -0.14665921 0.36348262 -0.21955778 0.032739773 -0.80770767 -0.077083364 0.5303159
-0.8706607 0.569788 0.25412717 0.0940053 0.15051736 -0.019224256 -0.64283866 -1.1733599
-0.07706775 1.2520503 0.26772135 -0.3287915 -0.39584064 -0.25916255 0.14482957 -1.0517111
0.6605478 0.9996153 -1.5652795 -0.19458695 -0.22963476 -0.043567386 -0.045561265 0.35340467
-0.30225897 0.1999028 -0.27347684 -1.7148798 -0.21240798 0.11867792 0.4213983 0.028531708
-0.39855847 -0.065019645 0.010893941 0.39230153 0.97052264 -0.42372158 -0.31294322 -1.5859636
0.35509133 0.41747168 0.45523813 -0.2897454 -0.31839547 0.3784574 -0.2709486 0.23081414
0.73901385 -0.8662191 -0.9786183 1.8308312 -0.05811619 0.15376191 -0.04781908 0.08144231
0.71753645 -1.2231328 0.78599346 1.3935715 0.41348106 -1.136118 -1.2598065 0.41518152

lstm.bias_ih_l0 f4 [80]
00000000: ae11 b6be baf4 2cbf 10e7 85be 2e4b cabf
00000010: cee8 24bf f3e4 91bf 2034 09bf 8273 f93e
00000020: fc08 82bf eefa 18bf e7fb 85bf 5c3c 8d3d
00000030: 1bcc aabe 2386 90bf d0bb 5bbf 4d53 8fbe
00000040: 9ba6 dbbd cb4f 3f3d c0f1 ef3d e08a 1e3f
00000050: dd29 3abf 6e2c 75bf 0a31 b1bf 20cb 733f
00000060: c7e8 cdbe eef1 8dbf 61c6 e6bf 4a51 ad3e
00000070: a2d8 2dbe 3644 0d3f a3ee 5fbf a430 6fbf
00000080: b37d b4bd 1914 ee3e f6ee 48bf 4a31 efbe
00000090: 7b08 79bf c128 5fbf 4030 2bbf 7aa8 0e3e
000000a0: 5ebe 0c3e 8f99 febd f156 f6bd 13db 203f
000000b0: 366d 4dbe 476f fe3d e73b b2be 2510 ce3f
000000c0: a58c 713d 67f2 1b3e cf0e ad3d dfc5 4a3e
000000d0: d4ec 1dbe 4a7c 2cbe 5fbf 16bf 72ed c13e
000000e0: e772 ac3e d53b e43d 6b9f 9dbe e8fe d03f
000000f0: 1f37 7cbf 66a9 7dbf 63fb 56bf 7dae 3b3e
00000100: 29e9 21bf fefa 1bbe 692b 45bf 3c55 bd3f
00000110: f25d 70bf 784c 203e 5034 0ebf 50f2 5dbf
00000120: 7ecc 70bf 7eff 04bf 41ca 6bbf ed5a b4bf
00000130: 0a88 9cbe e862 8abf bb51 aabf 4779 3d3f
-0.35560364 -0.67560923 -0.2615285 -1.5804193 -0.6441773 -1.1397995 -0.5359516 0.48720938
-1.0158992 -0.5975789 -1.04675 0.06896278 -0.33358845 -1.1290935 -0.85833454 -0.2799324
-0.10725137 0.046706956 0.11716032 0.61930656 -0.7272013 -0.9577092 -1.384309 0.9523182
-0.40216658 -1.1089456 -1.802929 0.3385108 -0.1697717 0.55182207 -0.87473506 -0.93433595
-0.08813038 0.46499708 -0.78489625 -0.46717292 -0.97278565 -0.8717156 -0.668705 0.13931456
0.13744494 -0.12431633 -0.120283015 0.6283428 -0.20061192 0.12423568 -0.34811327 1.6098677
0.05897202 0.15229188 0.0845009 0.19802044 -0.15422374 -0.16844288 -0.5888576 0.3787647
0.33681414 0.111442246 -0.3078569 1.6327791 -0.9852161 -0.99086607 -0.83977336 0.18328281
-0.632464 -0.15232465 -0.77019364 1.4791636 -0.9389335 0.1565417 -0.5554857 -0.86697865
-0.9406203 -0.5195235 -0.9210549 -1.4090248 -0.3057254 -1.0811434 -1.3306192 0.7401318

lstm.bias_hh_l0 f4 [80]
00000000: 0135 18be 718b 17bf fb08 19be a006 9dbf
00000010: 6408 62bf 7040 5abf 8c83 b0be 8b26 803e
00000020: b139 9dbf 0ed3 7bbe 1396 7abf 7e52 9a3d
00000030: feb2 7ebe 599f c4bf 3253 76bf 5c31 c8be
00000040: 6338 bc3d c37c 973d 1856 85bc c17f 1b3f
00000050: 83f4 0840 27ac 0440 fe46 c23f 7483 7240
00000060: 7e75 3240 1e04 f43f 6417 a63f 8bf5 5b40
00000070: 7b27 3a40 50ab 5940 c699 0040 26f5 ee3f
00000080: 0982 2e40 81ec 5d40 aa7c 1040 6900 1e40
00000090: 655a 0740 111c 1440 2038 0e40 8457 3d40
000000a0: bf40 183e 98c8 1b3d ca33 2ebe ad7b 253f
000000b0: 8b95 3a3c 6d2d d2bd caaf cfbe 9b76 b93f
000000c0: ba2b 89be a91e f3bd ef07 5ebe 4544 86bb
000000d0: 83a9 43be 84d2 3a3e 36c6 49bf 7134 f93e
000000e0: e1ff a63e 7e2d 05be 325a 433d c8ae e13f
000000f0: adf6 2fbf a3c6 86bf b212 60bf db35 67be
00000100: ba94 57bf 28a1 1abd a556 31bf 0db5 c53f
00000110: 1846 45bf 9d02 42bd e9ea 82be 1578 42bf
00000120: bdcd 8cbf 6f50 2cbf c953 77bf 0f5a adbf
00000130: f7c3 a0bd 4e35 bcbf b059 b0bf 40c7 203f
-0.1486397 -0.59197146 -0.14944832 -1.2267647 -0.88294053 -0.85254574 -0.34475362 0.25029406
-1.2283231 -0.2459223 -0.97885245 0.075352654 -0.24872968 -1.5361129 -0.96220696 -0.39100158
0.091904424 0.07396843 -0.016276404 0.6074181 2.1399238 2.0730073 1.5177915 3.7892733
2.7884212 1.9063756 1.2975888 3.4368618 2.9086597 3.401081 2.0093856 1.8668563
2.7266867 3.46756 2.257609 2.468775 2.1148922 2.314213 2.2221756 2.9584665
0.14868449 0.038033098 -0.17011943 0.6464184 0.011388193 -0.102625705 -0.40563804 1.448932
-0.26791173 -0.11871082 -0.21682714 -0.004097494 -0.19107632 0.18244368 -0.7881807 0.48672822
0.32617095 -0.13005635 0.04769344 1.7631464 -0.6873577 -1.0529369 -0.87528527 -0.22579138
-0.84211314 -0.037751347 -0.69272834 1.5445877 -0.7706008 -0.047365773 -0.25569847 -0.7596448
-1.1000286 -0.6731023 -0.9661222 -1.3543109 -0.07849877 -1.4703767 -1.377737 0.6280403

head.net.0.weight f4 [1, 20]
00000000: 1515 db3f 82e7 0f40 d915 efbf 5d56 42bd
00000010: dd57 a4bf 7d54 db3f 1215 ffbf dcdc 5f3b
00000020: 9154 153f 8bd0 5f3d 4fe2 0c40 e7c9 ac3f
00000030: 0289 e5bf 877b 8fbe c76a 88bf 6d4b 1a40
00000040: 9fe2 9e3e c37d 3140 41cd 05c0 0d44 e1bc
1.7115809 2.248505 -1.8678542 -0.047445644 -1.2839314 1.7135159 -1.9928305 0.0034158742
0.58332163 0.05464224 2.2013128 1.3499116 -1.7932436 -0.2802393 -1.0657586 2.4108536
0.31032273 2.773301 -2.0906527 -0.02749827
