Project-Run/run_cudalstm_mcd_model/model_epoch026.pt (torch, 19526 bytes, 5 tensors)

lstm.weight_ih_l0 f4 [80, 33]
-0.117929935 0.1435501 0.7016273 0.2108087 1.1562767 0.11773117 0.2851648 0.052724265
0.5486557 0.004224219 -0.13202155 -0.013911698 -0.099699125 0.36724436 0.07796915 -0.07904681
-0.03726818 0.5154426 0.18645705 0.22982527 0.27184877 -0.59198016 -0.0017491899 0.27811193
-0.9472991 0.024005894 0.5119578 -0.25091773 -0.032726157 0.33980098 0.1634222 0.19086729
-0.13450916 0.7250528 0.07006172 -0.09840904 0.18330294 0.75307184 -0.43852067 0.051009107
-0.041038062 -0.021669243 0.062115125 0.019106312 0.34006652 -0.3695587 0.7649344 0.16749318
0.16962816 -0.17858414 0.394886 -0.4209354 0.49970356 0.1632422 0.15064637 0.5785543
-0.17525105 0.025080226 0.07657413 -0.6409914 0.3309783 0.13459629 -0.09487421 -0.24981295
-0.09754192 0.59132934 -0.121184595 -0.25902826 0.54491854 -0.26230803 0.8579303 -0.027140781
0.2620295 -0.4257092 0.4919096 -0.042859163 -0.13796522 -0.023875205 0.032308094 -0.39121684
-0.1935346 0.03662916 0.09507396 -0.3177001 0.22763358 0.16325569 0.094367005 -0.42757973
0.6140751 0.07229819 0.05327842 0.029482992 0.11720243 0.092077084 0.89527303 -0.13921565
-0.059758507 -0.23862122 -0.21595386 -0.8231072 0.45649254 0.51207525 -0.0065872255 0.4537499
-0.22267297 0.17045818 0.13926575 -0.23273437 -0.014623668 0.68487495 -0.13360073 0.27290183
0.431004 -0.20153008 -0.13155618 0.92384017 -0.28798 0.20423576 -0.73024964 -0.09319448
0.17523222 -0.1230542 0.08774544 -0.33918163 0.049628023 -0.37421858 -0.20053364 -0.26983204
0.26746053 -0.21984965 0.15974107 -0.16885433 -0.04681252 0.10378797 0.26916167 -0.18942967
1.3753312 -0.42480278 -0.25076154 -0.30304435 0.06588882 -0.11576842 0.54598194 0.22739182
-0.29310298 -0.33653092 -0.4411663 -0.62424135 0.15950365 0.16373332 -0.66909677 -0.28822064
0.21468703 -0.41745746 -0.031303342 -0.14817964 -0.06175939 0.41240516 0.08695873 -0.144767
0.87396187 0.14113696 0.24907008 -0.11885398 -0.061837606 0.023152234 -0.06557316 0.36801478
-0.19225648 0.9960125 0.0011155223 0.09611776 0.053990453 0.92958826 -0.0007749418 0.06546074
-0.009512515 -0.40790048 0.0048068776 -0.17655604 0.06512001 0.35516682 0.20993592 -0.24119918
0.17489786 0.4052984 -0.33862045 0.7319159 0.39228037 -0.16157755 0.039264347 -0.072150536
-0.14222862 0.6123049 -0.045174744 0.024239428 0.024291737 0.16019149 -0.10647304 0.03684078
-0.094530106 -0.20883423 -0.4594391 0.39967757 -0.34175313 -0.08562475 -0.30823913 -0.23069093
0.43242908 0.62282866 0.28483886 -0.5295425 -0.18574671 -0.21770655 0.121074386 0.33961686
-0.40655518 -0.2310727 -0.3264916 0.09043736 -0.44983763 0.015242987 0.20245193 -0.015405271
-0.53708565 0.23639463 0.024575107 0.4028578 -0.20943107 -0.29862785 -0.027830077 -1.115481
0.44282869 -0.25573322 0.30608293 0.25894922 0.07485115 -0.3580173 -0.39543098 0.4334256
0.35571018 -0.4173284 0.43314496 -0.75793654 0.42087752 0.40547374 0.31106928 -0.11639956
0.4612257 -0.20994803 0.47053027 0.6928535 0.3768456 0.40516838 0.45462707 -0.4596457
00000000: 4085 f1bd ccfe 123e d99d 333f 3cde 573e
00000010: e000 943f 0a1d f13d 1f01 923e 66f5 573d
00000020: b374 0c3f 516b 8a3b a830 07be e4ed 63bc
00000030: 0e2f ccbd 7407 bc3e 4aae 9f3d 4be3 a1bd
00000040: 85a6 18bd 0cf4 033f 99ee 3e3e 5157 6b3e
00000050: c32f 8b3e 038c 17bf 1345 e5ba b064 8e3e
00000060: 3282 72bf 02a8 c43c ab0f 033f 4a78 80be
00000070: dd0b 06bd 65fa ad3e 2658 273e b772 433e
00000080: c5bc 09be 0f9d 393f 857c 8f3d ae8a c9bd
00000090: c4b3 3b3e 51c9 403f c885 e0be edee 503d
000000a0: 8717 28bd b283 b1bc 6e6c 7e3d d784 9c3c
000000b0: 331d ae3e cc36 bdbe bed2 433f 5583 2b3e
000000c0: 01b3 2d3e c3de 36be 7f2e ca3e d884 d7be
000000d0: 25d9 ff3e f728 273e 0b43 1a3e 221c 143f
000000e0: 0375 33be 0c75 cd3c e6d2 9c3d 0318 24bf
000000f0: fd75 a93e 9cd3 093e 694d c2bd f7ce 7fbe
00000100: 0fc4 c7bd 5c61 173f a12f f8bd 5a9f 84be
00000110: c87f 0b3f 3d4d 86be 52a1 5b3f 5856 debc
00000120: bb28 863e 8ef6 d9be 93db fb3e 178d 2fbd
00000130: c146 0dbe ef95 c3bc 7e55 043d 934d c8be
00000140: ef2d 46be 7508 163d 23b6 c23d 96a9 a2be
00000150: c718 693e 802c 273e 7d43 c13d bbeb dabe
00000160: 0734 1d3f 1311 943d 793a 5a3d 5186 f13c
00000170: d407 f03d e992 bc3d 9d30 653f 8c8e 0ebe
00000180: 56c5 74bd 1f59 74be 0223 5dbe 27b7 52bf
00000190: 64b9 e93e 5d17 033f a7d9 d7bb e851 e83e
000001a0: 6204 64be 978c 2e3e ae9b 0e3e eb51 6ebe
000001b0: 1c98 6fbc f753 2f3f a1ce 08be cab9 8b3e
000001c0: 8eac dc3e e75d 4ebe aab6 06be ca80 6c3f
000001d0: 1d72 93be 2e23 513e a4f1 3abf bfdc bebd
000001e0: 1370 333e d703 fcbd e2b3 b33d 37a9 adbe
000001f0: c146 4b3d 9499 bfbe b158 4dbe 6d27 8abe
00000200: 96f0 883e 4420 61be 2a93 233e 26e8 2cbe
00000210: 7cbe 3fbd ca8e d43d 8fcf 893e daf9 41be
00000220: da0a b03f c07f d9be d163 80be a128 9bbe
00000230: b8f0 863d fe17 edbd 79c5 0b3f 67d9 683e
00000240: 9811 96be c84d acbe 8de0 e1be 48ce 1fbf
00000250: ed54 233e b5a9 273e ed49 2bbf a891 93be
00000260: ebd6 5b3e fcbc d5be ef37 00bd 67bc 17be
00000270: 6af7 7cbd c526 d33e 6b17 b23d cd3d 14be
00000280: f7bb 5f3f 3586 103e 3a0c 7f3e b769 f3bd
00000290: 6e49 7dbd c1a9 bd3c 394b 86bd 6f6c bc3e
000002a0: e2de 44be adfa 7e3f b836 923a 63d9 c43d
000002b0: 1825 5d3d 7ff9 6d3f 7725 4bba 4810 863d
000002c0: 61da 1bbc 55d8 d0be 0383 9d3b 1bcb 34be
000002d0: a45d 853d 6dd8 b53e 71f9 563e ebfc 76be
000002e0: 6d18 333e 4683 cf3e a95f adbe d75e 3b3f
000002f0: f9d8 c83e 9674 25be a7d3 203d a9c3 93bd
00000300: 61a4 11be 04c0 1c3f 2709 39bd c491 c63c
00000310: 77ff c63c 3d09 243e 8a0e dabd 5ce6 163d
00000320: 0099 c1bd a4d8 55be 9a3b ebbe 8aa2 cc3e
00000330: 44fa aebe 075c afbd 85d1 9dbe 3e3a 6cbe
00000340: 5867 dd3e b371 1f3f 66d6 913e 1990 07bf
00000350: 6334 3ebe 77ee 5ebe d9f5 f73d 43e2 ad3e
00000360: 0028 d0be 529e 6cbe e829 a7be 3937 b93d
00000370: 1e51 e6be b9bd 793c 8f4f 4f3e 6466 7cbc
00000380: 727e 09bf 6f11 723e bc51 c93c 6143 ce3e
00000390: 1975 56be c0e5 98be e7fb e3bc 15c8 8ebf
000003a0: 71ba e23e 77ef 82be e7b6 9c3e fe94 843e
000003b0: 8f4b 993d 0b4e b7be ee75 cabe f6e9 dd3e
000003c0: a51f b63e 11ac d5be 2dc5 dd3e 2108 42bf
000003d0: 427d d73e 419a cf3e 7944 9f3e e462 eebd
000003e0: c625 ec3e 9efc 56be 58e9 f03e d95e 313f
000003f0: e8f1 c03e 3b72 cf3e e1c4 e83e ae56 ebbe

lstm.weight_hh_l0 f4 [80, 20]
-2.3435674 -0.03749155 0.47054392 0.021963188 0.10608414 -0.41722572 -0.28283522 0.24736694
0.37023807 0.020282332 -0.34325293 -0.07328528 1.0705212 0.28219175 -0.3882698 0.24151641
0.117378995 0.14971521 0.48814034 0.52219933 -0.20724536 -0.67674017 -0.077257186 -0.4137362
-0.054001875 0.67920077 0.028254433 -0.028639415 0.30200994 -0.3735495 0.019110138 0.14786693
0.5265453 0.43418634 -0.8064143 -0.062139425 -0.14914735 -0.3114667 0.33504584 -0.6238707
-0.053924624 -0.09140706 2.2890947 -0.26353398 0.11895331 -0.13783514 -0.23810521 -0.65047467
0.6215348 0.507001 -0.31506568 -0.37481496 -0.43504873 -0.47519386 -0.9155865 0.34208265
-0.49163675 0.20498995 -0.3366721 -1.1714023 0.16205841 0.7941573 0.7879754 -0.94134736
-2.1071534 0.680819 -0.6260961 -1.0185256 -0.66352355 -0.24479109 1.2737892 -1.5226222
-1.707964 0.32085094 1.0036591 -0.15493546 0.04130571 0.976747 -0.57232285 -0.13269727
0.045363296 0.7106071 0.1089814 -0.90817416 0.12531553 -0.29855376 0.08563446 -0.45566404
0.14802672 0.45567995 -0.2890014 0.20618328 -0.32386306 0.68331283 -0.4101197 0.152037
-0.4571756 0.43327665 -0.7976179 -0.55102706 -0.33446696 -0.053453986 0.4250934 -0.70923
-0.45237994 -2.0949438 0.021559106 -0.97712636 0.9324759 0.6522704 0.19801666 -0.023954
-0.77679867 -0.20123172 -0.432324 0.11427465 -0.44131717 0.19670874 -0.14096358 -0.98964685
0.28507027 0.99253273 -0.5131857 0.2628385 -0.51484674 1.6153426 0.13362753 0.3686198
1.1569018 -0.11155744 1.3874993 1.2031162 -2.833667 -0.5365428 -2.0055404 0.79608923
0.11765441 0.4786391 -0.3735338 0.2403893 -0.17174 0.79397774 -0.1715081 1.1055375
-0.36923704 0.70689684 0.12839021 -0.45019883 0.5747507 0.23568645 0.52274716 0.6296308
-0.5934681 0.52670795 -0.9149011 0.79391426 -0.40188888 0.70085186 -0.9463221 0.7514411
-0.62170696 0.124555066 0.89800423 0.7613265 -0.6637998 -0.5901365 0.7974814 -0.5675337
0.37298524 -0.7136253 -0.044692256 0.15656652 -1.0901572 -0.5889644 1.5219163 -0.90413123
0.5731941 -0.25157464 -0.12459534 -0.5777142 0.35903552 -0.32517394 0.59631103 0.13994126
-2.1847963 -0.12575813 0.41386306 -0.2142587 -0.13051262 -0.8701847 -0.17087334 0.3714998
-0.67787004 0.39504442 0.3468266 -0.11963256 0.26437098 0.016050331 -0.43849367 -0.98528314
-0.014246035 0.9445023 0.3355158 -0.0979398 -0.33542907 -0.2879106 0.094988026 -0.95100486
0.5124515 1.0057456 -1.4200855 -0.23868462 0.05808856 0.12047601 -0.10463069 0.12229465
-0.20253012 -0.0807118 -0.044415835 -1.3954947 -0.08281717 0.045748487 0.24859132 0.2023095
-0.45226648 -0.13047785 -0.015660355 0.34542403 0.7569787 -0.40299168 -0.12452697 -1.246086
0.045265764 0.34849933 0.084454514 -0.18383414 -0.22876401 0.17329992 -0.2613895 0.418769
0.6294943 -0.6797174 -0.6494136 1.8057815 -0.05195888 -0.031510454 -0.15166667 -0.08263662
0.5723815 -1.1673921 0.6593712 1.111522 0.16069077 -0.74031746 -1.1968706 0.21104267
00000000: 02fd 15c0 bd90 19bd 22eb f03e 25ec b33c
00000010: a442 d93d 9c9e d5be c7cf 90be c24d 7d3e
00000020: d88f bd3e 2227 a63c d9be afbe 9816 96bd
00000030: d706 893f 707b 903e 4dcb c6be 1450 773e
00000040: 6664 f03d f24e 193e 88ed f93e dbae 053f
00000050: 2138 54be d83e 2dbf 0439 9ebd 3bd5 d3be
00000060: 1231 5dbd 1ae0 2d3f d775 e73c 359d eabc
00000070: 0ca1 9a3e e141 bfbe dd8c 9c3c 6e6a 173e
00000080: accb 063f ac4d de3e 2b71 4ebf e985 7ebd
00000090: 15ba 18be 9078 9fbe 218b ab3e fdb5 1fbf
000000a0: 11e0 5cbd a033 bbbd 8780 1240 eded 86be
000000b0: cb9d f33d a824 0dbe dad1 73be 8285 26bf
000000c0: e81c 1f3f d1ca 013f 4a50 a1be bfe7 bfbe
000000d0: b5be debe 9c4c f3be e063 6abf 7525 af3e
000000e0: d0b7 fbbe e3e8 513e 4960 acbe 83f0 95bf
000000f0: a4f2 253e e54d 4b3f c1b8 493f 24fc 70bf
00000100: 9adb 06c0 274a 2e3f d647 20bf 0c5f 82bf
00000110: aedc 29bf 84aa 7abe 860b a33f 49e5 c2bf
00000120: 909e dabf 9346 a43e e777 803f 67a7 1ebe
00000130: 2d30 293d 170c 7a3f c083 12bf cbe1 07be
00000140: ddce 393d 59ea 353f a431 df3d 1a7e 68bf
00000150: b752 003e 0adc 98be 1f61 af3d cc4c e9be
00000160: 5194 173e e24e e93e fef7 93be b621 533e
00000170: 61d1 a5be 97ed 2e3f 36fb d1be 96af 1b3e
00000180: ec12 eabe 70d6 dd3e b030 4cbf 1c10 0dbf
00000190: 413f abbe 91f2 5abd d8a5 d93e 1990 35bf
000001a0: 589e e7be 8f13 06c0 b99c b03c f424 7abf
000001b0: beb6 6e3f 31fb 263f e1c4 4a3e 2e3b c4bc
000001c0: 47dc 46bf b00f 4ebe 9259 ddbe d408 ea3d
000001d0: 53f4 e1be 046e 493e c258 10be 7f59 7dbf
000001e0: bbf4 913e a016 7e3f 2360 03bf c592 863e
000001f0: ffcc 03bf 8cc3 ce3f a8d5 083e bcbb bc3e
00000200: 5c15 943f 3a78 e4bd 9499 b13f b6ff 993f
00000210: cd5a 35c0 de5a 09bf c65a 00c0 81cc 4b3f
00000220: ccf4 f03d 2f10 f53e d23f bfbe 9d28 763e
00000230: 9cdc 2fbe 2042 4b3f d29f 2fbe 4182 8d3f
00000240: a30c bdbe 31f7 343f b978 033e 7680 e6be
00000250: dd22 133f ca57 713e c2d2 053f 7c2f 213f
00000260: 87ed 17bf 55d6 063f f536 6abf f73d 4b3f
00000270: 61c4 cdbe 076b 333f 2a42 72bf 725e 403f
00000280: 3028 1fbf ba16 ff3d 9be3 653f 4be6 423f
00000290: c9ee 29bf 3013 17bf be27 4c3f e349 11bf
000002a0: ecf7 be3e 26b0 36bf 3a0f 37bd f952 203e
000002b0: 458a 8bbf 5fc6 16bf 27ce c23f 2575 67bf
000002c0: d9bc 123f 64ce 80be d72b ffbd 14e5 13bf
000002d0: 81d3 b73e 337d a6be d7a7 183f c34c 0f3e
000002e0: b4d3 0bc0 bdc6 00be dce5 d33e a266 5bbe
000002f0: 1aa5 05be 6dc4 5ebf 6cf9 2ebe 3935 be3e
00000300: e488 2dbf 4343 ca3e 4293 b13e ea01 f5bd
00000310: a25b 873e fc7b 833c 3e82 e0be 843b 7cbf
00000320: 3468 69bc e7ca 713f bac8 ab3e a994 c8bd
00000330: 5cbd abbe 0569 93be 1589 c23d 0e75 73bf
00000340: 0630 033f 46bc 803f 5dc5 b5bf be69 74be
00000350: 45ee 6d3d 20bc f63d 9d48 d6bd 9e75 fa3d
00000360: 0e64 4fbe 3a4c a5bd 61ed 35bd 929f b2bf
00000370: 0c9c a9bd c462 3b3d b98e 7e3e 392a 4f3e
00000380: 798f e7be fc9b 05be 254a 80bc 6bdb b03e
00000390: 5bc9 413f ed54 cebe ff07 ffbd bf7f 9fbf
000003a0: 9868 393d 816e b23e 7df6 ac3d 043f 3cbe
000003b0: 1d41 6abe 8975 313e d8d4 85be e468 d63e
000003c0: 8a26 213f f601 2ebf f83f 26bf d923 e73f
000003d0: d6d2 54bd 1b11 01bd 824e 1bbe 633d a9bd
000003e0: 9887 123f 1b6d 95bf 8dcc 283f 5a46 8e3f
000003f0: 1f8c 243e 7285 3dbf 0e33 99bf 921b 583e

lstm.bias_ih_l0 f4 [80]
-0.3999193 -0.69381535 -0.18915623 -1.5392069 -0.5980873 -1.0892152 -0.5230277 0.40968224
-0.94373274 -0.49488235 -1.0058088 -0.0114916 -0.3975952 -1.0262151 -0.81937367 -0.23748799
-0.116985 -0.013146166 0.06629487 0.62208337 -0.596056 -0.9261944 -1.1257887 0.8987469
-0.46498853 -1.0717431 -1.6668186 0.28284186 -0.19135372 0.5280374 -0.7848174 -0.8306217
-0.003236193 0.4382025 -0.79760647 -0.4679942 -0.9396754 -0.8249496 -0.54260767 0.15927659
0.014491491 -0.08826683 -0.11811908 0.5738968 -0.15326777 0.1446731 -0.32639778 1.4747114
0.080886275 0.09827936 0.08728257 0.1616551 -0.27318045 -0.14485963 -0.46441978 0.311067
0.29413623 0.18457073 -0.29920715 1.3932502 -0.9346883 -0.9119199 -0.6787819 0.20382713
-0.6755359 -0.15126431 -0.7109791 1.3351401 -0.93061024 0.12125041 -0.6312581 -0.7872249
-0.8792623 -0.5072987 -0.897393 -1.3937451 -0.26108977 -1.0427301 -1.2501595 0.71506673
00000000: 39c2 ccbe e29d 31bf 2cb2 41be bb04 c5bf
00000010: 401c 19bf 676b 8bbf 25e5 05bf dfc1 d13e
00000020: 7898 71bf 3861 fdbe 58be 80bf 4447 3cbc
00000030: 9991 cbbe 045b 83bf 79c2 51bf 0d30 73be
00000040: d595 efbd 0463 57bc 9bc5 873d db40 1f3f
00000050: 2097 18bf 141b 6dbf d819 90bf 4714 663f
00000060: fa12 eebe e12e 89bf 505a d5bf a6d0 903e
00000070: 3bf2 43be 762d 073f cbe9 48bf a0a3 54bf
00000080: 4f16 54bb 145c e03e f02f 4cbf f09c efbe
00000090: 918e 70bf e62f 53bf 56e8 0abf 6719 233e
000000a0: b86d 6d3c 3dc5 b4bd 6be8 f1bd e7ea 123f
000000b0: 3af2 1cbe 2f25 143e 9c1d a7be 58c3 bc3f
000000c0: b4a7 a53d b046 c93d 34c1 b23d ea88 253e
000000d0: 4fde 8bbe 1556 14be 6ec8 edbe 2c44 9f3e
000000e0: 0699 963e 1c00 3d3e ae31 99be 0656 b23f
000000f0: bc47 6fbf 9573 69bf a7c4 2dbf 0fb8 503e
00000100: ecef 2cbf 08e5 1abe ba02 36bf dfe5 aa3f
00000110: 793c 6ebf 2352 f83d 219a 21bf 9287 49bf
00000120: 5617 61bf 54de 01bf 8cbb 65bf 3d66 b2bf
00000130: 8fad 85be 2e78 85bf 3a05 a0bf 9d0e 373f

lstm.bias_hh_l0 f4 [80]
-0.19295509 -0.6101776 -0.07707558 -1.1855522 -0.8368505 -0.80195886 -0.33182892 0.17276733
-1.156159 -0.14322443 -0.93790925 -0.0051017217 -0.3127371 -1.4332345 -0.92324626 -0.34855783
0.08217144 0.014115323 -0.06714099 0.6101949 2.2710564 2.1045203 1.7763119 3.735688
2.725591 1.9435781 1.4336993 3.3811896 2.8870597 3.3773007 2.0993032 1.9705726
2.8115847 3.4407651 2.244895 2.4679508 2.147996 2.3609705 2.3482645 2.9784293
0.025730997 0.07408267 -0.16795528 0.5919724 0.058732957 -0.082189284 -0.38392255 1.3137758
-0.24599819 -0.1727227 -0.21404493 -0.040462717 -0.31003374 0.20602696 -0.66374075 0.41903085
0.28349304 -0.056927145 0.056342833 1.5236175 -0.63683 -0.97399324 -0.71429384 -0.20524731
-0.88518506 -0.03669036 -0.6335138 1.4005642 -0.76227754 -0.08265806 -0.33147418 -0.67989105
-1.0386789 -0.6608742 -0.94246036 -1.3390311 -0.03386365 -1.4319634 -1.2972773 0.60297525
00000000: 0596 45be 9934 1cbf cdd9 9dbd 2dc0 97bf
00000010: d63b 56bf 2d4d 4dbf 7be5 a9be ebe9 303e
00000020: 05fd 93bf 6da9 12be d21a 70bf 582c a7bb
00000030: 141f a0be 3a74 b7bf de59 6cbf 2c76 b2be
00000040: 8049 a83d f543 673c 3781 89bd bc35 1c3f
00000050: fd58 1140 76b0 0640 305e e33f 8315 6f40
00000060: 1570 2e40 2bc7 f83f 7583 b73f 6965 5840
00000070: 96c5 3840 b225 5840 fc5a 0640 b93b fc3f
00000080: 01f1 3340 7f35 5c40 5cac 0f40 e8f2 1d40
00000090: c478 0940 241a 1740 f749 1640 969e 3e40
000000a0: d0c9 d23c a8b8 973d 78fc 2bbe 818b 173f
000000b0: f891 703d db52 a8bd 7f91 c4be ce29 a83f
000000c0: f3e6 7bbe 38de 30be 982e 5bbe 3cbc 25bd
000000d0: bebc 9ebe bbf8 523e eaea 29bf 368b d63e
000000e0: 0026 913e 702c 69bd bec7 663d e605 c33f
000000f0: 4a07 23bf 9f57 79bf f6db 36bf 5a2c 52be
00000100: 7d9b 62bf a248 16bd f62d 22bf b045 b33f
00000110: 9f24 43bf a148 a9bd fcb6 a9be 570d 2ebf
00000120: 6ef3 84bf 0d2f 29bf 1545 71bf 5f65 abbf
00000130: 9cb4 0abd 944a b7bf 2f0d a6bf 965c 1a3f

head.net.0.weight f4 [1, 20]
1.6820314 2.2433841 -1.7490319 -0.056684557 -1.3039113 1.5997977 -1.9759634 -0.0039563943
0.59904706 0.04233499 2.04767 1.339357 -1.7805195 -0.2370626 -0.99541724 2.3353689
0.30084607 2.602049 -2.1060505 -0.01882241
00000000: ce4c d73f 9b93 0f40 47e0 dfbf 112e 68bd
00000010: 91e6 a6bf 2cc6 cc3f 5eec fcbf a4a4 81bb
00000020: 265b 193f 7467 2d3d 060d 0340 0d70 ab3f
00000030: 10e8 e3bf 8ac0 72be aad3 7ebf af76 1540
00000040: 7f08 9a3e f987 2640 88c9 06c0 7431 9abc
